<?xml version="1.0"?>
<net name="Model42" version="11">
	<layers>
		<layer id="0" name="hidden_states" type="Parameter" version="opset1">
			<data shape="?,768" element_type="f32" />
			<output>
				<port id="0" precision="FP32" names="hidden_states">
					<dim>-1</dim>
					<dim>768</dim>
				</port>
			</output>
		</layer>
		<layer id="1" name="attention_mask" type="Parameter" version="opset1">
			<data shape="1,?,?" element_type="f32" />
			<output>
				<port id="0" precision="FP32" names="attention_mask">
					<dim>1</dim>
					<dim>-1</dim>
					<dim>-1</dim>
				</port>
			</output>
		</layer>
		<layer id="2" name="rotary_pos_emb" type="Parameter" version="opset1">
			<data shape="?,32" element_type="f32" />
			<output>
				<port id="0" precision="FP32" names="rotary_pos_emb">
					<dim>-1</dim>
					<dim>32</dim>
				</port>
			</output>
		</layer>
		<layer id="3" name="__module.blocks.0.norm1/aten::layer_norm/Multiply" type="Const" version="opset1">
			<data element_type="i32" shape="1" offset="0" size="4" />
			<output>
				<port id="0" precision="I32">
					<dim>1</dim>
				</port>
			</output>
		</layer>
		<layer id="4" name="__module.blocks.0.norm1/aten::layer_norm/MVN" type="MVN" version="opset6">
			<data eps="9.9999999747524271e-07" normalize_variance="true" eps_mode="INSIDE_SQRT" />
			<input>
				<port id="0" precision="FP32">
					<dim>-1</dim>
					<dim>768</dim>
				</port>
				<port id="1" precision="I32">
					<dim>1</dim>
				</port>
			</input>
			<output>
				<port id="2" precision="FP32">
					<dim>-1</dim>
					<dim>768</dim>
				</port>
			</output>
		</layer>
		<layer id="5" name="Constant_173818" type="Const" version="opset1">
			<data element_type="f32" shape="1, 768" offset="4" size="3072" />
			<output>
				<port id="0" precision="FP32">
					<dim>1</dim>
					<dim>768</dim>
				</port>
			</output>
		</layer>
		<layer id="6" name="__module.blocks.0.norm1/aten::layer_norm/Multiply_1" type="Multiply" version="opset1">
			<data auto_broadcast="numpy" />
			<input>
				<port id="0" precision="FP32">
					<dim>-1</dim>
					<dim>768</dim>
				</port>
				<port id="1" precision="FP32">
					<dim>1</dim>
					<dim>768</dim>
				</port>
			</input>
			<output>
				<port id="2" precision="FP32">
					<dim>-1</dim>
					<dim>768</dim>
				</port>
			</output>
		</layer>
		<layer id="7" name="Constant_173819" type="Const" version="opset1">
			<data element_type="f32" shape="1, 768" offset="3076" size="3072" />
			<output>
				<port id="0" precision="FP32">
					<dim>1</dim>
					<dim>768</dim>
				</port>
			</output>
		</layer>
		<layer id="8" name="__module.blocks.0.norm1/aten::layer_norm/Add" type="Add" version="opset1">
			<data auto_broadcast="numpy" />
			<input>
				<port id="0" precision="FP32">
					<dim>-1</dim>
					<dim>768</dim>
				</port>
				<port id="1" precision="FP32">
					<dim>1</dim>
					<dim>768</dim>
				</port>
			</input>
			<output>
				<port id="2" precision="FP32" names="72,hidden_states.3">
					<dim>-1</dim>
					<dim>768</dim>
				</port>
			</output>
		</layer>
		<layer id="9" name="self.blocks.0.attn.qkv.weight" type="Const" version="opset1">
			<data element_type="i8" shape="2304, 768" offset="6148" size="1769472" />
			<output>
				<port id="0" precision="I8">
					<dim>2304</dim>
					<dim>768</dim>
				</port>
			</output>
		</layer>
		<layer id="10" name="Convert_1438513" type="Convert" version="opset1">
			<data destination_type="f16" />
			<input>
				<port id="0" precision="I8">
					<dim>2304</dim>
					<dim>768</dim>
				</port>
			</input>
			<output>
				<port id="1" precision="FP16">
					<dim>2304</dim>
					<dim>768</dim>
				</port>
			</output>
		</layer>
		<layer id="11" name="self.blocks.0.attn.qkv.weight/scale" type="Const" version="opset1">
			<data element_type="f16" shape="2304, 1" offset="1775620" size="4608" />
			<output>
				<port id="0" precision="FP16">
					<dim>2304</dim>
					<dim>1</dim>
				</port>
			</output>
		</layer>
		<layer id="12" name="self.blocks.0.attn.qkv.weight/fq_weights_1" type="Multiply" version="opset1">
			<data auto_broadcast="numpy" />
			<input>
				<port id="0" precision="FP16">
					<dim>2304</dim>
					<dim>768</dim>
				</port>
				<port id="1" precision="FP16">
					<dim>2304</dim>
					<dim>1</dim>
				</port>
			</input>
			<output>
				<port id="2" precision="FP16">
					<dim>2304</dim>
					<dim>768</dim>
				</port>
			</output>
		</layer>
		<layer id="13" name="__module.blocks.0.attn.qkv/ov_ext::linear/Convert" type="Convert" version="opset1">
			<data destination_type="f32" />
			<rt_info>
				<attribute name="decompression" version="0" />
			</rt_info>
			<input>
				<port id="0" precision="FP16">
					<dim>2304</dim>
					<dim>768</dim>
				</port>
			</input>
			<output>
				<port id="1" precision="FP32">
					<dim>2304</dim>
					<dim>768</dim>
				</port>
			</output>
		</layer>
		<layer id="14" name="__module.blocks.0.attn.qkv/ov_ext::linear/MatMul" type="MatMul" version="opset1">
			<data transpose_a="false" transpose_b="true" />
			<input>
				<port id="0" precision="FP32">
					<dim>-1</dim>
					<dim>768</dim>
				</port>
				<port id="1" precision="FP32">
					<dim>2304</dim>
					<dim>768</dim>
				</port>
			</input>
			<output>
				<port id="2" precision="FP32">
					<dim>-1</dim>
					<dim>2304</dim>
				</port>
			</output>
		</layer>
		<layer id="15" name="self.blocks.0.attn.qkv.bias" type="Const" version="opset1">
			<data element_type="bf16" shape="2304" offset="1780228" size="4608" />
			<output>
				<port id="0" precision="BF16" names="self.blocks.0.attn.qkv.bias">
					<dim>2304</dim>
				</port>
			</output>
		</layer>
		<layer id="16" name="__module.blocks.0.attn.qkv/ov_ext::linear/Convert_1" type="Convert" version="opset1">
			<data destination_type="f32" />
			<rt_info>
				<attribute name="decompression" version="0" />
			</rt_info>
			<input>
				<port id="0" precision="BF16">
					<dim>2304</dim>
				</port>
			</input>
			<output>
				<port id="1" precision="FP32">
					<dim>2304</dim>
				</port>
			</output>
		</layer>
		<layer id="17" name="__module.blocks.0.attn.qkv/ov_ext::linear/Add" type="Add" version="opset1">
			<data auto_broadcast="numpy" />
			<input>
				<port id="0" precision="FP32">
					<dim>-1</dim>
					<dim>2304</dim>
				</port>
				<port id="1" precision="FP32">
					<dim>2304</dim>
				</port>
			</input>
			<output>
				<port id="2" precision="FP32" names="78">
					<dim>-1</dim>
					<dim>2304</dim>
				</port>
			</output>
		</layer>
		<layer id="18" name="Constant_175123" type="Const" version="opset1">
			<data element_type="i64" shape="4" offset="1784836" size="32" />
			<output>
				<port id="0" precision="I64">
					<dim>4</dim>
				</port>
			</output>
		</layer>
		<layer id="19" name="__module.blocks.0.attn/aten::reshape/Reshape" type="Reshape" version="opset1">
			<data special_zero="true" />
			<input>
				<port id="0" precision="FP32">
					<dim>-1</dim>
					<dim>2304</dim>
				</port>
				<port id="1" precision="I64">
					<dim>4</dim>
				</port>
			</input>
			<output>
				<port id="2" precision="FP32" names="80">
					<dim>-1</dim>
					<dim>3</dim>
					<dim>12</dim>
					<dim>64</dim>
				</port>
			</output>
		</layer>
		<layer id="20" name="Constant_142655" type="Const" version="opset1">
			<data element_type="i64" shape="4" offset="1784868" size="32" />
			<output>
				<port id="0" precision="I64">
					<dim>4</dim>
				</port>
			</output>
		</layer>
		<layer id="21" name="__module.blocks.0.attn/aten::permute/Transpose" type="Transpose" version="opset1">
			<input>
				<port id="0" precision="FP32">
					<dim>-1</dim>
					<dim>3</dim>
					<dim>12</dim>
					<dim>64</dim>
				</port>
				<port id="1" precision="I64">
					<dim>4</dim>
				</port>
			</input>
			<output>
				<port id="2" precision="FP32" names="82">
					<dim>3</dim>
					<dim>-1</dim>
					<dim>12</dim>
					<dim>64</dim>
				</port>
			</output>
		</layer>
		<layer id="22" name="49" type="Const" version="opset1">
			<data element_type="i64" shape="" offset="1784900" size="8" />
			<output>
				<port id="0" precision="I64" names="49" />
			</output>
		</layer>
		<layer id="23" name="__module.blocks.0.attn/prim::ListUnpack/Split" type="Split" version="opset1">
			<data num_splits="3" />
			<input>
				<port id="0" precision="FP32">
					<dim>3</dim>
					<dim>-1</dim>
					<dim>12</dim>
					<dim>64</dim>
				</port>
				<port id="1" precision="I64" />
			</input>
			<output>
				<port id="2" precision="FP32">
					<dim>1</dim>
					<dim>-1</dim>
					<dim>12</dim>
					<dim>64</dim>
				</port>
				<port id="3" precision="FP32">
					<dim>1</dim>
					<dim>-1</dim>
					<dim>12</dim>
					<dim>64</dim>
				</port>
				<port id="4" precision="FP32">
					<dim>1</dim>
					<dim>-1</dim>
					<dim>12</dim>
					<dim>64</dim>
				</port>
			</output>
		</layer>
		<layer id="24" name="__module.blocks.0.attn/prim::ListUnpack/Squeeze" type="Squeeze" version="opset1">
			<input>
				<port id="0" precision="FP32">
					<dim>1</dim>
					<dim>-1</dim>
					<dim>12</dim>
					<dim>64</dim>
				</port>
				<port id="1" precision="I64" />
			</input>
			<output>
				<port id="2" precision="FP32" names="84,87,q.1,q.3">
					<dim>-1</dim>
					<dim>12</dim>
					<dim>64</dim>
				</port>
			</output>
		</layer>
		<layer id="25" name="aten::cat/Concat" type="Concat" version="opset1">
			<data axis="-1" />
			<input>
				<port id="0" precision="FP32">
					<dim>-1</dim>
					<dim>32</dim>
				</port>
				<port id="1" precision="FP32">
					<dim>-1</dim>
					<dim>32</dim>
				</port>
			</input>
			<output>
				<port id="2" precision="FP32" names="31,emb">
					<dim>-1</dim>
					<dim>64</dim>
				</port>
			</output>
		</layer>
		<layer id="26" name="aten::cos/Cos" type="Cos" version="opset1">
			<input>
				<port id="0" precision="FP32">
					<dim>-1</dim>
					<dim>64</dim>
				</port>
			</input>
			<output>
				<port id="1" precision="FP32" names="32,cos.1">
					<dim>-1</dim>
					<dim>64</dim>
				</port>
			</output>
		</layer>
		<layer id="27" name="58" type="Const" version="opset1">
			<data element_type="i64" shape="" offset="1784908" size="8" />
			<output>
				<port id="0" precision="I64" names="58" />
			</output>
		</layer>
		<layer id="28" name="__module.blocks.0.attn/aten::unsqueeze/Unsqueeze" type="Unsqueeze" version="opset1">
			<input>
				<port id="0" precision="FP32">
					<dim>-1</dim>
					<dim>64</dim>
				</port>
				<port id="1" precision="I64" />
			</input>
			<output>
				<port id="2" precision="FP32" names="1016,1119,1222,192,295,398,501,604,707,810,89,913,cos,cos.11,cos.13,cos.15,cos.17,cos.19,cos.21,cos.23,cos.3,cos.5,cos.7,cos.9">
					<dim>-1</dim>
					<dim>1</dim>
					<dim>64</dim>
				</port>
			</output>
		</layer>
		<layer id="29" name="__module.blocks.0.attn/aten::mul/Multiply" type="Multiply" version="opset1">
			<data auto_broadcast="numpy" />
			<input>
				<port id="0" precision="FP32">
					<dim>-1</dim>
					<dim>12</dim>
					<dim>64</dim>
				</port>
				<port id="1" precision="FP32">
					<dim>-1</dim>
					<dim>1</dim>
					<dim>64</dim>
				</port>
			</input>
			<output>
				<port id="2" precision="FP32" names="91">
					<dim>-1</dim>
					<dim>12</dim>
					<dim>64</dim>
				</port>
			</output>
		</layer>
		<layer id="30" name="__module.blocks.0.attn/aten::size/ShapeOf_1" type="ShapeOf" version="opset3">
			<data output_type="i64" />
			<input>
				<port id="0" precision="FP32">
					<dim>-1</dim>
					<dim>12</dim>
					<dim>64</dim>
				</port>
			</input>
			<output>
				<port id="1" precision="I64">
					<dim>3</dim>
				</port>
			</output>
		</layer>
		<layer id="31" name="54" type="Const" version="opset1">
			<data element_type="i64" shape="" offset="1784916" size="8" />
			<output>
				<port id="0" precision="I64" names="54" />
			</output>
		</layer>
		<layer id="32" name="__module.blocks.0.attn/aten::size/Constant_1" type="Const" version="opset1">
			<data element_type="i32" shape="" offset="1784924" size="4" />
			<output>
				<port id="0" precision="I32" />
			</output>
		</layer>
		<layer id="33" name="__module.blocks.0.attn/aten::size/Gather_1" type="Gather" version="opset8">
			<data batch_dims="0" />
			<input>
				<port id="0" precision="I64">
					<dim>3</dim>
				</port>
				<port id="1" precision="I64" />
				<port id="2" precision="I32" />
			</input>
			<output>
				<port id="3" precision="I64" names="1019,1024,1035,1040,108,1122,1127,113,1138,1143,1225,1230,1241,1246,195,200,211,216,298,303,314,319,401,406,417,422,504,509,520,525,607,612,623,628,710,715,726,731,813,818,829,834,916,92,921,932,937,97" />
			</output>
		</layer>
		<layer id="34" name="Constant_142593" type="Const" version="opset1">
			<data element_type="i64" shape="" offset="1784916" size="8" />
			<output>
				<port id="0" precision="I64" names="59" />
			</output>
		</layer>
		<layer id="35" name="__module.blocks.0.attn/aten::floor_divide/Divide" type="Divide" version="opset1">
			<data auto_broadcast="numpy" m_pythondiv="true" />
			<input>
				<port id="0" precision="I64" />
				<port id="1" precision="I64" />
			</input>
			<output>
				<port id="2" precision="I64" />
			</output>
		</layer>
		<layer id="36" name="__module.blocks.0.attn/aten::floor_divide/Floor" type="Floor" version="opset1">
			<input>
				<port id="0" precision="I64" />
			</input>
			<output>
				<port id="1" precision="I64" names="100,1021,1022,1026,1027,1037,1038,1042,1043,110,111,1124,1125,1129,1130,1140,1141,1145,1146,115,116,1227,1228,1232,1233,1243,1244,1248,1249,197,198,202,203,213,214,218,219,300,301,305,306,316,317,321,322,403,404,408,409,419,420,424,425,506,507,511,512,522,523,527,528,609,610,614,615,625,626,630,631,712,713,717,718,728,729,733,734,815,816,820,821,831,832,836,837,918,919,923,924,934,935,939,94,940,95,99" />
			</output>
		</layer>
		<layer id="37" name="Constant_161691" type="Const" version="opset1">
			<data element_type="i64" shape="1" offset="1784928" size="8" />
			<output>
				<port id="0" precision="I64">
					<dim>1</dim>
				</port>
			</output>
		</layer>
		<layer id="38" name="__module.blocks.0.attn/aten::slice/Reshape" type="Reshape" version="opset1">
			<data special_zero="false" />
			<input>
				<port id="0" precision="I64" />
				<port id="1" precision="I64">
					<dim>1</dim>
				</port>
			</input>
			<output>
				<port id="2" precision="I64">
					<dim>1</dim>
				</port>
			</output>
		</layer>
		<layer id="39" name="Constant_142816" type="Const" version="opset1">
			<data element_type="i64" shape="1" offset="1784936" size="8" />
			<output>
				<port id="0" precision="I64">
					<dim>1</dim>
				</port>
			</output>
		</layer>
		<layer id="40" name="Constant_142818" type="Const" version="opset1">
			<data element_type="i64" shape="1" offset="1784944" size="8" />
			<output>
				<port id="0" precision="I64">
					<dim>1</dim>
				</port>
			</output>
		</layer>
		<layer id="41" name="Constant_142775" type="Const" version="opset1">
			<data element_type="i64" shape="1" offset="1784916" size="8" />
			<output>
				<port id="0" precision="I64">
					<dim>1</dim>
				</port>
			</output>
		</layer>
		<layer id="42" name="__module.blocks.0.attn/aten::slice/Slice" type="Slice" version="opset8">
			<input>
				<port id="0" precision="FP32">
					<dim>-1</dim>
					<dim>12</dim>
					<dim>64</dim>
				</port>
				<port id="1" precision="I64">
					<dim>1</dim>
				</port>
				<port id="2" precision="I64">
					<dim>1</dim>
				</port>
				<port id="3" precision="I64">
					<dim>1</dim>
				</port>
				<port id="4" precision="I64">
					<dim>1</dim>
				</port>
			</input>
			<output>
				<port id="5" precision="FP32" names="101,x2.1">
					<dim>-1</dim>
					<dim>12</dim>
					<dim>32</dim>
				</port>
			</output>
		</layer>
		<layer id="43" name="__module.blocks.0.attn/aten::neg/Constant" type="Const" version="opset1">
			<data element_type="i32" shape="" offset="0" size="4" />
			<output>
				<port id="0" precision="I32" />
			</output>
		</layer>
		<layer id="44" name="__module.blocks.0.attn/aten::neg/ConvertLike" type="Convert" version="opset1">
			<data destination_type="f32" />
			<input>
				<port id="0" precision="I32" />
			</input>
			<output>
				<port id="1" precision="FP32" />
			</output>
		</layer>
		<layer id="45" name="__module.blocks.0.attn/aten::neg/Multiply" type="Multiply" version="opset1">
			<data auto_broadcast="numpy" />
			<input>
				<port id="0" precision="FP32">
					<dim>-1</dim>
					<dim>12</dim>
					<dim>32</dim>
				</port>
				<port id="1" precision="FP32" />
			</input>
			<output>
				<port id="2" precision="FP32" names="102">
					<dim>-1</dim>
					<dim>12</dim>
					<dim>32</dim>
				</port>
			</output>
		</layer>
		<layer id="46" name="Constant_142683" type="Const" version="opset1">
			<data element_type="i64" shape="1" offset="1784900" size="8" />
			<output>
				<port id="0" precision="I64">
					<dim>1</dim>
				</port>
			</output>
		</layer>
		<layer id="47" name="Constant_142724" type="Const" version="opset1">
			<data element_type="i64" shape="1" offset="1784944" size="8" />
			<output>
				<port id="0" precision="I64">
					<dim>1</dim>
				</port>
			</output>
		</layer>
		<layer id="48" name="Constant_142681" type="Const" version="opset1">
			<data element_type="i64" shape="1" offset="1784916" size="8" />
			<output>
				<port id="0" precision="I64">
					<dim>1</dim>
				</port>
			</output>
		</layer>
		<layer id="49" name="__module.blocks.0.attn/aten::slice/Slice_1" type="Slice" version="opset8">
			<input>
				<port id="0" precision="FP32">
					<dim>-1</dim>
					<dim>12</dim>
					<dim>64</dim>
				</port>
				<port id="1" precision="I64">
					<dim>1</dim>
				</port>
				<port id="2" precision="I64">
					<dim>1</dim>
				</port>
				<port id="3" precision="I64">
					<dim>1</dim>
				</port>
				<port id="4" precision="I64">
					<dim>1</dim>
				</port>
			</input>
			<output>
				<port id="5" precision="FP32" names="96,x1.1">
					<dim>-1</dim>
					<dim>12</dim>
					<dim>32</dim>
				</port>
			</output>
		</layer>
		<layer id="50" name="__module.blocks.0.attn/aten::cat/Concat" type="Concat" version="opset1">
			<data axis="-1" />
			<input>
				<port id="0" precision="FP32">
					<dim>-1</dim>
					<dim>12</dim>
					<dim>32</dim>
				</port>
				<port id="1" precision="FP32">
					<dim>-1</dim>
					<dim>12</dim>
					<dim>32</dim>
				</port>
			</input>
			<output>
				<port id="2" precision="FP32" names="104">
					<dim>-1</dim>
					<dim>12</dim>
					<dim>64</dim>
				</port>
			</output>
		</layer>
		<layer id="51" name="aten::sin/Sin" type="Sin" version="opset1">
			<input>
				<port id="0" precision="FP32">
					<dim>-1</dim>
					<dim>64</dim>
				</port>
			</input>
			<output>
				<port id="1" precision="FP32" names="33,sin.1">
					<dim>-1</dim>
					<dim>64</dim>
				</port>
			</output>
		</layer>
		<layer id="52" name="__module.blocks.0.attn/aten::unsqueeze/Unsqueeze_1" type="Unsqueeze" version="opset1">
			<input>
				<port id="0" precision="FP32">
					<dim>-1</dim>
					<dim>64</dim>
				</port>
				<port id="1" precision="I64" />
			</input>
			<output>
				<port id="2" precision="FP32" names="1017,1120,1223,193,296,399,502,605,708,811,90,914,sin,sin.11,sin.13,sin.15,sin.17,sin.19,sin.21,sin.23,sin.3,sin.5,sin.7,sin.9">
					<dim>-1</dim>
					<dim>1</dim>
					<dim>64</dim>
				</port>
			</output>
		</layer>
		<layer id="53" name="__module.blocks.0.attn/aten::mul/Multiply_1" type="Multiply" version="opset1">
			<data auto_broadcast="numpy" />
			<input>
				<port id="0" precision="FP32">
					<dim>-1</dim>
					<dim>12</dim>
					<dim>64</dim>
				</port>
				<port id="1" precision="FP32">
					<dim>-1</dim>
					<dim>1</dim>
					<dim>64</dim>
				</port>
			</input>
			<output>
				<port id="2" precision="FP32" names="105">
					<dim>-1</dim>
					<dim>12</dim>
					<dim>64</dim>
				</port>
			</output>
		</layer>
		<layer id="54" name="__module.blocks.0.attn/aten::add/Add" type="Add" version="opset1">
			<data auto_broadcast="numpy" />
			<input>
				<port id="0" precision="FP32">
					<dim>-1</dim>
					<dim>12</dim>
					<dim>64</dim>
				</port>
				<port id="1" precision="FP32">
					<dim>-1</dim>
					<dim>12</dim>
					<dim>64</dim>
				</port>
			</input>
			<output>
				<port id="2" precision="FP32" names="106,123,q.5,q_embed.1">
					<dim>-1</dim>
					<dim>12</dim>
					<dim>64</dim>
				</port>
			</output>
		</layer>
		<layer id="55" name="__module.blocks.0.attn/aten::transpose/Constant" type="Const" version="opset1">
			<data element_type="i32" shape="3" offset="1784952" size="12" />
			<output>
				<port id="0" precision="I32">
					<dim>3</dim>
				</port>
			</output>
		</layer>
		<layer id="56" name="__module.blocks.0.attn/aten::transpose/Transpose" type="Transpose" version="opset1">
			<input>
				<port id="0" precision="FP32">
					<dim>-1</dim>
					<dim>12</dim>
					<dim>64</dim>
				</port>
				<port id="1" precision="I32">
					<dim>3</dim>
				</port>
			</input>
			<output>
				<port id="2" precision="FP32" names="125,q.7">
					<dim>12</dim>
					<dim>-1</dim>
					<dim>64</dim>
				</port>
			</output>
		</layer>
		<layer id="57" name="__module.blocks.0.attn/prim::ListUnpack/Squeeze_0" type="Squeeze" version="opset1">
			<input>
				<port id="0" precision="FP32">
					<dim>1</dim>
					<dim>-1</dim>
					<dim>12</dim>
					<dim>64</dim>
				</port>
				<port id="1" precision="I64" />
			</input>
			<output>
				<port id="2" precision="FP32" names="85,88,k.1,k.3">
					<dim>-1</dim>
					<dim>12</dim>
					<dim>64</dim>
				</port>
			</output>
		</layer>
		<layer id="58" name="__module.blocks.0.attn/aten::mul/Multiply_2" type="Multiply" version="opset1">
			<data auto_broadcast="numpy" />
			<input>
				<port id="0" precision="FP32">
					<dim>-1</dim>
					<dim>12</dim>
					<dim>64</dim>
				</port>
				<port id="1" precision="FP32">
					<dim>-1</dim>
					<dim>1</dim>
					<dim>64</dim>
				</port>
			</input>
			<output>
				<port id="2" precision="FP32" names="107">
					<dim>-1</dim>
					<dim>12</dim>
					<dim>64</dim>
				</port>
			</output>
		</layer>
		<layer id="59" name="Constant_143024" type="Const" version="opset1">
			<data element_type="i64" shape="1" offset="1784936" size="8" />
			<output>
				<port id="0" precision="I64">
					<dim>1</dim>
				</port>
			</output>
		</layer>
		<layer id="60" name="Constant_143026" type="Const" version="opset1">
			<data element_type="i64" shape="1" offset="1784944" size="8" />
			<output>
				<port id="0" precision="I64">
					<dim>1</dim>
				</port>
			</output>
		</layer>
		<layer id="61" name="Constant_142983" type="Const" version="opset1">
			<data element_type="i64" shape="1" offset="1784916" size="8" />
			<output>
				<port id="0" precision="I64">
					<dim>1</dim>
				</port>
			</output>
		</layer>
		<layer id="62" name="__module.blocks.0.attn/aten::slice/Slice_2" type="Slice" version="opset8">
			<input>
				<port id="0" precision="FP32">
					<dim>-1</dim>
					<dim>12</dim>
					<dim>64</dim>
				</port>
				<port id="1" precision="I64">
					<dim>1</dim>
				</port>
				<port id="2" precision="I64">
					<dim>1</dim>
				</port>
				<port id="3" precision="I64">
					<dim>1</dim>
				</port>
				<port id="4" precision="I64">
					<dim>1</dim>
				</port>
			</input>
			<output>
				<port id="5" precision="FP32" names="117,x2.3">
					<dim>-1</dim>
					<dim>12</dim>
					<dim>32</dim>
				</port>
			</output>
		</layer>
		<layer id="63" name="__module.blocks.0.attn/aten::neg/Constant_1" type="Const" version="opset1">
			<data element_type="i32" shape="" offset="0" size="4" />
			<output>
				<port id="0" precision="I32" />
			</output>
		</layer>
		<layer id="64" name="__module.blocks.0.attn/aten::neg/ConvertLike_1" type="Convert" version="opset1">
			<data destination_type="f32" />
			<input>
				<port id="0" precision="I32" />
			</input>
			<output>
				<port id="1" precision="FP32" />
			</output>
		</layer>
		<layer id="65" name="__module.blocks.0.attn/aten::neg/Multiply_1" type="Multiply" version="opset1">
			<data auto_broadcast="numpy" />
			<input>
				<port id="0" precision="FP32">
					<dim>-1</dim>
					<dim>12</dim>
					<dim>32</dim>
				</port>
				<port id="1" precision="FP32" />
			</input>
			<output>
				<port id="2" precision="FP32" names="118">
					<dim>-1</dim>
					<dim>12</dim>
					<dim>32</dim>
				</port>
			</output>
		</layer>
		<layer id="66" name="Constant_142891" type="Const" version="opset1">
			<data element_type="i64" shape="1" offset="1784900" size="8" />
			<output>
				<port id="0" precision="I64">
					<dim>1</dim>
				</port>
			</output>
		</layer>
		<layer id="67" name="Constant_142932" type="Const" version="opset1">
			<data element_type="i64" shape="1" offset="1784944" size="8" />
			<output>
				<port id="0" precision="I64">
					<dim>1</dim>
				</port>
			</output>
		</layer>
		<layer id="68" name="Constant_142889" type="Const" version="opset1">
			<data element_type="i64" shape="1" offset="1784916" size="8" />
			<output>
				<port id="0" precision="I64">
					<dim>1</dim>
				</port>
			</output>
		</layer>
		<layer id="69" name="__module.blocks.0.attn/aten::slice/Slice_3" type="Slice" version="opset8">
			<input>
				<port id="0" precision="FP32">
					<dim>-1</dim>
					<dim>12</dim>
					<dim>64</dim>
				</port>
				<port id="1" precision="I64">
					<dim>1</dim>
				</port>
				<port id="2" precision="I64">
					<dim>1</dim>
				</port>
				<port id="3" precision="I64">
					<dim>1</dim>
				</port>
				<port id="4" precision="I64">
					<dim>1</dim>
				</port>
			</input>
			<output>
				<port id="5" precision="FP32" names="112,x1.3">
					<dim>-1</dim>
					<dim>12</dim>
					<dim>32</dim>
				</port>
			</output>
		</layer>
		<layer id="70" name="__module.blocks.0.attn/aten::cat/Concat_1" type="Concat" version="opset1">
			<data axis="-1" />
			<input>
				<port id="0" precision="FP32">
					<dim>-1</dim>
					<dim>12</dim>
					<dim>32</dim>
				</port>
				<port id="1" precision="FP32">
					<dim>-1</dim>
					<dim>12</dim>
					<dim>32</dim>
				</port>
			</input>
			<output>
				<port id="2" precision="FP32" names="120">
					<dim>-1</dim>
					<dim>12</dim>
					<dim>64</dim>
				</port>
			</output>
		</layer>
		<layer id="71" name="__module.blocks.0.attn/aten::mul/Multiply_3" type="Multiply" version="opset1">
			<data auto_broadcast="numpy" />
			<input>
				<port id="0" precision="FP32">
					<dim>-1</dim>
					<dim>12</dim>
					<dim>64</dim>
				</port>
				<port id="1" precision="FP32">
					<dim>-1</dim>
					<dim>1</dim>
					<dim>64</dim>
				</port>
			</input>
			<output>
				<port id="2" precision="FP32" names="121">
					<dim>-1</dim>
					<dim>12</dim>
					<dim>64</dim>
				</port>
			</output>
		</layer>
		<layer id="72" name="__module.blocks.0.attn/aten::add/Add_1" type="Add" version="opset1">
			<data auto_broadcast="numpy" />
			<input>
				<port id="0" precision="FP32">
					<dim>-1</dim>
					<dim>12</dim>
					<dim>64</dim>
				</port>
				<port id="1" precision="FP32">
					<dim>-1</dim>
					<dim>12</dim>
					<dim>64</dim>
				</port>
			</input>
			<output>
				<port id="2" precision="FP32" names="122,124,k.5,k_embed.1">
					<dim>-1</dim>
					<dim>12</dim>
					<dim>64</dim>
				</port>
			</output>
		</layer>
		<layer id="73" name="__module.blocks.0.attn/aten::transpose/Constant_1" type="Const" version="opset1">
			<data element_type="i32" shape="3" offset="1784952" size="12" />
			<output>
				<port id="0" precision="I32">
					<dim>3</dim>
				</port>
			</output>
		</layer>
		<layer id="74" name="__module.blocks.0.attn/aten::transpose/Transpose_1" type="Transpose" version="opset1">
			<input>
				<port id="0" precision="FP32">
					<dim>-1</dim>
					<dim>12</dim>
					<dim>64</dim>
				</port>
				<port id="1" precision="I32">
					<dim>3</dim>
				</port>
			</input>
			<output>
				<port id="2" precision="FP32" names="126,k.7">
					<dim>12</dim>
					<dim>-1</dim>
					<dim>64</dim>
				</port>
			</output>
		</layer>
		<layer id="75" name="__module.blocks.0.attn/prim::ListUnpack/Squeeze_1" type="Squeeze" version="opset1">
			<input>
				<port id="0" precision="FP32">
					<dim>1</dim>
					<dim>-1</dim>
					<dim>12</dim>
					<dim>64</dim>
				</port>
				<port id="1" precision="I64" />
			</input>
			<output>
				<port id="2" precision="FP32" names="86,v.1">
					<dim>-1</dim>
					<dim>12</dim>
					<dim>64</dim>
				</port>
			</output>
		</layer>
		<layer id="76" name="__module.blocks.0.attn/aten::transpose/Constant_2" type="Const" version="opset1">
			<data element_type="i32" shape="3" offset="1784952" size="12" />
			<output>
				<port id="0" precision="I32">
					<dim>3</dim>
				</port>
			</output>
		</layer>
		<layer id="77" name="__module.blocks.0.attn/aten::transpose/Transpose_2" type="Transpose" version="opset1">
			<input>
				<port id="0" precision="FP32">
					<dim>-1</dim>
					<dim>12</dim>
					<dim>64</dim>
				</port>
				<port id="1" precision="I32">
					<dim>3</dim>
				</port>
			</input>
			<output>
				<port id="2" precision="FP32" names="127,v.3">
					<dim>12</dim>
					<dim>-1</dim>
					<dim>64</dim>
				</port>
			</output>
		</layer>
		<layer id="78" name="__module.blocks.0.attn/aten::scaled_dot_product_attention/ScaledDotProductAttention" type="ScaledDotProductAttention" version="opset13">
			<data causal="false" />
			<input>
				<port id="0" precision="FP32">
					<dim>12</dim>
					<dim>-1</dim>
					<dim>64</dim>
				</port>
				<port id="1" precision="FP32">
					<dim>12</dim>
					<dim>-1</dim>
					<dim>64</dim>
				</port>
				<port id="2" precision="FP32">
					<dim>12</dim>
					<dim>-1</dim>
					<dim>64</dim>
				</port>
				<port id="3" precision="FP32">
					<dim>1</dim>
					<dim>-1</dim>
					<dim>-1</dim>
				</port>
			</input>
			<output>
				<port id="4" precision="FP32" names="128,attn_output.1">
					<dim>12</dim>
					<dim>-1</dim>
					<dim>64</dim>
				</port>
			</output>
		</layer>
		<layer id="79" name="__module.blocks.0.attn/aten::transpose/Constant_3" type="Const" version="opset1">
			<data element_type="i32" shape="3" offset="1784952" size="12" />
			<output>
				<port id="0" precision="I32">
					<dim>3</dim>
				</port>
			</output>
		</layer>
		<layer id="80" name="__module.blocks.0.attn/aten::transpose/Transpose_3" type="Transpose" version="opset1">
			<input>
				<port id="0" precision="FP32">
					<dim>12</dim>
					<dim>-1</dim>
					<dim>64</dim>
				</port>
				<port id="1" precision="I32">
					<dim>3</dim>
				</port>
			</input>
			<output>
				<port id="2" precision="FP32" names="129,attn_output.3">
					<dim>-1</dim>
					<dim>12</dim>
					<dim>64</dim>
				</port>
			</output>
		</layer>
		<layer id="81" name="Constant_175124" type="Const" version="opset1">
			<data element_type="i64" shape="2" offset="1784964" size="16" />
			<output>
				<port id="0" precision="I64">
					<dim>2</dim>
				</port>
			</output>
		</layer>
		<layer id="82" name="__module.blocks.0.attn/aten::reshape/Reshape_1" type="Reshape" version="opset1">
			<data special_zero="true" />
			<input>
				<port id="0" precision="FP32">
					<dim>-1</dim>
					<dim>12</dim>
					<dim>64</dim>
				</port>
				<port id="1" precision="I64">
					<dim>2</dim>
				</port>
			</input>
			<output>
				<port id="2" precision="FP32" names="131">
					<dim>-1</dim>
					<dim>768</dim>
				</port>
			</output>
		</layer>
		<layer id="83" name="self.blocks.0.attn.proj.weight" type="Const" version="opset1">
			<data element_type="i8" shape="768, 768" offset="1784980" size="589824" />
			<output>
				<port id="0" precision="I8">
					<dim>768</dim>
					<dim>768</dim>
				</port>
			</output>
		</layer>
		<layer id="84" name="Convert_1500457" type="Convert" version="opset1">
			<data destination_type="f16" />
			<input>
				<port id="0" precision="I8">
					<dim>768</dim>
					<dim>768</dim>
				</port>
			</input>
			<output>
				<port id="1" precision="FP16">
					<dim>768</dim>
					<dim>768</dim>
				</port>
			</output>
		</layer>
		<layer id="85" name="self.blocks.0.attn.proj.weight/scale" type="Const" version="opset1">
			<data element_type="f16" shape="768, 1" offset="2374804" size="1536" />
			<output>
				<port id="0" precision="FP16">
					<dim>768</dim>
					<dim>1</dim>
				</port>
			</output>
		</layer>
		<layer id="86" name="self.blocks.0.attn.proj.weight/fq_weights_1" type="Multiply" version="opset1">
			<data auto_broadcast="numpy" />
			<input>
				<port id="0" precision="FP16">
					<dim>768</dim>
					<dim>768</dim>
				</port>
				<port id="1" precision="FP16">
					<dim>768</dim>
					<dim>1</dim>
				</port>
			</input>
			<output>
				<port id="2" precision="FP16">
					<dim>768</dim>
					<dim>768</dim>
				</port>
			</output>
		</layer>
		<layer id="87" name="__module.blocks.0.attn.proj/ov_ext::linear/Convert" type="Convert" version="opset1">
			<data destination_type="f32" />
			<rt_info>
				<attribute name="decompression" version="0" />
			</rt_info>
			<input>
				<port id="0" precision="FP16">
					<dim>768</dim>
					<dim>768</dim>
				</port>
			</input>
			<output>
				<port id="1" precision="FP32">
					<dim>768</dim>
					<dim>768</dim>
				</port>
			</output>
		</layer>
		<layer id="88" name="__module.blocks.0.attn.proj/ov_ext::linear/MatMul" type="MatMul" version="opset1">
			<data transpose_a="false" transpose_b="true" />
			<input>
				<port id="0" precision="FP32">
					<dim>-1</dim>
					<dim>768</dim>
				</port>
				<port id="1" precision="FP32">
					<dim>768</dim>
					<dim>768</dim>
				</port>
			</input>
			<output>
				<port id="2" precision="FP32">
					<dim>-1</dim>
					<dim>768</dim>
				</port>
			</output>
		</layer>
		<layer id="89" name="self.blocks.0.attn.proj.bias" type="Const" version="opset1">
			<data element_type="bf16" shape="768" offset="2376340" size="1536" />
			<output>
				<port id="0" precision="BF16" names="self.blocks.0.attn.proj.bias">
					<dim>768</dim>
				</port>
			</output>
		</layer>
		<layer id="90" name="__module.blocks.0.attn.proj/ov_ext::linear/Convert_1" type="Convert" version="opset1">
			<data destination_type="f32" />
			<rt_info>
				<attribute name="decompression" version="0" />
			</rt_info>
			<input>
				<port id="0" precision="BF16">
					<dim>768</dim>
				</port>
			</input>
			<output>
				<port id="1" precision="FP32">
					<dim>768</dim>
				</port>
			</output>
		</layer>
		<layer id="91" name="__module.blocks.0.attn.proj/ov_ext::linear/Add" type="Add" version="opset1">
			<data auto_broadcast="numpy" />
			<input>
				<port id="0" precision="FP32">
					<dim>-1</dim>
					<dim>768</dim>
				</port>
				<port id="1" precision="FP32">
					<dim>768</dim>
				</port>
			</input>
			<output>
				<port id="2" precision="FP32" names="134">
					<dim>-1</dim>
					<dim>768</dim>
				</port>
			</output>
		</layer>
		<layer id="92" name="__module.blocks.0/aten::add/Add" type="Add" version="opset1">
			<data auto_broadcast="numpy" />
			<input>
				<port id="0" precision="FP32">
					<dim>-1</dim>
					<dim>768</dim>
				</port>
				<port id="1" precision="FP32">
					<dim>-1</dim>
					<dim>768</dim>
				</port>
			</input>
			<output>
				<port id="2" precision="FP32" names="135,input.1">
					<dim>-1</dim>
					<dim>768</dim>
				</port>
			</output>
		</layer>
		<layer id="93" name="__module.blocks.0.norm2/aten::layer_norm/Multiply" type="Const" version="opset1">
			<data element_type="i32" shape="1" offset="0" size="4" />
			<output>
				<port id="0" precision="I32">
					<dim>1</dim>
				</port>
			</output>
		</layer>
		<layer id="94" name="__module.blocks.0.norm2/aten::layer_norm/MVN" type="MVN" version="opset6">
			<data eps="9.9999999747524271e-07" normalize_variance="true" eps_mode="INSIDE_SQRT" />
			<input>
				<port id="0" precision="FP32">
					<dim>-1</dim>
					<dim>768</dim>
				</port>
				<port id="1" precision="I32">
					<dim>1</dim>
				</port>
			</input>
			<output>
				<port id="2" precision="FP32">
					<dim>-1</dim>
					<dim>768</dim>
				</port>
			</output>
		</layer>
		<layer id="95" name="Constant_173820" type="Const" version="opset1">
			<data element_type="f32" shape="1, 768" offset="2377876" size="3072" />
			<output>
				<port id="0" precision="FP32">
					<dim>1</dim>
					<dim>768</dim>
				</port>
			</output>
		</layer>
		<layer id="96" name="__module.blocks.0.norm2/aten::layer_norm/Multiply_1" type="Multiply" version="opset1">
			<data auto_broadcast="numpy" />
			<input>
				<port id="0" precision="FP32">
					<dim>-1</dim>
					<dim>768</dim>
				</port>
				<port id="1" precision="FP32">
					<dim>1</dim>
					<dim>768</dim>
				</port>
			</input>
			<output>
				<port id="2" precision="FP32">
					<dim>-1</dim>
					<dim>768</dim>
				</port>
			</output>
		</layer>
		<layer id="97" name="Constant_173821" type="Const" version="opset1">
			<data element_type="f32" shape="1, 768" offset="2380948" size="3072" />
			<output>
				<port id="0" precision="FP32">
					<dim>1</dim>
					<dim>768</dim>
				</port>
			</output>
		</layer>
		<layer id="98" name="__module.blocks.0.norm2/aten::layer_norm/Add" type="Add" version="opset1">
			<data auto_broadcast="numpy" />
			<input>
				<port id="0" precision="FP32">
					<dim>-1</dim>
					<dim>768</dim>
				</port>
				<port id="1" precision="FP32">
					<dim>1</dim>
					<dim>768</dim>
				</port>
			</input>
			<output>
				<port id="2" precision="FP32" names="139">
					<dim>-1</dim>
					<dim>768</dim>
				</port>
			</output>
		</layer>
		<layer id="99" name="self.blocks.0.mlp.linear_fc1.weight" type="Const" version="opset1">
			<data element_type="i8" shape="3072, 768" offset="2384020" size="2359296" />
			<output>
				<port id="0" precision="I8">
					<dim>3072</dim>
					<dim>768</dim>
				</port>
			</output>
		</layer>
		<layer id="100" name="Convert_1314625" type="Convert" version="opset1">
			<data destination_type="f16" />
			<input>
				<port id="0" precision="I8">
					<dim>3072</dim>
					<dim>768</dim>
				</port>
			</input>
			<output>
				<port id="1" precision="FP16">
					<dim>3072</dim>
					<dim>768</dim>
				</port>
			</output>
		</layer>
		<layer id="101" name="self.blocks.0.mlp.linear_fc1.weight/scale" type="Const" version="opset1">
			<data element_type="f16" shape="3072, 1" offset="4743316" size="6144" />
			<output>
				<port id="0" precision="FP16">
					<dim>3072</dim>
					<dim>1</dim>
				</port>
			</output>
		</layer>
		<layer id="102" name="self.blocks.0.mlp.linear_fc1.weight/fq_weights_1" type="Multiply" version="opset1">
			<data auto_broadcast="numpy" />
			<input>
				<port id="0" precision="FP16">
					<dim>3072</dim>
					<dim>768</dim>
				</port>
				<port id="1" precision="FP16">
					<dim>3072</dim>
					<dim>1</dim>
				</port>
			</input>
			<output>
				<port id="2" precision="FP16">
					<dim>3072</dim>
					<dim>768</dim>
				</port>
			</output>
		</layer>
		<layer id="103" name="__module.blocks.0.mlp.linear_fc1/ov_ext::linear/Convert" type="Convert" version="opset1">
			<data destination_type="f32" />
			<rt_info>
				<attribute name="decompression" version="0" />
			</rt_info>
			<input>
				<port id="0" precision="FP16">
					<dim>3072</dim>
					<dim>768</dim>
				</port>
			</input>
			<output>
				<port id="1" precision="FP32">
					<dim>3072</dim>
					<dim>768</dim>
				</port>
			</output>
		</layer>
		<layer id="104" name="__module.blocks.0.mlp.linear_fc1/ov_ext::linear/MatMul" type="MatMul" version="opset1">
			<data transpose_a="false" transpose_b="true" />
			<input>
				<port id="0" precision="FP32">
					<dim>-1</dim>
					<dim>768</dim>
				</port>
				<port id="1" precision="FP32">
					<dim>3072</dim>
					<dim>768</dim>
				</port>
			</input>
			<output>
				<port id="2" precision="FP32">
					<dim>-1</dim>
					<dim>3072</dim>
				</port>
			</output>
		</layer>
		<layer id="105" name="self.blocks.0.mlp.linear_fc1.bias" type="Const" version="opset1">
			<data element_type="bf16" shape="3072" offset="4749460" size="6144" />
			<output>
				<port id="0" precision="BF16" names="self.blocks.0.mlp.linear_fc1.bias">
					<dim>3072</dim>
				</port>
			</output>
		</layer>
		<layer id="106" name="__module.blocks.0.mlp.linear_fc1/ov_ext::linear/Convert_1" type="Convert" version="opset1">
			<data destination_type="f32" />
			<rt_info>
				<attribute name="decompression" version="0" />
			</rt_info>
			<input>
				<port id="0" precision="BF16">
					<dim>3072</dim>
				</port>
			</input>
			<output>
				<port id="1" precision="FP32">
					<dim>3072</dim>
				</port>
			</output>
		</layer>
		<layer id="107" name="__module.blocks.0.mlp.linear_fc1/ov_ext::linear/Add" type="Add" version="opset1">
			<data auto_broadcast="numpy" />
			<input>
				<port id="0" precision="FP32">
					<dim>-1</dim>
					<dim>3072</dim>
				</port>
				<port id="1" precision="FP32">
					<dim>3072</dim>
				</port>
			</input>
			<output>
				<port id="2" precision="FP32" names="145,input.3">
					<dim>-1</dim>
					<dim>3072</dim>
				</port>
			</output>
		</layer>
		<layer id="108" name="__module.blocks.0.mlp.act_fn/aten::gelu/Gelu" type="Gelu" version="opset7">
			<data approximation_mode="TANH" />
			<input>
				<port id="0" precision="FP32">
					<dim>-1</dim>
					<dim>3072</dim>
				</port>
			</input>
			<output>
				<port id="1" precision="FP32" names="146">
					<dim>-1</dim>
					<dim>3072</dim>
				</port>
			</output>
		</layer>
		<layer id="109" name="self.blocks.0.mlp.linear_fc2.weight" type="Const" version="opset1">
			<data element_type="i8" shape="768, 3072" offset="4755604" size="2359296" />
			<output>
				<port id="0" precision="I8">
					<dim>768</dim>
					<dim>3072</dim>
				</port>
			</output>
		</layer>
		<layer id="110" name="Convert_1319787" type="Convert" version="opset1">
			<data destination_type="f16" />
			<input>
				<port id="0" precision="I8">
					<dim>768</dim>
					<dim>3072</dim>
				</port>
			</input>
			<output>
				<port id="1" precision="FP16">
					<dim>768</dim>
					<dim>3072</dim>
				</port>
			</output>
		</layer>
		<layer id="111" name="self.blocks.0.mlp.linear_fc2.weight/scale" type="Const" version="opset1">
			<data element_type="f16" shape="768, 1" offset="7114900" size="1536" />
			<output>
				<port id="0" precision="FP16">
					<dim>768</dim>
					<dim>1</dim>
				</port>
			</output>
		</layer>
		<layer id="112" name="self.blocks.0.mlp.linear_fc2.weight/fq_weights_1" type="Multiply" version="opset1">
			<data auto_broadcast="numpy" />
			<input>
				<port id="0" precision="FP16">
					<dim>768</dim>
					<dim>3072</dim>
				</port>
				<port id="1" precision="FP16">
					<dim>768</dim>
					<dim>1</dim>
				</port>
			</input>
			<output>
				<port id="2" precision="FP16">
					<dim>768</dim>
					<dim>3072</dim>
				</port>
			</output>
		</layer>
		<layer id="113" name="__module.blocks.0.mlp.linear_fc2/ov_ext::linear/Convert" type="Convert" version="opset1">
			<data destination_type="f32" />
			<rt_info>
				<attribute name="decompression" version="0" />
			</rt_info>
			<input>
				<port id="0" precision="FP16">
					<dim>768</dim>
					<dim>3072</dim>
				</port>
			</input>
			<output>
				<port id="1" precision="FP32">
					<dim>768</dim>
					<dim>3072</dim>
				</port>
			</output>
		</layer>
		<layer id="114" name="__module.blocks.0.mlp.linear_fc2/ov_ext::linear/MatMul" type="MatMul" version="opset1">
			<data transpose_a="false" transpose_b="true" />
			<input>
				<port id="0" precision="FP32">
					<dim>-1</dim>
					<dim>3072</dim>
				</port>
				<port id="1" precision="FP32">
					<dim>768</dim>
					<dim>3072</dim>
				</port>
			</input>
			<output>
				<port id="2" precision="FP32">
					<dim>-1</dim>
					<dim>768</dim>
				</port>
			</output>
		</layer>
		<layer id="115" name="self.blocks.0.mlp.linear_fc2.bias" type="Const" version="opset1">
			<data element_type="bf16" shape="768" offset="7116436" size="1536" />
			<output>
				<port id="0" precision="BF16" names="self.blocks.0.mlp.linear_fc2.bias">
					<dim>768</dim>
				</port>
			</output>
		</layer>
		<layer id="116" name="__module.blocks.0.mlp.linear_fc2/ov_ext::linear/Convert_1" type="Convert" version="opset1">
			<data destination_type="f32" />
			<rt_info>
				<attribute name="decompression" version="0" />
			</rt_info>
			<input>
				<port id="0" precision="BF16">
					<dim>768</dim>
				</port>
			</input>
			<output>
				<port id="1" precision="FP32">
					<dim>768</dim>
				</port>
			</output>
		</layer>
		<layer id="117" name="__module.blocks.0.mlp.linear_fc2/ov_ext::linear/Add" type="Add" version="opset1">
			<data auto_broadcast="numpy" />
			<input>
				<port id="0" precision="FP32">
					<dim>-1</dim>
					<dim>768</dim>
				</port>
				<port id="1" precision="FP32">
					<dim>768</dim>
				</port>
			</input>
			<output>
				<port id="2" precision="FP32" names="149">
					<dim>-1</dim>
					<dim>768</dim>
				</port>
			</output>
		</layer>
		<layer id="118" name="__module.blocks.0/aten::add/Add_1" type="Add" version="opset1">
			<data auto_broadcast="numpy" />
			<input>
				<port id="0" precision="FP32">
					<dim>-1</dim>
					<dim>768</dim>
				</port>
				<port id="1" precision="FP32">
					<dim>-1</dim>
					<dim>768</dim>
				</port>
			</input>
			<output>
				<port id="2" precision="FP32" names="150,input.5">
					<dim>-1</dim>
					<dim>768</dim>
				</port>
			</output>
		</layer>
		<layer id="119" name="__module.blocks.1.norm1/aten::layer_norm/Multiply" type="Const" version="opset1">
			<data element_type="i32" shape="1" offset="0" size="4" />
			<output>
				<port id="0" precision="I32">
					<dim>1</dim>
				</port>
			</output>
		</layer>
		<layer id="120" name="__module.blocks.1.norm1/aten::layer_norm/MVN" type="MVN" version="opset6">
			<data eps="9.9999999747524271e-07" normalize_variance="true" eps_mode="INSIDE_SQRT" />
			<input>
				<port id="0" precision="FP32">
					<dim>-1</dim>
					<dim>768</dim>
				</port>
				<port id="1" precision="I32">
					<dim>1</dim>
				</port>
			</input>
			<output>
				<port id="2" precision="FP32">
					<dim>-1</dim>
					<dim>768</dim>
				</port>
			</output>
		</layer>
		<layer id="121" name="Constant_173822" type="Const" version="opset1">
			<data element_type="f32" shape="1, 768" offset="7117972" size="3072" />
			<output>
				<port id="0" precision="FP32">
					<dim>1</dim>
					<dim>768</dim>
				</port>
			</output>
		</layer>
		<layer id="122" name="__module.blocks.1.norm1/aten::layer_norm/Multiply_1" type="Multiply" version="opset1">
			<data auto_broadcast="numpy" />
			<input>
				<port id="0" precision="FP32">
					<dim>-1</dim>
					<dim>768</dim>
				</port>
				<port id="1" precision="FP32">
					<dim>1</dim>
					<dim>768</dim>
				</port>
			</input>
			<output>
				<port id="2" precision="FP32">
					<dim>-1</dim>
					<dim>768</dim>
				</port>
			</output>
		</layer>
		<layer id="123" name="Constant_173823" type="Const" version="opset1">
			<data element_type="f32" shape="1, 768" offset="7121044" size="3072" />
			<output>
				<port id="0" precision="FP32">
					<dim>1</dim>
					<dim>768</dim>
				</port>
			</output>
		</layer>
		<layer id="124" name="__module.blocks.1.norm1/aten::layer_norm/Add" type="Add" version="opset1">
			<data auto_broadcast="numpy" />
			<input>
				<port id="0" precision="FP32">
					<dim>-1</dim>
					<dim>768</dim>
				</port>
				<port id="1" precision="FP32">
					<dim>1</dim>
					<dim>768</dim>
				</port>
			</input>
			<output>
				<port id="2" precision="FP32" names="175,hidden_states.5">
					<dim>-1</dim>
					<dim>768</dim>
				</port>
			</output>
		</layer>
		<layer id="125" name="self.blocks.1.attn.qkv.weight" type="Const" version="opset1">
			<data element_type="i8" shape="2304, 768" offset="7124116" size="1769472" />
			<output>
				<port id="0" precision="I8">
					<dim>2304</dim>
					<dim>768</dim>
				</port>
			</output>
		</layer>
		<layer id="126" name="Convert_1443675" type="Convert" version="opset1">
			<data destination_type="f16" />
			<input>
				<port id="0" precision="I8">
					<dim>2304</dim>
					<dim>768</dim>
				</port>
			</input>
			<output>
				<port id="1" precision="FP16">
					<dim>2304</dim>
					<dim>768</dim>
				</port>
			</output>
		</layer>
		<layer id="127" name="self.blocks.1.attn.qkv.weight/scale" type="Const" version="opset1">
			<data element_type="f16" shape="2304, 1" offset="8893588" size="4608" />
			<output>
				<port id="0" precision="FP16">
					<dim>2304</dim>
					<dim>1</dim>
				</port>
			</output>
		</layer>
		<layer id="128" name="self.blocks.1.attn.qkv.weight/fq_weights_1" type="Multiply" version="opset1">
			<data auto_broadcast="numpy" />
			<input>
				<port id="0" precision="FP16">
					<dim>2304</dim>
					<dim>768</dim>
				</port>
				<port id="1" precision="FP16">
					<dim>2304</dim>
					<dim>1</dim>
				</port>
			</input>
			<output>
				<port id="2" precision="FP16">
					<dim>2304</dim>
					<dim>768</dim>
				</port>
			</output>
		</layer>
		<layer id="129" name="__module.blocks.1.attn.qkv/ov_ext::linear/Convert" type="Convert" version="opset1">
			<data destination_type="f32" />
			<rt_info>
				<attribute name="decompression" version="0" />
			</rt_info>
			<input>
				<port id="0" precision="FP16">
					<dim>2304</dim>
					<dim>768</dim>
				</port>
			</input>
			<output>
				<port id="1" precision="FP32">
					<dim>2304</dim>
					<dim>768</dim>
				</port>
			</output>
		</layer>
		<layer id="130" name="__module.blocks.1.attn.qkv/ov_ext::linear/MatMul" type="MatMul" version="opset1">
			<data transpose_a="false" transpose_b="true" />
			<input>
				<port id="0" precision="FP32">
					<dim>-1</dim>
					<dim>768</dim>
				</port>
				<port id="1" precision="FP32">
					<dim>2304</dim>
					<dim>768</dim>
				</port>
			</input>
			<output>
				<port id="2" precision="FP32">
					<dim>-1</dim>
					<dim>2304</dim>
				</port>
			</output>
		</layer>
		<layer id="131" name="self.blocks.1.attn.qkv.bias" type="Const" version="opset1">
			<data element_type="bf16" shape="2304" offset="8898196" size="4608" />
			<output>
				<port id="0" precision="BF16" names="self.blocks.1.attn.qkv.bias">
					<dim>2304</dim>
				</port>
			</output>
		</layer>
		<layer id="132" name="__module.blocks.1.attn.qkv/ov_ext::linear/Convert_1" type="Convert" version="opset1">
			<data destination_type="f32" />
			<rt_info>
				<attribute name="decompression" version="0" />
			</rt_info>
			<input>
				<port id="0" precision="BF16">
					<dim>2304</dim>
				</port>
			</input>
			<output>
				<port id="1" precision="FP32">
					<dim>2304</dim>
				</port>
			</output>
		</layer>
		<layer id="133" name="__module.blocks.1.attn.qkv/ov_ext::linear/Add" type="Add" version="opset1">
			<data auto_broadcast="numpy" />
			<input>
				<port id="0" precision="FP32">
					<dim>-1</dim>
					<dim>2304</dim>
				</port>
				<port id="1" precision="FP32">
					<dim>2304</dim>
				</port>
			</input>
			<output>
				<port id="2" precision="FP32" names="181">
					<dim>-1</dim>
					<dim>2304</dim>
				</port>
			</output>
		</layer>
		<layer id="134" name="Constant_175125" type="Const" version="opset1">
			<data element_type="i64" shape="4" offset="1784836" size="32" />
			<output>
				<port id="0" precision="I64">
					<dim>4</dim>
				</port>
			</output>
		</layer>
		<layer id="135" name="__module.blocks.1.attn/aten::reshape/Reshape" type="Reshape" version="opset1">
			<data special_zero="true" />
			<input>
				<port id="0" precision="FP32">
					<dim>-1</dim>
					<dim>2304</dim>
				</port>
				<port id="1" precision="I64">
					<dim>4</dim>
				</port>
			</input>
			<output>
				<port id="2" precision="FP32" names="183">
					<dim>-1</dim>
					<dim>3</dim>
					<dim>12</dim>
					<dim>64</dim>
				</port>
			</output>
		</layer>
		<layer id="136" name="Constant_143350" type="Const" version="opset1">
			<data element_type="i64" shape="4" offset="1784868" size="32" />
			<output>
				<port id="0" precision="I64">
					<dim>4</dim>
				</port>
			</output>
		</layer>
		<layer id="137" name="__module.blocks.1.attn/aten::permute/Transpose" type="Transpose" version="opset1">
			<input>
				<port id="0" precision="FP32">
					<dim>-1</dim>
					<dim>3</dim>
					<dim>12</dim>
					<dim>64</dim>
				</port>
				<port id="1" precision="I64">
					<dim>4</dim>
				</port>
			</input>
			<output>
				<port id="2" precision="FP32" names="185">
					<dim>3</dim>
					<dim>-1</dim>
					<dim>12</dim>
					<dim>64</dim>
				</port>
			</output>
		</layer>
		<layer id="138" name="152" type="Const" version="opset1">
			<data element_type="i64" shape="" offset="1784900" size="8" />
			<output>
				<port id="0" precision="I64" names="152" />
			</output>
		</layer>
		<layer id="139" name="__module.blocks.1.attn/prim::ListUnpack/Split" type="Split" version="opset1">
			<data num_splits="3" />
			<input>
				<port id="0" precision="FP32">
					<dim>3</dim>
					<dim>-1</dim>
					<dim>12</dim>
					<dim>64</dim>
				</port>
				<port id="1" precision="I64" />
			</input>
			<output>
				<port id="2" precision="FP32">
					<dim>1</dim>
					<dim>-1</dim>
					<dim>12</dim>
					<dim>64</dim>
				</port>
				<port id="3" precision="FP32">
					<dim>1</dim>
					<dim>-1</dim>
					<dim>12</dim>
					<dim>64</dim>
				</port>
				<port id="4" precision="FP32">
					<dim>1</dim>
					<dim>-1</dim>
					<dim>12</dim>
					<dim>64</dim>
				</port>
			</output>
		</layer>
		<layer id="140" name="__module.blocks.1.attn/prim::ListUnpack/Squeeze" type="Squeeze" version="opset1">
			<input>
				<port id="0" precision="FP32">
					<dim>1</dim>
					<dim>-1</dim>
					<dim>12</dim>
					<dim>64</dim>
				</port>
				<port id="1" precision="I64" />
			</input>
			<output>
				<port id="2" precision="FP32" names="187,190,q.11,q.9">
					<dim>-1</dim>
					<dim>12</dim>
					<dim>64</dim>
				</port>
			</output>
		</layer>
		<layer id="141" name="__module.blocks.1.attn/aten::mul/Multiply" type="Multiply" version="opset1">
			<data auto_broadcast="numpy" />
			<input>
				<port id="0" precision="FP32">
					<dim>-1</dim>
					<dim>12</dim>
					<dim>64</dim>
				</port>
				<port id="1" precision="FP32">
					<dim>-1</dim>
					<dim>1</dim>
					<dim>64</dim>
				</port>
			</input>
			<output>
				<port id="2" precision="FP32" names="194">
					<dim>-1</dim>
					<dim>12</dim>
					<dim>64</dim>
				</port>
			</output>
		</layer>
		<layer id="142" name="Constant_143511" type="Const" version="opset1">
			<data element_type="i64" shape="1" offset="1784936" size="8" />
			<output>
				<port id="0" precision="I64">
					<dim>1</dim>
				</port>
			</output>
		</layer>
		<layer id="143" name="Constant_143513" type="Const" version="opset1">
			<data element_type="i64" shape="1" offset="1784944" size="8" />
			<output>
				<port id="0" precision="I64">
					<dim>1</dim>
				</port>
			</output>
		</layer>
		<layer id="144" name="Constant_143470" type="Const" version="opset1">
			<data element_type="i64" shape="1" offset="1784916" size="8" />
			<output>
				<port id="0" precision="I64">
					<dim>1</dim>
				</port>
			</output>
		</layer>
		<layer id="145" name="__module.blocks.1.attn/aten::slice/Slice" type="Slice" version="opset8">
			<input>
				<port id="0" precision="FP32">
					<dim>-1</dim>
					<dim>12</dim>
					<dim>64</dim>
				</port>
				<port id="1" precision="I64">
					<dim>1</dim>
				</port>
				<port id="2" precision="I64">
					<dim>1</dim>
				</port>
				<port id="3" precision="I64">
					<dim>1</dim>
				</port>
				<port id="4" precision="I64">
					<dim>1</dim>
				</port>
			</input>
			<output>
				<port id="5" precision="FP32" names="204,x2.5">
					<dim>-1</dim>
					<dim>12</dim>
					<dim>32</dim>
				</port>
			</output>
		</layer>
		<layer id="146" name="__module.blocks.1.attn/aten::neg/Constant" type="Const" version="opset1">
			<data element_type="i32" shape="" offset="0" size="4" />
			<output>
				<port id="0" precision="I32" />
			</output>
		</layer>
		<layer id="147" name="__module.blocks.1.attn/aten::neg/ConvertLike" type="Convert" version="opset1">
			<data destination_type="f32" />
			<input>
				<port id="0" precision="I32" />
			</input>
			<output>
				<port id="1" precision="FP32" />
			</output>
		</layer>
		<layer id="148" name="__module.blocks.1.attn/aten::neg/Multiply" type="Multiply" version="opset1">
			<data auto_broadcast="numpy" />
			<input>
				<port id="0" precision="FP32">
					<dim>-1</dim>
					<dim>12</dim>
					<dim>32</dim>
				</port>
				<port id="1" precision="FP32" />
			</input>
			<output>
				<port id="2" precision="FP32" names="205">
					<dim>-1</dim>
					<dim>12</dim>
					<dim>32</dim>
				</port>
			</output>
		</layer>
		<layer id="149" name="Constant_143378" type="Const" version="opset1">
			<data element_type="i64" shape="1" offset="1784900" size="8" />
			<output>
				<port id="0" precision="I64">
					<dim>1</dim>
				</port>
			</output>
		</layer>
		<layer id="150" name="Constant_143419" type="Const" version="opset1">
			<data element_type="i64" shape="1" offset="1784944" size="8" />
			<output>
				<port id="0" precision="I64">
					<dim>1</dim>
				</port>
			</output>
		</layer>
		<layer id="151" name="Constant_143376" type="Const" version="opset1">
			<data element_type="i64" shape="1" offset="1784916" size="8" />
			<output>
				<port id="0" precision="I64">
					<dim>1</dim>
				</port>
			</output>
		</layer>
		<layer id="152" name="__module.blocks.1.attn/aten::slice/Slice_1" type="Slice" version="opset8">
			<input>
				<port id="0" precision="FP32">
					<dim>-1</dim>
					<dim>12</dim>
					<dim>64</dim>
				</port>
				<port id="1" precision="I64">
					<dim>1</dim>
				</port>
				<port id="2" precision="I64">
					<dim>1</dim>
				</port>
				<port id="3" precision="I64">
					<dim>1</dim>
				</port>
				<port id="4" precision="I64">
					<dim>1</dim>
				</port>
			</input>
			<output>
				<port id="5" precision="FP32" names="199,x1.5">
					<dim>-1</dim>
					<dim>12</dim>
					<dim>32</dim>
				</port>
			</output>
		</layer>
		<layer id="153" name="__module.blocks.1.attn/aten::cat/Concat" type="Concat" version="opset1">
			<data axis="-1" />
			<input>
				<port id="0" precision="FP32">
					<dim>-1</dim>
					<dim>12</dim>
					<dim>32</dim>
				</port>
				<port id="1" precision="FP32">
					<dim>-1</dim>
					<dim>12</dim>
					<dim>32</dim>
				</port>
			</input>
			<output>
				<port id="2" precision="FP32" names="207">
					<dim>-1</dim>
					<dim>12</dim>
					<dim>64</dim>
				</port>
			</output>
		</layer>
		<layer id="154" name="__module.blocks.1.attn/aten::mul/Multiply_1" type="Multiply" version="opset1">
			<data auto_broadcast="numpy" />
			<input>
				<port id="0" precision="FP32">
					<dim>-1</dim>
					<dim>12</dim>
					<dim>64</dim>
				</port>
				<port id="1" precision="FP32">
					<dim>-1</dim>
					<dim>1</dim>
					<dim>64</dim>
				</port>
			</input>
			<output>
				<port id="2" precision="FP32" names="208">
					<dim>-1</dim>
					<dim>12</dim>
					<dim>64</dim>
				</port>
			</output>
		</layer>
		<layer id="155" name="__module.blocks.1.attn/aten::add/Add" type="Add" version="opset1">
			<data auto_broadcast="numpy" />
			<input>
				<port id="0" precision="FP32">
					<dim>-1</dim>
					<dim>12</dim>
					<dim>64</dim>
				</port>
				<port id="1" precision="FP32">
					<dim>-1</dim>
					<dim>12</dim>
					<dim>64</dim>
				</port>
			</input>
			<output>
				<port id="2" precision="FP32" names="209,226,q.13,q_embed.3">
					<dim>-1</dim>
					<dim>12</dim>
					<dim>64</dim>
				</port>
			</output>
		</layer>
		<layer id="156" name="__module.blocks.1.attn/aten::transpose/Constant" type="Const" version="opset1">
			<data element_type="i32" shape="3" offset="1784952" size="12" />
			<output>
				<port id="0" precision="I32">
					<dim>3</dim>
				</port>
			</output>
		</layer>
		<layer id="157" name="__module.blocks.1.attn/aten::transpose/Transpose" type="Transpose" version="opset1">
			<input>
				<port id="0" precision="FP32">
					<dim>-1</dim>
					<dim>12</dim>
					<dim>64</dim>
				</port>
				<port id="1" precision="I32">
					<dim>3</dim>
				</port>
			</input>
			<output>
				<port id="2" precision="FP32" names="228,q.15">
					<dim>12</dim>
					<dim>-1</dim>
					<dim>64</dim>
				</port>
			</output>
		</layer>
		<layer id="158" name="__module.blocks.1.attn/prim::ListUnpack/Squeeze_0" type="Squeeze" version="opset1">
			<input>
				<port id="0" precision="FP32">
					<dim>1</dim>
					<dim>-1</dim>
					<dim>12</dim>
					<dim>64</dim>
				</port>
				<port id="1" precision="I64" />
			</input>
			<output>
				<port id="2" precision="FP32" names="188,191,k.11,k.9">
					<dim>-1</dim>
					<dim>12</dim>
					<dim>64</dim>
				</port>
			</output>
		</layer>
		<layer id="159" name="__module.blocks.1.attn/aten::mul/Multiply_2" type="Multiply" version="opset1">
			<data auto_broadcast="numpy" />
			<input>
				<port id="0" precision="FP32">
					<dim>-1</dim>
					<dim>12</dim>
					<dim>64</dim>
				</port>
				<port id="1" precision="FP32">
					<dim>-1</dim>
					<dim>1</dim>
					<dim>64</dim>
				</port>
			</input>
			<output>
				<port id="2" precision="FP32" names="210">
					<dim>-1</dim>
					<dim>12</dim>
					<dim>64</dim>
				</port>
			</output>
		</layer>
		<layer id="160" name="Constant_143719" type="Const" version="opset1">
			<data element_type="i64" shape="1" offset="1784936" size="8" />
			<output>
				<port id="0" precision="I64">
					<dim>1</dim>
				</port>
			</output>
		</layer>
		<layer id="161" name="Constant_143721" type="Const" version="opset1">
			<data element_type="i64" shape="1" offset="1784944" size="8" />
			<output>
				<port id="0" precision="I64">
					<dim>1</dim>
				</port>
			</output>
		</layer>
		<layer id="162" name="Constant_143678" type="Const" version="opset1">
			<data element_type="i64" shape="1" offset="1784916" size="8" />
			<output>
				<port id="0" precision="I64">
					<dim>1</dim>
				</port>
			</output>
		</layer>
		<layer id="163" name="__module.blocks.1.attn/aten::slice/Slice_2" type="Slice" version="opset8">
			<input>
				<port id="0" precision="FP32">
					<dim>-1</dim>
					<dim>12</dim>
					<dim>64</dim>
				</port>
				<port id="1" precision="I64">
					<dim>1</dim>
				</port>
				<port id="2" precision="I64">
					<dim>1</dim>
				</port>
				<port id="3" precision="I64">
					<dim>1</dim>
				</port>
				<port id="4" precision="I64">
					<dim>1</dim>
				</port>
			</input>
			<output>
				<port id="5" precision="FP32" names="220,x2.7">
					<dim>-1</dim>
					<dim>12</dim>
					<dim>32</dim>
				</port>
			</output>
		</layer>
		<layer id="164" name="__module.blocks.1.attn/aten::neg/Constant_1" type="Const" version="opset1">
			<data element_type="i32" shape="" offset="0" size="4" />
			<output>
				<port id="0" precision="I32" />
			</output>
		</layer>
		<layer id="165" name="__module.blocks.1.attn/aten::neg/ConvertLike_1" type="Convert" version="opset1">
			<data destination_type="f32" />
			<input>
				<port id="0" precision="I32" />
			</input>
			<output>
				<port id="1" precision="FP32" />
			</output>
		</layer>
		<layer id="166" name="__module.blocks.1.attn/aten::neg/Multiply_1" type="Multiply" version="opset1">
			<data auto_broadcast="numpy" />
			<input>
				<port id="0" precision="FP32">
					<dim>-1</dim>
					<dim>12</dim>
					<dim>32</dim>
				</port>
				<port id="1" precision="FP32" />
			</input>
			<output>
				<port id="2" precision="FP32" names="221">
					<dim>-1</dim>
					<dim>12</dim>
					<dim>32</dim>
				</port>
			</output>
		</layer>
		<layer id="167" name="Constant_143586" type="Const" version="opset1">
			<data element_type="i64" shape="1" offset="1784900" size="8" />
			<output>
				<port id="0" precision="I64">
					<dim>1</dim>
				</port>
			</output>
		</layer>
		<layer id="168" name="Constant_143627" type="Const" version="opset1">
			<data element_type="i64" shape="1" offset="1784944" size="8" />
			<output>
				<port id="0" precision="I64">
					<dim>1</dim>
				</port>
			</output>
		</layer>
		<layer id="169" name="Constant_143584" type="Const" version="opset1">
			<data element_type="i64" shape="1" offset="1784916" size="8" />
			<output>
				<port id="0" precision="I64">
					<dim>1</dim>
				</port>
			</output>
		</layer>
		<layer id="170" name="__module.blocks.1.attn/aten::slice/Slice_3" type="Slice" version="opset8">
			<input>
				<port id="0" precision="FP32">
					<dim>-1</dim>
					<dim>12</dim>
					<dim>64</dim>
				</port>
				<port id="1" precision="I64">
					<dim>1</dim>
				</port>
				<port id="2" precision="I64">
					<dim>1</dim>
				</port>
				<port id="3" precision="I64">
					<dim>1</dim>
				</port>
				<port id="4" precision="I64">
					<dim>1</dim>
				</port>
			</input>
			<output>
				<port id="5" precision="FP32" names="215,x1.7">
					<dim>-1</dim>
					<dim>12</dim>
					<dim>32</dim>
				</port>
			</output>
		</layer>
		<layer id="171" name="__module.blocks.1.attn/aten::cat/Concat_1" type="Concat" version="opset1">
			<data axis="-1" />
			<input>
				<port id="0" precision="FP32">
					<dim>-1</dim>
					<dim>12</dim>
					<dim>32</dim>
				</port>
				<port id="1" precision="FP32">
					<dim>-1</dim>
					<dim>12</dim>
					<dim>32</dim>
				</port>
			</input>
			<output>
				<port id="2" precision="FP32" names="223">
					<dim>-1</dim>
					<dim>12</dim>
					<dim>64</dim>
				</port>
			</output>
		</layer>
		<layer id="172" name="__module.blocks.1.attn/aten::mul/Multiply_3" type="Multiply" version="opset1">
			<data auto_broadcast="numpy" />
			<input>
				<port id="0" precision="FP32">
					<dim>-1</dim>
					<dim>12</dim>
					<dim>64</dim>
				</port>
				<port id="1" precision="FP32">
					<dim>-1</dim>
					<dim>1</dim>
					<dim>64</dim>
				</port>
			</input>
			<output>
				<port id="2" precision="FP32" names="224">
					<dim>-1</dim>
					<dim>12</dim>
					<dim>64</dim>
				</port>
			</output>
		</layer>
		<layer id="173" name="__module.blocks.1.attn/aten::add/Add_1" type="Add" version="opset1">
			<data auto_broadcast="numpy" />
			<input>
				<port id="0" precision="FP32">
					<dim>-1</dim>
					<dim>12</dim>
					<dim>64</dim>
				</port>
				<port id="1" precision="FP32">
					<dim>-1</dim>
					<dim>12</dim>
					<dim>64</dim>
				</port>
			</input>
			<output>
				<port id="2" precision="FP32" names="225,227,k.13,k_embed.3">
					<dim>-1</dim>
					<dim>12</dim>
					<dim>64</dim>
				</port>
			</output>
		</layer>
		<layer id="174" name="__module.blocks.1.attn/aten::transpose/Constant_1" type="Const" version="opset1">
			<data element_type="i32" shape="3" offset="1784952" size="12" />
			<output>
				<port id="0" precision="I32">
					<dim>3</dim>
				</port>
			</output>
		</layer>
		<layer id="175" name="__module.blocks.1.attn/aten::transpose/Transpose_1" type="Transpose" version="opset1">
			<input>
				<port id="0" precision="FP32">
					<dim>-1</dim>
					<dim>12</dim>
					<dim>64</dim>
				</port>
				<port id="1" precision="I32">
					<dim>3</dim>
				</port>
			</input>
			<output>
				<port id="2" precision="FP32" names="229,k.15">
					<dim>12</dim>
					<dim>-1</dim>
					<dim>64</dim>
				</port>
			</output>
		</layer>
		<layer id="176" name="__module.blocks.1.attn/prim::ListUnpack/Squeeze_1" type="Squeeze" version="opset1">
			<input>
				<port id="0" precision="FP32">
					<dim>1</dim>
					<dim>-1</dim>
					<dim>12</dim>
					<dim>64</dim>
				</port>
				<port id="1" precision="I64" />
			</input>
			<output>
				<port id="2" precision="FP32" names="189,v.5">
					<dim>-1</dim>
					<dim>12</dim>
					<dim>64</dim>
				</port>
			</output>
		</layer>
		<layer id="177" name="__module.blocks.1.attn/aten::transpose/Constant_2" type="Const" version="opset1">
			<data element_type="i32" shape="3" offset="1784952" size="12" />
			<output>
				<port id="0" precision="I32">
					<dim>3</dim>
				</port>
			</output>
		</layer>
		<layer id="178" name="__module.blocks.1.attn/aten::transpose/Transpose_2" type="Transpose" version="opset1">
			<input>
				<port id="0" precision="FP32">
					<dim>-1</dim>
					<dim>12</dim>
					<dim>64</dim>
				</port>
				<port id="1" precision="I32">
					<dim>3</dim>
				</port>
			</input>
			<output>
				<port id="2" precision="FP32" names="230,v.7">
					<dim>12</dim>
					<dim>-1</dim>
					<dim>64</dim>
				</port>
			</output>
		</layer>
		<layer id="179" name="__module.blocks.1.attn/aten::scaled_dot_product_attention/ScaledDotProductAttention" type="ScaledDotProductAttention" version="opset13">
			<data causal="false" />
			<input>
				<port id="0" precision="FP32">
					<dim>12</dim>
					<dim>-1</dim>
					<dim>64</dim>
				</port>
				<port id="1" precision="FP32">
					<dim>12</dim>
					<dim>-1</dim>
					<dim>64</dim>
				</port>
				<port id="2" precision="FP32">
					<dim>12</dim>
					<dim>-1</dim>
					<dim>64</dim>
				</port>
				<port id="3" precision="FP32">
					<dim>1</dim>
					<dim>-1</dim>
					<dim>-1</dim>
				</port>
			</input>
			<output>
				<port id="4" precision="FP32" names="231,attn_output.5">
					<dim>12</dim>
					<dim>-1</dim>
					<dim>64</dim>
				</port>
			</output>
		</layer>
		<layer id="180" name="__module.blocks.1.attn/aten::transpose/Constant_3" type="Const" version="opset1">
			<data element_type="i32" shape="3" offset="1784952" size="12" />
			<output>
				<port id="0" precision="I32">
					<dim>3</dim>
				</port>
			</output>
		</layer>
		<layer id="181" name="__module.blocks.1.attn/aten::transpose/Transpose_3" type="Transpose" version="opset1">
			<input>
				<port id="0" precision="FP32">
					<dim>12</dim>
					<dim>-1</dim>
					<dim>64</dim>
				</port>
				<port id="1" precision="I32">
					<dim>3</dim>
				</port>
			</input>
			<output>
				<port id="2" precision="FP32" names="232,attn_output.7">
					<dim>-1</dim>
					<dim>12</dim>
					<dim>64</dim>
				</port>
			</output>
		</layer>
		<layer id="182" name="Constant_175126" type="Const" version="opset1">
			<data element_type="i64" shape="2" offset="1784964" size="16" />
			<output>
				<port id="0" precision="I64">
					<dim>2</dim>
				</port>
			</output>
		</layer>
		<layer id="183" name="__module.blocks.1.attn/aten::reshape/Reshape_1" type="Reshape" version="opset1">
			<data special_zero="true" />
			<input>
				<port id="0" precision="FP32">
					<dim>-1</dim>
					<dim>12</dim>
					<dim>64</dim>
				</port>
				<port id="1" precision="I64">
					<dim>2</dim>
				</port>
			</input>
			<output>
				<port id="2" precision="FP32" names="234">
					<dim>-1</dim>
					<dim>768</dim>
				</port>
			</output>
		</layer>
		<layer id="184" name="self.blocks.1.attn.proj.weight" type="Const" version="opset1">
			<data element_type="i8" shape="768, 768" offset="8902804" size="589824" />
			<output>
				<port id="0" precision="I8">
					<dim>768</dim>
					<dim>768</dim>
				</port>
			</output>
		</layer>
		<layer id="185" name="Convert_1505619" type="Convert" version="opset1">
			<data destination_type="f16" />
			<input>
				<port id="0" precision="I8">
					<dim>768</dim>
					<dim>768</dim>
				</port>
			</input>
			<output>
				<port id="1" precision="FP16">
					<dim>768</dim>
					<dim>768</dim>
				</port>
			</output>
		</layer>
		<layer id="186" name="self.blocks.1.attn.proj.weight/scale" type="Const" version="opset1">
			<data element_type="f16" shape="768, 1" offset="9492628" size="1536" />
			<output>
				<port id="0" precision="FP16">
					<dim>768</dim>
					<dim>1</dim>
				</port>
			</output>
		</layer>
		<layer id="187" name="self.blocks.1.attn.proj.weight/fq_weights_1" type="Multiply" version="opset1">
			<data auto_broadcast="numpy" />
			<input>
				<port id="0" precision="FP16">
					<dim>768</dim>
					<dim>768</dim>
				</port>
				<port id="1" precision="FP16">
					<dim>768</dim>
					<dim>1</dim>
				</port>
			</input>
			<output>
				<port id="2" precision="FP16">
					<dim>768</dim>
					<dim>768</dim>
				</port>
			</output>
		</layer>
		<layer id="188" name="__module.blocks.1.attn.proj/ov_ext::linear/Convert" type="Convert" version="opset1">
			<data destination_type="f32" />
			<rt_info>
				<attribute name="decompression" version="0" />
			</rt_info>
			<input>
				<port id="0" precision="FP16">
					<dim>768</dim>
					<dim>768</dim>
				</port>
			</input>
			<output>
				<port id="1" precision="FP32">
					<dim>768</dim>
					<dim>768</dim>
				</port>
			</output>
		</layer>
		<layer id="189" name="__module.blocks.1.attn.proj/ov_ext::linear/MatMul" type="MatMul" version="opset1">
			<data transpose_a="false" transpose_b="true" />
			<input>
				<port id="0" precision="FP32">
					<dim>-1</dim>
					<dim>768</dim>
				</port>
				<port id="1" precision="FP32">
					<dim>768</dim>
					<dim>768</dim>
				</port>
			</input>
			<output>
				<port id="2" precision="FP32">
					<dim>-1</dim>
					<dim>768</dim>
				</port>
			</output>
		</layer>
		<layer id="190" name="self.blocks.1.attn.proj.bias" type="Const" version="opset1">
			<data element_type="bf16" shape="768" offset="9494164" size="1536" />
			<output>
				<port id="0" precision="BF16" names="self.blocks.1.attn.proj.bias">
					<dim>768</dim>
				</port>
			</output>
		</layer>
		<layer id="191" name="__module.blocks.1.attn.proj/ov_ext::linear/Convert_1" type="Convert" version="opset1">
			<data destination_type="f32" />
			<rt_info>
				<attribute name="decompression" version="0" />
			</rt_info>
			<input>
				<port id="0" precision="BF16">
					<dim>768</dim>
				</port>
			</input>
			<output>
				<port id="1" precision="FP32">
					<dim>768</dim>
				</port>
			</output>
		</layer>
		<layer id="192" name="__module.blocks.1.attn.proj/ov_ext::linear/Add" type="Add" version="opset1">
			<data auto_broadcast="numpy" />
			<input>
				<port id="0" precision="FP32">
					<dim>-1</dim>
					<dim>768</dim>
				</port>
				<port id="1" precision="FP32">
					<dim>768</dim>
				</port>
			</input>
			<output>
				<port id="2" precision="FP32" names="237">
					<dim>-1</dim>
					<dim>768</dim>
				</port>
			</output>
		</layer>
		<layer id="193" name="__module.blocks.1/aten::add/Add" type="Add" version="opset1">
			<data auto_broadcast="numpy" />
			<input>
				<port id="0" precision="FP32">
					<dim>-1</dim>
					<dim>768</dim>
				</port>
				<port id="1" precision="FP32">
					<dim>-1</dim>
					<dim>768</dim>
				</port>
			</input>
			<output>
				<port id="2" precision="FP32" names="238,input.7">
					<dim>-1</dim>
					<dim>768</dim>
				</port>
			</output>
		</layer>
		<layer id="194" name="__module.blocks.1.norm2/aten::layer_norm/Multiply" type="Const" version="opset1">
			<data element_type="i32" shape="1" offset="0" size="4" />
			<output>
				<port id="0" precision="I32">
					<dim>1</dim>
				</port>
			</output>
		</layer>
		<layer id="195" name="__module.blocks.1.norm2/aten::layer_norm/MVN" type="MVN" version="opset6">
			<data eps="9.9999999747524271e-07" normalize_variance="true" eps_mode="INSIDE_SQRT" />
			<input>
				<port id="0" precision="FP32">
					<dim>-1</dim>
					<dim>768</dim>
				</port>
				<port id="1" precision="I32">
					<dim>1</dim>
				</port>
			</input>
			<output>
				<port id="2" precision="FP32">
					<dim>-1</dim>
					<dim>768</dim>
				</port>
			</output>
		</layer>
		<layer id="196" name="Constant_173824" type="Const" version="opset1">
			<data element_type="f32" shape="1, 768" offset="9495700" size="3072" />
			<output>
				<port id="0" precision="FP32">
					<dim>1</dim>
					<dim>768</dim>
				</port>
			</output>
		</layer>
		<layer id="197" name="__module.blocks.1.norm2/aten::layer_norm/Multiply_1" type="Multiply" version="opset1">
			<data auto_broadcast="numpy" />
			<input>
				<port id="0" precision="FP32">
					<dim>-1</dim>
					<dim>768</dim>
				</port>
				<port id="1" precision="FP32">
					<dim>1</dim>
					<dim>768</dim>
				</port>
			</input>
			<output>
				<port id="2" precision="FP32">
					<dim>-1</dim>
					<dim>768</dim>
				</port>
			</output>
		</layer>
		<layer id="198" name="Constant_173825" type="Const" version="opset1">
			<data element_type="f32" shape="1, 768" offset="9498772" size="3072" />
			<output>
				<port id="0" precision="FP32">
					<dim>1</dim>
					<dim>768</dim>
				</port>
			</output>
		</layer>
		<layer id="199" name="__module.blocks.1.norm2/aten::layer_norm/Add" type="Add" version="opset1">
			<data auto_broadcast="numpy" />
			<input>
				<port id="0" precision="FP32">
					<dim>-1</dim>
					<dim>768</dim>
				</port>
				<port id="1" precision="FP32">
					<dim>1</dim>
					<dim>768</dim>
				</port>
			</input>
			<output>
				<port id="2" precision="FP32" names="242">
					<dim>-1</dim>
					<dim>768</dim>
				</port>
			</output>
		</layer>
		<layer id="200" name="self.blocks.1.mlp.linear_fc1.weight" type="Const" version="opset1">
			<data element_type="i8" shape="3072, 768" offset="9501844" size="2359296" />
			<output>
				<port id="0" precision="I8">
					<dim>3072</dim>
					<dim>768</dim>
				</port>
			</output>
		</layer>
		<layer id="201" name="Convert_1324949" type="Convert" version="opset1">
			<data destination_type="f16" />
			<input>
				<port id="0" precision="I8">
					<dim>3072</dim>
					<dim>768</dim>
				</port>
			</input>
			<output>
				<port id="1" precision="FP16">
					<dim>3072</dim>
					<dim>768</dim>
				</port>
			</output>
		</layer>
		<layer id="202" name="self.blocks.1.mlp.linear_fc1.weight/scale" type="Const" version="opset1">
			<data element_type="f16" shape="3072, 1" offset="11861140" size="6144" />
			<output>
				<port id="0" precision="FP16">
					<dim>3072</dim>
					<dim>1</dim>
				</port>
			</output>
		</layer>
		<layer id="203" name="self.blocks.1.mlp.linear_fc1.weight/fq_weights_1" type="Multiply" version="opset1">
			<data auto_broadcast="numpy" />
			<input>
				<port id="0" precision="FP16">
					<dim>3072</dim>
					<dim>768</dim>
				</port>
				<port id="1" precision="FP16">
					<dim>3072</dim>
					<dim>1</dim>
				</port>
			</input>
			<output>
				<port id="2" precision="FP16">
					<dim>3072</dim>
					<dim>768</dim>
				</port>
			</output>
		</layer>
		<layer id="204" name="__module.blocks.1.mlp.linear_fc1/ov_ext::linear/Convert" type="Convert" version="opset1">
			<data destination_type="f32" />
			<rt_info>
				<attribute name="decompression" version="0" />
			</rt_info>
			<input>
				<port id="0" precision="FP16">
					<dim>3072</dim>
					<dim>768</dim>
				</port>
			</input>
			<output>
				<port id="1" precision="FP32">
					<dim>3072</dim>
					<dim>768</dim>
				</port>
			</output>
		</layer>
		<layer id="205" name="__module.blocks.1.mlp.linear_fc1/ov_ext::linear/MatMul" type="MatMul" version="opset1">
			<data transpose_a="false" transpose_b="true" />
			<input>
				<port id="0" precision="FP32">
					<dim>-1</dim>
					<dim>768</dim>
				</port>
				<port id="1" precision="FP32">
					<dim>3072</dim>
					<dim>768</dim>
				</port>
			</input>
			<output>
				<port id="2" precision="FP32">
					<dim>-1</dim>
					<dim>3072</dim>
				</port>
			</output>
		</layer>
		<layer id="206" name="self.blocks.1.mlp.linear_fc1.bias" type="Const" version="opset1">
			<data element_type="bf16" shape="3072" offset="11867284" size="6144" />
			<output>
				<port id="0" precision="BF16" names="self.blocks.1.mlp.linear_fc1.bias">
					<dim>3072</dim>
				</port>
			</output>
		</layer>
		<layer id="207" name="__module.blocks.1.mlp.linear_fc1/ov_ext::linear/Convert_1" type="Convert" version="opset1">
			<data destination_type="f32" />
			<rt_info>
				<attribute name="decompression" version="0" />
			</rt_info>
			<input>
				<port id="0" precision="BF16">
					<dim>3072</dim>
				</port>
			</input>
			<output>
				<port id="1" precision="FP32">
					<dim>3072</dim>
				</port>
			</output>
		</layer>
		<layer id="208" name="__module.blocks.1.mlp.linear_fc1/ov_ext::linear/Add" type="Add" version="opset1">
			<data auto_broadcast="numpy" />
			<input>
				<port id="0" precision="FP32">
					<dim>-1</dim>
					<dim>3072</dim>
				</port>
				<port id="1" precision="FP32">
					<dim>3072</dim>
				</port>
			</input>
			<output>
				<port id="2" precision="FP32" names="248,input.9">
					<dim>-1</dim>
					<dim>3072</dim>
				</port>
			</output>
		</layer>
		<layer id="209" name="__module.blocks.1.mlp.act_fn/aten::gelu/Gelu" type="Gelu" version="opset7">
			<data approximation_mode="TANH" />
			<input>
				<port id="0" precision="FP32">
					<dim>-1</dim>
					<dim>3072</dim>
				</port>
			</input>
			<output>
				<port id="1" precision="FP32" names="249">
					<dim>-1</dim>
					<dim>3072</dim>
				</port>
			</output>
		</layer>
		<layer id="210" name="self.blocks.1.mlp.linear_fc2.weight" type="Const" version="opset1">
			<data element_type="i8" shape="768, 3072" offset="11873428" size="2359296" />
			<output>
				<port id="0" precision="I8">
					<dim>768</dim>
					<dim>3072</dim>
				</port>
			</output>
		</layer>
		<layer id="211" name="Convert_1330111" type="Convert" version="opset1">
			<data destination_type="f16" />
			<input>
				<port id="0" precision="I8">
					<dim>768</dim>
					<dim>3072</dim>
				</port>
			</input>
			<output>
				<port id="1" precision="FP16">
					<dim>768</dim>
					<dim>3072</dim>
				</port>
			</output>
		</layer>
		<layer id="212" name="self.blocks.1.mlp.linear_fc2.weight/scale" type="Const" version="opset1">
			<data element_type="f16" shape="768, 1" offset="14232724" size="1536" />
			<output>
				<port id="0" precision="FP16">
					<dim>768</dim>
					<dim>1</dim>
				</port>
			</output>
		</layer>
		<layer id="213" name="self.blocks.1.mlp.linear_fc2.weight/fq_weights_1" type="Multiply" version="opset1">
			<data auto_broadcast="numpy" />
			<input>
				<port id="0" precision="FP16">
					<dim>768</dim>
					<dim>3072</dim>
				</port>
				<port id="1" precision="FP16">
					<dim>768</dim>
					<dim>1</dim>
				</port>
			</input>
			<output>
				<port id="2" precision="FP16">
					<dim>768</dim>
					<dim>3072</dim>
				</port>
			</output>
		</layer>
		<layer id="214" name="__module.blocks.1.mlp.linear_fc2/ov_ext::linear/Convert" type="Convert" version="opset1">
			<data destination_type="f32" />
			<rt_info>
				<attribute name="decompression" version="0" />
			</rt_info>
			<input>
				<port id="0" precision="FP16">
					<dim>768</dim>
					<dim>3072</dim>
				</port>
			</input>
			<output>
				<port id="1" precision="FP32">
					<dim>768</dim>
					<dim>3072</dim>
				</port>
			</output>
		</layer>
		<layer id="215" name="__module.blocks.1.mlp.linear_fc2/ov_ext::linear/MatMul" type="MatMul" version="opset1">
			<data transpose_a="false" transpose_b="true" />
			<input>
				<port id="0" precision="FP32">
					<dim>-1</dim>
					<dim>3072</dim>
				</port>
				<port id="1" precision="FP32">
					<dim>768</dim>
					<dim>3072</dim>
				</port>
			</input>
			<output>
				<port id="2" precision="FP32">
					<dim>-1</dim>
					<dim>768</dim>
				</port>
			</output>
		</layer>
		<layer id="216" name="self.blocks.1.mlp.linear_fc2.bias" type="Const" version="opset1">
			<data element_type="bf16" shape="768" offset="14234260" size="1536" />
			<output>
				<port id="0" precision="BF16" names="self.blocks.1.mlp.linear_fc2.bias">
					<dim>768</dim>
				</port>
			</output>
		</layer>
		<layer id="217" name="__module.blocks.1.mlp.linear_fc2/ov_ext::linear/Convert_1" type="Convert" version="opset1">
			<data destination_type="f32" />
			<rt_info>
				<attribute name="decompression" version="0" />
			</rt_info>
			<input>
				<port id="0" precision="BF16">
					<dim>768</dim>
				</port>
			</input>
			<output>
				<port id="1" precision="FP32">
					<dim>768</dim>
				</port>
			</output>
		</layer>
		<layer id="218" name="__module.blocks.1.mlp.linear_fc2/ov_ext::linear/Add" type="Add" version="opset1">
			<data auto_broadcast="numpy" />
			<input>
				<port id="0" precision="FP32">
					<dim>-1</dim>
					<dim>768</dim>
				</port>
				<port id="1" precision="FP32">
					<dim>768</dim>
				</port>
			</input>
			<output>
				<port id="2" precision="FP32" names="252">
					<dim>-1</dim>
					<dim>768</dim>
				</port>
			</output>
		</layer>
		<layer id="219" name="__module.blocks.1/aten::add/Add_1" type="Add" version="opset1">
			<data auto_broadcast="numpy" />
			<input>
				<port id="0" precision="FP32">
					<dim>-1</dim>
					<dim>768</dim>
				</port>
				<port id="1" precision="FP32">
					<dim>-1</dim>
					<dim>768</dim>
				</port>
			</input>
			<output>
				<port id="2" precision="FP32" names="253,input.11">
					<dim>-1</dim>
					<dim>768</dim>
				</port>
			</output>
		</layer>
		<layer id="220" name="__module.blocks.2.norm1/aten::layer_norm/Multiply" type="Const" version="opset1">
			<data element_type="i32" shape="1" offset="0" size="4" />
			<output>
				<port id="0" precision="I32">
					<dim>1</dim>
				</port>
			</output>
		</layer>
		<layer id="221" name="__module.blocks.2.norm1/aten::layer_norm/MVN" type="MVN" version="opset6">
			<data eps="9.9999999747524271e-07" normalize_variance="true" eps_mode="INSIDE_SQRT" />
			<input>
				<port id="0" precision="FP32">
					<dim>-1</dim>
					<dim>768</dim>
				</port>
				<port id="1" precision="I32">
					<dim>1</dim>
				</port>
			</input>
			<output>
				<port id="2" precision="FP32">
					<dim>-1</dim>
					<dim>768</dim>
				</port>
			</output>
		</layer>
		<layer id="222" name="Constant_173826" type="Const" version="opset1">
			<data element_type="f32" shape="1, 768" offset="14235796" size="3072" />
			<output>
				<port id="0" precision="FP32">
					<dim>1</dim>
					<dim>768</dim>
				</port>
			</output>
		</layer>
		<layer id="223" name="__module.blocks.2.norm1/aten::layer_norm/Multiply_1" type="Multiply" version="opset1">
			<data auto_broadcast="numpy" />
			<input>
				<port id="0" precision="FP32">
					<dim>-1</dim>
					<dim>768</dim>
				</port>
				<port id="1" precision="FP32">
					<dim>1</dim>
					<dim>768</dim>
				</port>
			</input>
			<output>
				<port id="2" precision="FP32">
					<dim>-1</dim>
					<dim>768</dim>
				</port>
			</output>
		</layer>
		<layer id="224" name="Constant_173827" type="Const" version="opset1">
			<data element_type="f32" shape="1, 768" offset="14238868" size="3072" />
			<output>
				<port id="0" precision="FP32">
					<dim>1</dim>
					<dim>768</dim>
				</port>
			</output>
		</layer>
		<layer id="225" name="__module.blocks.2.norm1/aten::layer_norm/Add" type="Add" version="opset1">
			<data auto_broadcast="numpy" />
			<input>
				<port id="0" precision="FP32">
					<dim>-1</dim>
					<dim>768</dim>
				</port>
				<port id="1" precision="FP32">
					<dim>1</dim>
					<dim>768</dim>
				</port>
			</input>
			<output>
				<port id="2" precision="FP32" names="278,hidden_states.7">
					<dim>-1</dim>
					<dim>768</dim>
				</port>
			</output>
		</layer>
		<layer id="226" name="self.blocks.2.attn.qkv.weight" type="Const" version="opset1">
			<data element_type="i8" shape="2304, 768" offset="14241940" size="1769472" />
			<output>
				<port id="0" precision="I8">
					<dim>2304</dim>
					<dim>768</dim>
				</port>
			</output>
		</layer>
		<layer id="227" name="Convert_1448837" type="Convert" version="opset1">
			<data destination_type="f16" />
			<input>
				<port id="0" precision="I8">
					<dim>2304</dim>
					<dim>768</dim>
				</port>
			</input>
			<output>
				<port id="1" precision="FP16">
					<dim>2304</dim>
					<dim>768</dim>
				</port>
			</output>
		</layer>
		<layer id="228" name="self.blocks.2.attn.qkv.weight/scale" type="Const" version="opset1">
			<data element_type="f16" shape="2304, 1" offset="16011412" size="4608" />
			<output>
				<port id="0" precision="FP16">
					<dim>2304</dim>
					<dim>1</dim>
				</port>
			</output>
		</layer>
		<layer id="229" name="self.blocks.2.attn.qkv.weight/fq_weights_1" type="Multiply" version="opset1">
			<data auto_broadcast="numpy" />
			<input>
				<port id="0" precision="FP16">
					<dim>2304</dim>
					<dim>768</dim>
				</port>
				<port id="1" precision="FP16">
					<dim>2304</dim>
					<dim>1</dim>
				</port>
			</input>
			<output>
				<port id="2" precision="FP16">
					<dim>2304</dim>
					<dim>768</dim>
				</port>
			</output>
		</layer>
		<layer id="230" name="__module.blocks.2.attn.qkv/ov_ext::linear/Convert" type="Convert" version="opset1">
			<data destination_type="f32" />
			<rt_info>
				<attribute name="decompression" version="0" />
			</rt_info>
			<input>
				<port id="0" precision="FP16">
					<dim>2304</dim>
					<dim>768</dim>
				</port>
			</input>
			<output>
				<port id="1" precision="FP32">
					<dim>2304</dim>
					<dim>768</dim>
				</port>
			</output>
		</layer>
		<layer id="231" name="__module.blocks.2.attn.qkv/ov_ext::linear/MatMul" type="MatMul" version="opset1">
			<data transpose_a="false" transpose_b="true" />
			<input>
				<port id="0" precision="FP32">
					<dim>-1</dim>
					<dim>768</dim>
				</port>
				<port id="1" precision="FP32">
					<dim>2304</dim>
					<dim>768</dim>
				</port>
			</input>
			<output>
				<port id="2" precision="FP32">
					<dim>-1</dim>
					<dim>2304</dim>
				</port>
			</output>
		</layer>
		<layer id="232" name="self.blocks.2.attn.qkv.bias" type="Const" version="opset1">
			<data element_type="bf16" shape="2304" offset="16016020" size="4608" />
			<output>
				<port id="0" precision="BF16" names="self.blocks.2.attn.qkv.bias">
					<dim>2304</dim>
				</port>
			</output>
		</layer>
		<layer id="233" name="__module.blocks.2.attn.qkv/ov_ext::linear/Convert_1" type="Convert" version="opset1">
			<data destination_type="f32" />
			<rt_info>
				<attribute name="decompression" version="0" />
			</rt_info>
			<input>
				<port id="0" precision="BF16">
					<dim>2304</dim>
				</port>
			</input>
			<output>
				<port id="1" precision="FP32">
					<dim>2304</dim>
				</port>
			</output>
		</layer>
		<layer id="234" name="__module.blocks.2.attn.qkv/ov_ext::linear/Add" type="Add" version="opset1">
			<data auto_broadcast="numpy" />
			<input>
				<port id="0" precision="FP32">
					<dim>-1</dim>
					<dim>2304</dim>
				</port>
				<port id="1" precision="FP32">
					<dim>2304</dim>
				</port>
			</input>
			<output>
				<port id="2" precision="FP32" names="284">
					<dim>-1</dim>
					<dim>2304</dim>
				</port>
			</output>
		</layer>
		<layer id="235" name="Constant_175127" type="Const" version="opset1">
			<data element_type="i64" shape="4" offset="1784836" size="32" />
			<output>
				<port id="0" precision="I64">
					<dim>4</dim>
				</port>
			</output>
		</layer>
		<layer id="236" name="__module.blocks.2.attn/aten::reshape/Reshape" type="Reshape" version="opset1">
			<data special_zero="true" />
			<input>
				<port id="0" precision="FP32">
					<dim>-1</dim>
					<dim>2304</dim>
				</port>
				<port id="1" precision="I64">
					<dim>4</dim>
				</port>
			</input>
			<output>
				<port id="2" precision="FP32" names="286">
					<dim>-1</dim>
					<dim>3</dim>
					<dim>12</dim>
					<dim>64</dim>
				</port>
			</output>
		</layer>
		<layer id="237" name="Constant_144045" type="Const" version="opset1">
			<data element_type="i64" shape="4" offset="1784868" size="32" />
			<output>
				<port id="0" precision="I64">
					<dim>4</dim>
				</port>
			</output>
		</layer>
		<layer id="238" name="__module.blocks.2.attn/aten::permute/Transpose" type="Transpose" version="opset1">
			<input>
				<port id="0" precision="FP32">
					<dim>-1</dim>
					<dim>3</dim>
					<dim>12</dim>
					<dim>64</dim>
				</port>
				<port id="1" precision="I64">
					<dim>4</dim>
				</port>
			</input>
			<output>
				<port id="2" precision="FP32" names="288">
					<dim>3</dim>
					<dim>-1</dim>
					<dim>12</dim>
					<dim>64</dim>
				</port>
			</output>
		</layer>
		<layer id="239" name="255" type="Const" version="opset1">
			<data element_type="i64" shape="" offset="1784900" size="8" />
			<output>
				<port id="0" precision="I64" names="255" />
			</output>
		</layer>
		<layer id="240" name="__module.blocks.2.attn/prim::ListUnpack/Split" type="Split" version="opset1">
			<data num_splits="3" />
			<input>
				<port id="0" precision="FP32">
					<dim>3</dim>
					<dim>-1</dim>
					<dim>12</dim>
					<dim>64</dim>
				</port>
				<port id="1" precision="I64" />
			</input>
			<output>
				<port id="2" precision="FP32">
					<dim>1</dim>
					<dim>-1</dim>
					<dim>12</dim>
					<dim>64</dim>
				</port>
				<port id="3" precision="FP32">
					<dim>1</dim>
					<dim>-1</dim>
					<dim>12</dim>
					<dim>64</dim>
				</port>
				<port id="4" precision="FP32">
					<dim>1</dim>
					<dim>-1</dim>
					<dim>12</dim>
					<dim>64</dim>
				</port>
			</output>
		</layer>
		<layer id="241" name="__module.blocks.2.attn/prim::ListUnpack/Squeeze" type="Squeeze" version="opset1">
			<input>
				<port id="0" precision="FP32">
					<dim>1</dim>
					<dim>-1</dim>
					<dim>12</dim>
					<dim>64</dim>
				</port>
				<port id="1" precision="I64" />
			</input>
			<output>
				<port id="2" precision="FP32" names="290,293,q.17,q.19">
					<dim>-1</dim>
					<dim>12</dim>
					<dim>64</dim>
				</port>
			</output>
		</layer>
		<layer id="242" name="__module.blocks.2.attn/aten::mul/Multiply" type="Multiply" version="opset1">
			<data auto_broadcast="numpy" />
			<input>
				<port id="0" precision="FP32">
					<dim>-1</dim>
					<dim>12</dim>
					<dim>64</dim>
				</port>
				<port id="1" precision="FP32">
					<dim>-1</dim>
					<dim>1</dim>
					<dim>64</dim>
				</port>
			</input>
			<output>
				<port id="2" precision="FP32" names="297">
					<dim>-1</dim>
					<dim>12</dim>
					<dim>64</dim>
				</port>
			</output>
		</layer>
		<layer id="243" name="Constant_144206" type="Const" version="opset1">
			<data element_type="i64" shape="1" offset="1784936" size="8" />
			<output>
				<port id="0" precision="I64">
					<dim>1</dim>
				</port>
			</output>
		</layer>
		<layer id="244" name="Constant_144208" type="Const" version="opset1">
			<data element_type="i64" shape="1" offset="1784944" size="8" />
			<output>
				<port id="0" precision="I64">
					<dim>1</dim>
				</port>
			</output>
		</layer>
		<layer id="245" name="Constant_144165" type="Const" version="opset1">
			<data element_type="i64" shape="1" offset="1784916" size="8" />
			<output>
				<port id="0" precision="I64">
					<dim>1</dim>
				</port>
			</output>
		</layer>
		<layer id="246" name="__module.blocks.2.attn/aten::slice/Slice" type="Slice" version="opset8">
			<input>
				<port id="0" precision="FP32">
					<dim>-1</dim>
					<dim>12</dim>
					<dim>64</dim>
				</port>
				<port id="1" precision="I64">
					<dim>1</dim>
				</port>
				<port id="2" precision="I64">
					<dim>1</dim>
				</port>
				<port id="3" precision="I64">
					<dim>1</dim>
				</port>
				<port id="4" precision="I64">
					<dim>1</dim>
				</port>
			</input>
			<output>
				<port id="5" precision="FP32" names="307,x2.9">
					<dim>-1</dim>
					<dim>12</dim>
					<dim>32</dim>
				</port>
			</output>
		</layer>
		<layer id="247" name="__module.blocks.2.attn/aten::neg/Constant" type="Const" version="opset1">
			<data element_type="i32" shape="" offset="0" size="4" />
			<output>
				<port id="0" precision="I32" />
			</output>
		</layer>
		<layer id="248" name="__module.blocks.2.attn/aten::neg/ConvertLike" type="Convert" version="opset1">
			<data destination_type="f32" />
			<input>
				<port id="0" precision="I32" />
			</input>
			<output>
				<port id="1" precision="FP32" />
			</output>
		</layer>
		<layer id="249" name="__module.blocks.2.attn/aten::neg/Multiply" type="Multiply" version="opset1">
			<data auto_broadcast="numpy" />
			<input>
				<port id="0" precision="FP32">
					<dim>-1</dim>
					<dim>12</dim>
					<dim>32</dim>
				</port>
				<port id="1" precision="FP32" />
			</input>
			<output>
				<port id="2" precision="FP32" names="308">
					<dim>-1</dim>
					<dim>12</dim>
					<dim>32</dim>
				</port>
			</output>
		</layer>
		<layer id="250" name="Constant_144073" type="Const" version="opset1">
			<data element_type="i64" shape="1" offset="1784900" size="8" />
			<output>
				<port id="0" precision="I64">
					<dim>1</dim>
				</port>
			</output>
		</layer>
		<layer id="251" name="Constant_144114" type="Const" version="opset1">
			<data element_type="i64" shape="1" offset="1784944" size="8" />
			<output>
				<port id="0" precision="I64">
					<dim>1</dim>
				</port>
			</output>
		</layer>
		<layer id="252" name="Constant_144071" type="Const" version="opset1">
			<data element_type="i64" shape="1" offset="1784916" size="8" />
			<output>
				<port id="0" precision="I64">
					<dim>1</dim>
				</port>
			</output>
		</layer>
		<layer id="253" name="__module.blocks.2.attn/aten::slice/Slice_1" type="Slice" version="opset8">
			<input>
				<port id="0" precision="FP32">
					<dim>-1</dim>
					<dim>12</dim>
					<dim>64</dim>
				</port>
				<port id="1" precision="I64">
					<dim>1</dim>
				</port>
				<port id="2" precision="I64">
					<dim>1</dim>
				</port>
				<port id="3" precision="I64">
					<dim>1</dim>
				</port>
				<port id="4" precision="I64">
					<dim>1</dim>
				</port>
			</input>
			<output>
				<port id="5" precision="FP32" names="302,x1.9">
					<dim>-1</dim>
					<dim>12</dim>
					<dim>32</dim>
				</port>
			</output>
		</layer>
		<layer id="254" name="__module.blocks.2.attn/aten::cat/Concat" type="Concat" version="opset1">
			<data axis="-1" />
			<input>
				<port id="0" precision="FP32">
					<dim>-1</dim>
					<dim>12</dim>
					<dim>32</dim>
				</port>
				<port id="1" precision="FP32">
					<dim>-1</dim>
					<dim>12</dim>
					<dim>32</dim>
				</port>
			</input>
			<output>
				<port id="2" precision="FP32" names="310">
					<dim>-1</dim>
					<dim>12</dim>
					<dim>64</dim>
				</port>
			</output>
		</layer>
		<layer id="255" name="__module.blocks.2.attn/aten::mul/Multiply_1" type="Multiply" version="opset1">
			<data auto_broadcast="numpy" />
			<input>
				<port id="0" precision="FP32">
					<dim>-1</dim>
					<dim>12</dim>
					<dim>64</dim>
				</port>
				<port id="1" precision="FP32">
					<dim>-1</dim>
					<dim>1</dim>
					<dim>64</dim>
				</port>
			</input>
			<output>
				<port id="2" precision="FP32" names="311">
					<dim>-1</dim>
					<dim>12</dim>
					<dim>64</dim>
				</port>
			</output>
		</layer>
		<layer id="256" name="__module.blocks.2.attn/aten::add/Add" type="Add" version="opset1">
			<data auto_broadcast="numpy" />
			<input>
				<port id="0" precision="FP32">
					<dim>-1</dim>
					<dim>12</dim>
					<dim>64</dim>
				</port>
				<port id="1" precision="FP32">
					<dim>-1</dim>
					<dim>12</dim>
					<dim>64</dim>
				</port>
			</input>
			<output>
				<port id="2" precision="FP32" names="312,329,q.21,q_embed.5">
					<dim>-1</dim>
					<dim>12</dim>
					<dim>64</dim>
				</port>
			</output>
		</layer>
		<layer id="257" name="__module.blocks.2.attn/aten::transpose/Constant" type="Const" version="opset1">
			<data element_type="i32" shape="3" offset="1784952" size="12" />
			<output>
				<port id="0" precision="I32">
					<dim>3</dim>
				</port>
			</output>
		</layer>
		<layer id="258" name="__module.blocks.2.attn/aten::transpose/Transpose" type="Transpose" version="opset1">
			<input>
				<port id="0" precision="FP32">
					<dim>-1</dim>
					<dim>12</dim>
					<dim>64</dim>
				</port>
				<port id="1" precision="I32">
					<dim>3</dim>
				</port>
			</input>
			<output>
				<port id="2" precision="FP32" names="331,q.23">
					<dim>12</dim>
					<dim>-1</dim>
					<dim>64</dim>
				</port>
			</output>
		</layer>
		<layer id="259" name="__module.blocks.2.attn/prim::ListUnpack/Squeeze_0" type="Squeeze" version="opset1">
			<input>
				<port id="0" precision="FP32">
					<dim>1</dim>
					<dim>-1</dim>
					<dim>12</dim>
					<dim>64</dim>
				</port>
				<port id="1" precision="I64" />
			</input>
			<output>
				<port id="2" precision="FP32" names="291,294,k.17,k.19">
					<dim>-1</dim>
					<dim>12</dim>
					<dim>64</dim>
				</port>
			</output>
		</layer>
		<layer id="260" name="__module.blocks.2.attn/aten::mul/Multiply_2" type="Multiply" version="opset1">
			<data auto_broadcast="numpy" />
			<input>
				<port id="0" precision="FP32">
					<dim>-1</dim>
					<dim>12</dim>
					<dim>64</dim>
				</port>
				<port id="1" precision="FP32">
					<dim>-1</dim>
					<dim>1</dim>
					<dim>64</dim>
				</port>
			</input>
			<output>
				<port id="2" precision="FP32" names="313">
					<dim>-1</dim>
					<dim>12</dim>
					<dim>64</dim>
				</port>
			</output>
		</layer>
		<layer id="261" name="Constant_144414" type="Const" version="opset1">
			<data element_type="i64" shape="1" offset="1784936" size="8" />
			<output>
				<port id="0" precision="I64">
					<dim>1</dim>
				</port>
			</output>
		</layer>
		<layer id="262" name="Constant_144416" type="Const" version="opset1">
			<data element_type="i64" shape="1" offset="1784944" size="8" />
			<output>
				<port id="0" precision="I64">
					<dim>1</dim>
				</port>
			</output>
		</layer>
		<layer id="263" name="Constant_144373" type="Const" version="opset1">
			<data element_type="i64" shape="1" offset="1784916" size="8" />
			<output>
				<port id="0" precision="I64">
					<dim>1</dim>
				</port>
			</output>
		</layer>
		<layer id="264" name="__module.blocks.2.attn/aten::slice/Slice_2" type="Slice" version="opset8">
			<input>
				<port id="0" precision="FP32">
					<dim>-1</dim>
					<dim>12</dim>
					<dim>64</dim>
				</port>
				<port id="1" precision="I64">
					<dim>1</dim>
				</port>
				<port id="2" precision="I64">
					<dim>1</dim>
				</port>
				<port id="3" precision="I64">
					<dim>1</dim>
				</port>
				<port id="4" precision="I64">
					<dim>1</dim>
				</port>
			</input>
			<output>
				<port id="5" precision="FP32" names="323,x2.11">
					<dim>-1</dim>
					<dim>12</dim>
					<dim>32</dim>
				</port>
			</output>
		</layer>
		<layer id="265" name="__module.blocks.2.attn/aten::neg/Constant_1" type="Const" version="opset1">
			<data element_type="i32" shape="" offset="0" size="4" />
			<output>
				<port id="0" precision="I32" />
			</output>
		</layer>
		<layer id="266" name="__module.blocks.2.attn/aten::neg/ConvertLike_1" type="Convert" version="opset1">
			<data destination_type="f32" />
			<input>
				<port id="0" precision="I32" />
			</input>
			<output>
				<port id="1" precision="FP32" />
			</output>
		</layer>
		<layer id="267" name="__module.blocks.2.attn/aten::neg/Multiply_1" type="Multiply" version="opset1">
			<data auto_broadcast="numpy" />
			<input>
				<port id="0" precision="FP32">
					<dim>-1</dim>
					<dim>12</dim>
					<dim>32</dim>
				</port>
				<port id="1" precision="FP32" />
			</input>
			<output>
				<port id="2" precision="FP32" names="324">
					<dim>-1</dim>
					<dim>12</dim>
					<dim>32</dim>
				</port>
			</output>
		</layer>
		<layer id="268" name="Constant_144281" type="Const" version="opset1">
			<data element_type="i64" shape="1" offset="1784900" size="8" />
			<output>
				<port id="0" precision="I64">
					<dim>1</dim>
				</port>
			</output>
		</layer>
		<layer id="269" name="Constant_144322" type="Const" version="opset1">
			<data element_type="i64" shape="1" offset="1784944" size="8" />
			<output>
				<port id="0" precision="I64">
					<dim>1</dim>
				</port>
			</output>
		</layer>
		<layer id="270" name="Constant_144279" type="Const" version="opset1">
			<data element_type="i64" shape="1" offset="1784916" size="8" />
			<output>
				<port id="0" precision="I64">
					<dim>1</dim>
				</port>
			</output>
		</layer>
		<layer id="271" name="__module.blocks.2.attn/aten::slice/Slice_3" type="Slice" version="opset8">
			<input>
				<port id="0" precision="FP32">
					<dim>-1</dim>
					<dim>12</dim>
					<dim>64</dim>
				</port>
				<port id="1" precision="I64">
					<dim>1</dim>
				</port>
				<port id="2" precision="I64">
					<dim>1</dim>
				</port>
				<port id="3" precision="I64">
					<dim>1</dim>
				</port>
				<port id="4" precision="I64">
					<dim>1</dim>
				</port>
			</input>
			<output>
				<port id="5" precision="FP32" names="318,x1.11">
					<dim>-1</dim>
					<dim>12</dim>
					<dim>32</dim>
				</port>
			</output>
		</layer>
		<layer id="272" name="__module.blocks.2.attn/aten::cat/Concat_1" type="Concat" version="opset1">
			<data axis="-1" />
			<input>
				<port id="0" precision="FP32">
					<dim>-1</dim>
					<dim>12</dim>
					<dim>32</dim>
				</port>
				<port id="1" precision="FP32">
					<dim>-1</dim>
					<dim>12</dim>
					<dim>32</dim>
				</port>
			</input>
			<output>
				<port id="2" precision="FP32" names="326">
					<dim>-1</dim>
					<dim>12</dim>
					<dim>64</dim>
				</port>
			</output>
		</layer>
		<layer id="273" name="__module.blocks.2.attn/aten::mul/Multiply_3" type="Multiply" version="opset1">
			<data auto_broadcast="numpy" />
			<input>
				<port id="0" precision="FP32">
					<dim>-1</dim>
					<dim>12</dim>
					<dim>64</dim>
				</port>
				<port id="1" precision="FP32">
					<dim>-1</dim>
					<dim>1</dim>
					<dim>64</dim>
				</port>
			</input>
			<output>
				<port id="2" precision="FP32" names="327">
					<dim>-1</dim>
					<dim>12</dim>
					<dim>64</dim>
				</port>
			</output>
		</layer>
		<layer id="274" name="__module.blocks.2.attn/aten::add/Add_1" type="Add" version="opset1">
			<data auto_broadcast="numpy" />
			<input>
				<port id="0" precision="FP32">
					<dim>-1</dim>
					<dim>12</dim>
					<dim>64</dim>
				</port>
				<port id="1" precision="FP32">
					<dim>-1</dim>
					<dim>12</dim>
					<dim>64</dim>
				</port>
			</input>
			<output>
				<port id="2" precision="FP32" names="328,330,k.21,k_embed.5">
					<dim>-1</dim>
					<dim>12</dim>
					<dim>64</dim>
				</port>
			</output>
		</layer>
		<layer id="275" name="__module.blocks.2.attn/aten::transpose/Constant_1" type="Const" version="opset1">
			<data element_type="i32" shape="3" offset="1784952" size="12" />
			<output>
				<port id="0" precision="I32">
					<dim>3</dim>
				</port>
			</output>
		</layer>
		<layer id="276" name="__module.blocks.2.attn/aten::transpose/Transpose_1" type="Transpose" version="opset1">
			<input>
				<port id="0" precision="FP32">
					<dim>-1</dim>
					<dim>12</dim>
					<dim>64</dim>
				</port>
				<port id="1" precision="I32">
					<dim>3</dim>
				</port>
			</input>
			<output>
				<port id="2" precision="FP32" names="332,k.23">
					<dim>12</dim>
					<dim>-1</dim>
					<dim>64</dim>
				</port>
			</output>
		</layer>
		<layer id="277" name="__module.blocks.2.attn/prim::ListUnpack/Squeeze_1" type="Squeeze" version="opset1">
			<input>
				<port id="0" precision="FP32">
					<dim>1</dim>
					<dim>-1</dim>
					<dim>12</dim>
					<dim>64</dim>
				</port>
				<port id="1" precision="I64" />
			</input>
			<output>
				<port id="2" precision="FP32" names="292,v.9">
					<dim>-1</dim>
					<dim>12</dim>
					<dim>64</dim>
				</port>
			</output>
		</layer>
		<layer id="278" name="__module.blocks.2.attn/aten::transpose/Constant_2" type="Const" version="opset1">
			<data element_type="i32" shape="3" offset="1784952" size="12" />
			<output>
				<port id="0" precision="I32">
					<dim>3</dim>
				</port>
			</output>
		</layer>
		<layer id="279" name="__module.blocks.2.attn/aten::transpose/Transpose_2" type="Transpose" version="opset1">
			<input>
				<port id="0" precision="FP32">
					<dim>-1</dim>
					<dim>12</dim>
					<dim>64</dim>
				</port>
				<port id="1" precision="I32">
					<dim>3</dim>
				</port>
			</input>
			<output>
				<port id="2" precision="FP32" names="333,v.11">
					<dim>12</dim>
					<dim>-1</dim>
					<dim>64</dim>
				</port>
			</output>
		</layer>
		<layer id="280" name="__module.blocks.2.attn/aten::scaled_dot_product_attention/ScaledDotProductAttention" type="ScaledDotProductAttention" version="opset13">
			<data causal="false" />
			<input>
				<port id="0" precision="FP32">
					<dim>12</dim>
					<dim>-1</dim>
					<dim>64</dim>
				</port>
				<port id="1" precision="FP32">
					<dim>12</dim>
					<dim>-1</dim>
					<dim>64</dim>
				</port>
				<port id="2" precision="FP32">
					<dim>12</dim>
					<dim>-1</dim>
					<dim>64</dim>
				</port>
				<port id="3" precision="FP32">
					<dim>1</dim>
					<dim>-1</dim>
					<dim>-1</dim>
				</port>
			</input>
			<output>
				<port id="4" precision="FP32" names="334,attn_output.9">
					<dim>12</dim>
					<dim>-1</dim>
					<dim>64</dim>
				</port>
			</output>
		</layer>
		<layer id="281" name="__module.blocks.2.attn/aten::transpose/Constant_3" type="Const" version="opset1">
			<data element_type="i32" shape="3" offset="1784952" size="12" />
			<output>
				<port id="0" precision="I32">
					<dim>3</dim>
				</port>
			</output>
		</layer>
		<layer id="282" name="__module.blocks.2.attn/aten::transpose/Transpose_3" type="Transpose" version="opset1">
			<input>
				<port id="0" precision="FP32">
					<dim>12</dim>
					<dim>-1</dim>
					<dim>64</dim>
				</port>
				<port id="1" precision="I32">
					<dim>3</dim>
				</port>
			</input>
			<output>
				<port id="2" precision="FP32" names="335,attn_output.11">
					<dim>-1</dim>
					<dim>12</dim>
					<dim>64</dim>
				</port>
			</output>
		</layer>
		<layer id="283" name="Constant_175128" type="Const" version="opset1">
			<data element_type="i64" shape="2" offset="1784964" size="16" />
			<output>
				<port id="0" precision="I64">
					<dim>2</dim>
				</port>
			</output>
		</layer>
		<layer id="284" name="__module.blocks.2.attn/aten::reshape/Reshape_1" type="Reshape" version="opset1">
			<data special_zero="true" />
			<input>
				<port id="0" precision="FP32">
					<dim>-1</dim>
					<dim>12</dim>
					<dim>64</dim>
				</port>
				<port id="1" precision="I64">
					<dim>2</dim>
				</port>
			</input>
			<output>
				<port id="2" precision="FP32" names="337">
					<dim>-1</dim>
					<dim>768</dim>
				</port>
			</output>
		</layer>
		<layer id="285" name="self.blocks.2.attn.proj.weight" type="Const" version="opset1">
			<data element_type="i8" shape="768, 768" offset="16020628" size="589824" />
			<output>
				<port id="0" precision="I8">
					<dim>768</dim>
					<dim>768</dim>
				</port>
			</output>
		</layer>
		<layer id="286" name="Convert_1510781" type="Convert" version="opset1">
			<data destination_type="f16" />
			<input>
				<port id="0" precision="I8">
					<dim>768</dim>
					<dim>768</dim>
				</port>
			</input>
			<output>
				<port id="1" precision="FP16">
					<dim>768</dim>
					<dim>768</dim>
				</port>
			</output>
		</layer>
		<layer id="287" name="self.blocks.2.attn.proj.weight/scale" type="Const" version="opset1">
			<data element_type="f16" shape="768, 1" offset="16610452" size="1536" />
			<output>
				<port id="0" precision="FP16">
					<dim>768</dim>
					<dim>1</dim>
				</port>
			</output>
		</layer>
		<layer id="288" name="self.blocks.2.attn.proj.weight/fq_weights_1" type="Multiply" version="opset1">
			<data auto_broadcast="numpy" />
			<input>
				<port id="0" precision="FP16">
					<dim>768</dim>
					<dim>768</dim>
				</port>
				<port id="1" precision="FP16">
					<dim>768</dim>
					<dim>1</dim>
				</port>
			</input>
			<output>
				<port id="2" precision="FP16">
					<dim>768</dim>
					<dim>768</dim>
				</port>
			</output>
		</layer>
		<layer id="289" name="__module.blocks.2.attn.proj/ov_ext::linear/Convert" type="Convert" version="opset1">
			<data destination_type="f32" />
			<rt_info>
				<attribute name="decompression" version="0" />
			</rt_info>
			<input>
				<port id="0" precision="FP16">
					<dim>768</dim>
					<dim>768</dim>
				</port>
			</input>
			<output>
				<port id="1" precision="FP32">
					<dim>768</dim>
					<dim>768</dim>
				</port>
			</output>
		</layer>
		<layer id="290" name="__module.blocks.2.attn.proj/ov_ext::linear/MatMul" type="MatMul" version="opset1">
			<data transpose_a="false" transpose_b="true" />
			<input>
				<port id="0" precision="FP32">
					<dim>-1</dim>
					<dim>768</dim>
				</port>
				<port id="1" precision="FP32">
					<dim>768</dim>
					<dim>768</dim>
				</port>
			</input>
			<output>
				<port id="2" precision="FP32">
					<dim>-1</dim>
					<dim>768</dim>
				</port>
			</output>
		</layer>
		<layer id="291" name="self.blocks.2.attn.proj.bias" type="Const" version="opset1">
			<data element_type="bf16" shape="768" offset="16611988" size="1536" />
			<output>
				<port id="0" precision="BF16" names="self.blocks.2.attn.proj.bias">
					<dim>768</dim>
				</port>
			</output>
		</layer>
		<layer id="292" name="__module.blocks.2.attn.proj/ov_ext::linear/Convert_1" type="Convert" version="opset1">
			<data destination_type="f32" />
			<rt_info>
				<attribute name="decompression" version="0" />
			</rt_info>
			<input>
				<port id="0" precision="BF16">
					<dim>768</dim>
				</port>
			</input>
			<output>
				<port id="1" precision="FP32">
					<dim>768</dim>
				</port>
			</output>
		</layer>
		<layer id="293" name="__module.blocks.2.attn.proj/ov_ext::linear/Add" type="Add" version="opset1">
			<data auto_broadcast="numpy" />
			<input>
				<port id="0" precision="FP32">
					<dim>-1</dim>
					<dim>768</dim>
				</port>
				<port id="1" precision="FP32">
					<dim>768</dim>
				</port>
			</input>
			<output>
				<port id="2" precision="FP32" names="340">
					<dim>-1</dim>
					<dim>768</dim>
				</port>
			</output>
		</layer>
		<layer id="294" name="__module.blocks.2/aten::add/Add" type="Add" version="opset1">
			<data auto_broadcast="numpy" />
			<input>
				<port id="0" precision="FP32">
					<dim>-1</dim>
					<dim>768</dim>
				</port>
				<port id="1" precision="FP32">
					<dim>-1</dim>
					<dim>768</dim>
				</port>
			</input>
			<output>
				<port id="2" precision="FP32" names="341,input.13">
					<dim>-1</dim>
					<dim>768</dim>
				</port>
			</output>
		</layer>
		<layer id="295" name="__module.blocks.2.norm2/aten::layer_norm/Multiply" type="Const" version="opset1">
			<data element_type="i32" shape="1" offset="0" size="4" />
			<output>
				<port id="0" precision="I32">
					<dim>1</dim>
				</port>
			</output>
		</layer>
		<layer id="296" name="__module.blocks.2.norm2/aten::layer_norm/MVN" type="MVN" version="opset6">
			<data eps="9.9999999747524271e-07" normalize_variance="true" eps_mode="INSIDE_SQRT" />
			<input>
				<port id="0" precision="FP32">
					<dim>-1</dim>
					<dim>768</dim>
				</port>
				<port id="1" precision="I32">
					<dim>1</dim>
				</port>
			</input>
			<output>
				<port id="2" precision="FP32">
					<dim>-1</dim>
					<dim>768</dim>
				</port>
			</output>
		</layer>
		<layer id="297" name="Constant_173828" type="Const" version="opset1">
			<data element_type="f32" shape="1, 768" offset="16613524" size="3072" />
			<output>
				<port id="0" precision="FP32">
					<dim>1</dim>
					<dim>768</dim>
				</port>
			</output>
		</layer>
		<layer id="298" name="__module.blocks.2.norm2/aten::layer_norm/Multiply_1" type="Multiply" version="opset1">
			<data auto_broadcast="numpy" />
			<input>
				<port id="0" precision="FP32">
					<dim>-1</dim>
					<dim>768</dim>
				</port>
				<port id="1" precision="FP32">
					<dim>1</dim>
					<dim>768</dim>
				</port>
			</input>
			<output>
				<port id="2" precision="FP32">
					<dim>-1</dim>
					<dim>768</dim>
				</port>
			</output>
		</layer>
		<layer id="299" name="Constant_173829" type="Const" version="opset1">
			<data element_type="f32" shape="1, 768" offset="16616596" size="3072" />
			<output>
				<port id="0" precision="FP32">
					<dim>1</dim>
					<dim>768</dim>
				</port>
			</output>
		</layer>
		<layer id="300" name="__module.blocks.2.norm2/aten::layer_norm/Add" type="Add" version="opset1">
			<data auto_broadcast="numpy" />
			<input>
				<port id="0" precision="FP32">
					<dim>-1</dim>
					<dim>768</dim>
				</port>
				<port id="1" precision="FP32">
					<dim>1</dim>
					<dim>768</dim>
				</port>
			</input>
			<output>
				<port id="2" precision="FP32" names="345">
					<dim>-1</dim>
					<dim>768</dim>
				</port>
			</output>
		</layer>
		<layer id="301" name="self.blocks.2.mlp.linear_fc1.weight" type="Const" version="opset1">
			<data element_type="i8" shape="3072, 768" offset="16619668" size="2359296" />
			<output>
				<port id="0" precision="I8">
					<dim>3072</dim>
					<dim>768</dim>
				</port>
			</output>
		</layer>
		<layer id="302" name="Convert_1335273" type="Convert" version="opset1">
			<data destination_type="f16" />
			<input>
				<port id="0" precision="I8">
					<dim>3072</dim>
					<dim>768</dim>
				</port>
			</input>
			<output>
				<port id="1" precision="FP16">
					<dim>3072</dim>
					<dim>768</dim>
				</port>
			</output>
		</layer>
		<layer id="303" name="self.blocks.2.mlp.linear_fc1.weight/scale" type="Const" version="opset1">
			<data element_type="f16" shape="3072, 1" offset="18978964" size="6144" />
			<output>
				<port id="0" precision="FP16">
					<dim>3072</dim>
					<dim>1</dim>
				</port>
			</output>
		</layer>
		<layer id="304" name="self.blocks.2.mlp.linear_fc1.weight/fq_weights_1" type="Multiply" version="opset1">
			<data auto_broadcast="numpy" />
			<input>
				<port id="0" precision="FP16">
					<dim>3072</dim>
					<dim>768</dim>
				</port>
				<port id="1" precision="FP16">
					<dim>3072</dim>
					<dim>1</dim>
				</port>
			</input>
			<output>
				<port id="2" precision="FP16">
					<dim>3072</dim>
					<dim>768</dim>
				</port>
			</output>
		</layer>
		<layer id="305" name="__module.blocks.2.mlp.linear_fc1/ov_ext::linear/Convert" type="Convert" version="opset1">
			<data destination_type="f32" />
			<rt_info>
				<attribute name="decompression" version="0" />
			</rt_info>
			<input>
				<port id="0" precision="FP16">
					<dim>3072</dim>
					<dim>768</dim>
				</port>
			</input>
			<output>
				<port id="1" precision="FP32">
					<dim>3072</dim>
					<dim>768</dim>
				</port>
			</output>
		</layer>
		<layer id="306" name="__module.blocks.2.mlp.linear_fc1/ov_ext::linear/MatMul" type="MatMul" version="opset1">
			<data transpose_a="false" transpose_b="true" />
			<input>
				<port id="0" precision="FP32">
					<dim>-1</dim>
					<dim>768</dim>
				</port>
				<port id="1" precision="FP32">
					<dim>3072</dim>
					<dim>768</dim>
				</port>
			</input>
			<output>
				<port id="2" precision="FP32">
					<dim>-1</dim>
					<dim>3072</dim>
				</port>
			</output>
		</layer>
		<layer id="307" name="self.blocks.2.mlp.linear_fc1.bias" type="Const" version="opset1">
			<data element_type="bf16" shape="3072" offset="18985108" size="6144" />
			<output>
				<port id="0" precision="BF16" names="self.blocks.2.mlp.linear_fc1.bias">
					<dim>3072</dim>
				</port>
			</output>
		</layer>
		<layer id="308" name="__module.blocks.2.mlp.linear_fc1/ov_ext::linear/Convert_1" type="Convert" version="opset1">
			<data destination_type="f32" />
			<rt_info>
				<attribute name="decompression" version="0" />
			</rt_info>
			<input>
				<port id="0" precision="BF16">
					<dim>3072</dim>
				</port>
			</input>
			<output>
				<port id="1" precision="FP32">
					<dim>3072</dim>
				</port>
			</output>
		</layer>
		<layer id="309" name="__module.blocks.2.mlp.linear_fc1/ov_ext::linear/Add" type="Add" version="opset1">
			<data auto_broadcast="numpy" />
			<input>
				<port id="0" precision="FP32">
					<dim>-1</dim>
					<dim>3072</dim>
				</port>
				<port id="1" precision="FP32">
					<dim>3072</dim>
				</port>
			</input>
			<output>
				<port id="2" precision="FP32" names="351,input.15">
					<dim>-1</dim>
					<dim>3072</dim>
				</port>
			</output>
		</layer>
		<layer id="310" name="__module.blocks.2.mlp.act_fn/aten::gelu/Gelu" type="Gelu" version="opset7">
			<data approximation_mode="TANH" />
			<input>
				<port id="0" precision="FP32">
					<dim>-1</dim>
					<dim>3072</dim>
				</port>
			</input>
			<output>
				<port id="1" precision="FP32" names="352">
					<dim>-1</dim>
					<dim>3072</dim>
				</port>
			</output>
		</layer>
		<layer id="311" name="self.blocks.2.mlp.linear_fc2.weight" type="Const" version="opset1">
			<data element_type="i8" shape="768, 3072" offset="18991252" size="2359296" />
			<output>
				<port id="0" precision="I8">
					<dim>768</dim>
					<dim>3072</dim>
				</port>
			</output>
		</layer>
		<layer id="312" name="Convert_1340435" type="Convert" version="opset1">
			<data destination_type="f16" />
			<input>
				<port id="0" precision="I8">
					<dim>768</dim>
					<dim>3072</dim>
				</port>
			</input>
			<output>
				<port id="1" precision="FP16">
					<dim>768</dim>
					<dim>3072</dim>
				</port>
			</output>
		</layer>
		<layer id="313" name="self.blocks.2.mlp.linear_fc2.weight/scale" type="Const" version="opset1">
			<data element_type="f16" shape="768, 1" offset="21350548" size="1536" />
			<output>
				<port id="0" precision="FP16">
					<dim>768</dim>
					<dim>1</dim>
				</port>
			</output>
		</layer>
		<layer id="314" name="self.blocks.2.mlp.linear_fc2.weight/fq_weights_1" type="Multiply" version="opset1">
			<data auto_broadcast="numpy" />
			<input>
				<port id="0" precision="FP16">
					<dim>768</dim>
					<dim>3072</dim>
				</port>
				<port id="1" precision="FP16">
					<dim>768</dim>
					<dim>1</dim>
				</port>
			</input>
			<output>
				<port id="2" precision="FP16">
					<dim>768</dim>
					<dim>3072</dim>
				</port>
			</output>
		</layer>
		<layer id="315" name="__module.blocks.2.mlp.linear_fc2/ov_ext::linear/Convert" type="Convert" version="opset1">
			<data destination_type="f32" />
			<rt_info>
				<attribute name="decompression" version="0" />
			</rt_info>
			<input>
				<port id="0" precision="FP16">
					<dim>768</dim>
					<dim>3072</dim>
				</port>
			</input>
			<output>
				<port id="1" precision="FP32">
					<dim>768</dim>
					<dim>3072</dim>
				</port>
			</output>
		</layer>
		<layer id="316" name="__module.blocks.2.mlp.linear_fc2/ov_ext::linear/MatMul" type="MatMul" version="opset1">
			<data transpose_a="false" transpose_b="true" />
			<input>
				<port id="0" precision="FP32">
					<dim>-1</dim>
					<dim>3072</dim>
				</port>
				<port id="1" precision="FP32">
					<dim>768</dim>
					<dim>3072</dim>
				</port>
			</input>
			<output>
				<port id="2" precision="FP32">
					<dim>-1</dim>
					<dim>768</dim>
				</port>
			</output>
		</layer>
		<layer id="317" name="self.blocks.2.mlp.linear_fc2.bias" type="Const" version="opset1">
			<data element_type="bf16" shape="768" offset="21352084" size="1536" />
			<output>
				<port id="0" precision="BF16" names="self.blocks.2.mlp.linear_fc2.bias">
					<dim>768</dim>
				</port>
			</output>
		</layer>
		<layer id="318" name="__module.blocks.2.mlp.linear_fc2/ov_ext::linear/Convert_1" type="Convert" version="opset1">
			<data destination_type="f32" />
			<rt_info>
				<attribute name="decompression" version="0" />
			</rt_info>
			<input>
				<port id="0" precision="BF16">
					<dim>768</dim>
				</port>
			</input>
			<output>
				<port id="1" precision="FP32">
					<dim>768</dim>
				</port>
			</output>
		</layer>
		<layer id="319" name="__module.blocks.2.mlp.linear_fc2/ov_ext::linear/Add" type="Add" version="opset1">
			<data auto_broadcast="numpy" />
			<input>
				<port id="0" precision="FP32">
					<dim>-1</dim>
					<dim>768</dim>
				</port>
				<port id="1" precision="FP32">
					<dim>768</dim>
				</port>
			</input>
			<output>
				<port id="2" precision="FP32" names="355">
					<dim>-1</dim>
					<dim>768</dim>
				</port>
			</output>
		</layer>
		<layer id="320" name="__module.blocks.2/aten::add/Add_1" type="Add" version="opset1">
			<data auto_broadcast="numpy" />
			<input>
				<port id="0" precision="FP32">
					<dim>-1</dim>
					<dim>768</dim>
				</port>
				<port id="1" precision="FP32">
					<dim>-1</dim>
					<dim>768</dim>
				</port>
			</input>
			<output>
				<port id="2" precision="FP32" names="356,input.17">
					<dim>-1</dim>
					<dim>768</dim>
				</port>
			</output>
		</layer>
		<layer id="321" name="__module.blocks.3.norm1/aten::layer_norm/Multiply" type="Const" version="opset1">
			<data element_type="i32" shape="1" offset="0" size="4" />
			<output>
				<port id="0" precision="I32">
					<dim>1</dim>
				</port>
			</output>
		</layer>
		<layer id="322" name="__module.blocks.3.norm1/aten::layer_norm/MVN" type="MVN" version="opset6">
			<data eps="9.9999999747524271e-07" normalize_variance="true" eps_mode="INSIDE_SQRT" />
			<input>
				<port id="0" precision="FP32">
					<dim>-1</dim>
					<dim>768</dim>
				</port>
				<port id="1" precision="I32">
					<dim>1</dim>
				</port>
			</input>
			<output>
				<port id="2" precision="FP32">
					<dim>-1</dim>
					<dim>768</dim>
				</port>
			</output>
		</layer>
		<layer id="323" name="Constant_173830" type="Const" version="opset1">
			<data element_type="f32" shape="1, 768" offset="21353620" size="3072" />
			<output>
				<port id="0" precision="FP32">
					<dim>1</dim>
					<dim>768</dim>
				</port>
			</output>
		</layer>
		<layer id="324" name="__module.blocks.3.norm1/aten::layer_norm/Multiply_1" type="Multiply" version="opset1">
			<data auto_broadcast="numpy" />
			<input>
				<port id="0" precision="FP32">
					<dim>-1</dim>
					<dim>768</dim>
				</port>
				<port id="1" precision="FP32">
					<dim>1</dim>
					<dim>768</dim>
				</port>
			</input>
			<output>
				<port id="2" precision="FP32">
					<dim>-1</dim>
					<dim>768</dim>
				</port>
			</output>
		</layer>
		<layer id="325" name="Constant_173831" type="Const" version="opset1">
			<data element_type="f32" shape="1, 768" offset="21356692" size="3072" />
			<output>
				<port id="0" precision="FP32">
					<dim>1</dim>
					<dim>768</dim>
				</port>
			</output>
		</layer>
		<layer id="326" name="__module.blocks.3.norm1/aten::layer_norm/Add" type="Add" version="opset1">
			<data auto_broadcast="numpy" />
			<input>
				<port id="0" precision="FP32">
					<dim>-1</dim>
					<dim>768</dim>
				</port>
				<port id="1" precision="FP32">
					<dim>1</dim>
					<dim>768</dim>
				</port>
			</input>
			<output>
				<port id="2" precision="FP32" names="381,hidden_states.9">
					<dim>-1</dim>
					<dim>768</dim>
				</port>
			</output>
		</layer>
		<layer id="327" name="self.blocks.3.attn.qkv.weight" type="Const" version="opset1">
			<data element_type="i8" shape="2304, 768" offset="21359764" size="1769472" />
			<output>
				<port id="0" precision="I8">
					<dim>2304</dim>
					<dim>768</dim>
				</port>
			</output>
		</layer>
		<layer id="328" name="Convert_1453999" type="Convert" version="opset1">
			<data destination_type="f16" />
			<input>
				<port id="0" precision="I8">
					<dim>2304</dim>
					<dim>768</dim>
				</port>
			</input>
			<output>
				<port id="1" precision="FP16">
					<dim>2304</dim>
					<dim>768</dim>
				</port>
			</output>
		</layer>
		<layer id="329" name="self.blocks.3.attn.qkv.weight/scale" type="Const" version="opset1">
			<data element_type="f16" shape="2304, 1" offset="23129236" size="4608" />
			<output>
				<port id="0" precision="FP16">
					<dim>2304</dim>
					<dim>1</dim>
				</port>
			</output>
		</layer>
		<layer id="330" name="self.blocks.3.attn.qkv.weight/fq_weights_1" type="Multiply" version="opset1">
			<data auto_broadcast="numpy" />
			<input>
				<port id="0" precision="FP16">
					<dim>2304</dim>
					<dim>768</dim>
				</port>
				<port id="1" precision="FP16">
					<dim>2304</dim>
					<dim>1</dim>
				</port>
			</input>
			<output>
				<port id="2" precision="FP16">
					<dim>2304</dim>
					<dim>768</dim>
				</port>
			</output>
		</layer>
		<layer id="331" name="__module.blocks.3.attn.qkv/ov_ext::linear/Convert" type="Convert" version="opset1">
			<data destination_type="f32" />
			<rt_info>
				<attribute name="decompression" version="0" />
			</rt_info>
			<input>
				<port id="0" precision="FP16">
					<dim>2304</dim>
					<dim>768</dim>
				</port>
			</input>
			<output>
				<port id="1" precision="FP32">
					<dim>2304</dim>
					<dim>768</dim>
				</port>
			</output>
		</layer>
		<layer id="332" name="__module.blocks.3.attn.qkv/ov_ext::linear/MatMul" type="MatMul" version="opset1">
			<data transpose_a="false" transpose_b="true" />
			<input>
				<port id="0" precision="FP32">
					<dim>-1</dim>
					<dim>768</dim>
				</port>
				<port id="1" precision="FP32">
					<dim>2304</dim>
					<dim>768</dim>
				</port>
			</input>
			<output>
				<port id="2" precision="FP32">
					<dim>-1</dim>
					<dim>2304</dim>
				</port>
			</output>
		</layer>
		<layer id="333" name="self.blocks.3.attn.qkv.bias" type="Const" version="opset1">
			<data element_type="bf16" shape="2304" offset="23133844" size="4608" />
			<output>
				<port id="0" precision="BF16" names="self.blocks.3.attn.qkv.bias">
					<dim>2304</dim>
				</port>
			</output>
		</layer>
		<layer id="334" name="__module.blocks.3.attn.qkv/ov_ext::linear/Convert_1" type="Convert" version="opset1">
			<data destination_type="f32" />
			<rt_info>
				<attribute name="decompression" version="0" />
			</rt_info>
			<input>
				<port id="0" precision="BF16">
					<dim>2304</dim>
				</port>
			</input>
			<output>
				<port id="1" precision="FP32">
					<dim>2304</dim>
				</port>
			</output>
		</layer>
		<layer id="335" name="__module.blocks.3.attn.qkv/ov_ext::linear/Add" type="Add" version="opset1">
			<data auto_broadcast="numpy" />
			<input>
				<port id="0" precision="FP32">
					<dim>-1</dim>
					<dim>2304</dim>
				</port>
				<port id="1" precision="FP32">
					<dim>2304</dim>
				</port>
			</input>
			<output>
				<port id="2" precision="FP32" names="387">
					<dim>-1</dim>
					<dim>2304</dim>
				</port>
			</output>
		</layer>
		<layer id="336" name="Constant_175129" type="Const" version="opset1">
			<data element_type="i64" shape="4" offset="1784836" size="32" />
			<output>
				<port id="0" precision="I64">
					<dim>4</dim>
				</port>
			</output>
		</layer>
		<layer id="337" name="__module.blocks.3.attn/aten::reshape/Reshape" type="Reshape" version="opset1">
			<data special_zero="true" />
			<input>
				<port id="0" precision="FP32">
					<dim>-1</dim>
					<dim>2304</dim>
				</port>
				<port id="1" precision="I64">
					<dim>4</dim>
				</port>
			</input>
			<output>
				<port id="2" precision="FP32" names="389">
					<dim>-1</dim>
					<dim>3</dim>
					<dim>12</dim>
					<dim>64</dim>
				</port>
			</output>
		</layer>
		<layer id="338" name="Constant_144740" type="Const" version="opset1">
			<data element_type="i64" shape="4" offset="1784868" size="32" />
			<output>
				<port id="0" precision="I64">
					<dim>4</dim>
				</port>
			</output>
		</layer>
		<layer id="339" name="__module.blocks.3.attn/aten::permute/Transpose" type="Transpose" version="opset1">
			<input>
				<port id="0" precision="FP32">
					<dim>-1</dim>
					<dim>3</dim>
					<dim>12</dim>
					<dim>64</dim>
				</port>
				<port id="1" precision="I64">
					<dim>4</dim>
				</port>
			</input>
			<output>
				<port id="2" precision="FP32" names="391">
					<dim>3</dim>
					<dim>-1</dim>
					<dim>12</dim>
					<dim>64</dim>
				</port>
			</output>
		</layer>
		<layer id="340" name="358" type="Const" version="opset1">
			<data element_type="i64" shape="" offset="1784900" size="8" />
			<output>
				<port id="0" precision="I64" names="358" />
			</output>
		</layer>
		<layer id="341" name="__module.blocks.3.attn/prim::ListUnpack/Split" type="Split" version="opset1">
			<data num_splits="3" />
			<input>
				<port id="0" precision="FP32">
					<dim>3</dim>
					<dim>-1</dim>
					<dim>12</dim>
					<dim>64</dim>
				</port>
				<port id="1" precision="I64" />
			</input>
			<output>
				<port id="2" precision="FP32">
					<dim>1</dim>
					<dim>-1</dim>
					<dim>12</dim>
					<dim>64</dim>
				</port>
				<port id="3" precision="FP32">
					<dim>1</dim>
					<dim>-1</dim>
					<dim>12</dim>
					<dim>64</dim>
				</port>
				<port id="4" precision="FP32">
					<dim>1</dim>
					<dim>-1</dim>
					<dim>12</dim>
					<dim>64</dim>
				</port>
			</output>
		</layer>
		<layer id="342" name="__module.blocks.3.attn/prim::ListUnpack/Squeeze" type="Squeeze" version="opset1">
			<input>
				<port id="0" precision="FP32">
					<dim>1</dim>
					<dim>-1</dim>
					<dim>12</dim>
					<dim>64</dim>
				</port>
				<port id="1" precision="I64" />
			</input>
			<output>
				<port id="2" precision="FP32" names="393,396,q.25,q.27">
					<dim>-1</dim>
					<dim>12</dim>
					<dim>64</dim>
				</port>
			</output>
		</layer>
		<layer id="343" name="__module.blocks.3.attn/aten::mul/Multiply" type="Multiply" version="opset1">
			<data auto_broadcast="numpy" />
			<input>
				<port id="0" precision="FP32">
					<dim>-1</dim>
					<dim>12</dim>
					<dim>64</dim>
				</port>
				<port id="1" precision="FP32">
					<dim>-1</dim>
					<dim>1</dim>
					<dim>64</dim>
				</port>
			</input>
			<output>
				<port id="2" precision="FP32" names="400">
					<dim>-1</dim>
					<dim>12</dim>
					<dim>64</dim>
				</port>
			</output>
		</layer>
		<layer id="344" name="Constant_144901" type="Const" version="opset1">
			<data element_type="i64" shape="1" offset="1784936" size="8" />
			<output>
				<port id="0" precision="I64">
					<dim>1</dim>
				</port>
			</output>
		</layer>
		<layer id="345" name="Constant_144903" type="Const" version="opset1">
			<data element_type="i64" shape="1" offset="1784944" size="8" />
			<output>
				<port id="0" precision="I64">
					<dim>1</dim>
				</port>
			</output>
		</layer>
		<layer id="346" name="Constant_144860" type="Const" version="opset1">
			<data element_type="i64" shape="1" offset="1784916" size="8" />
			<output>
				<port id="0" precision="I64">
					<dim>1</dim>
				</port>
			</output>
		</layer>
		<layer id="347" name="__module.blocks.3.attn/aten::slice/Slice" type="Slice" version="opset8">
			<input>
				<port id="0" precision="FP32">
					<dim>-1</dim>
					<dim>12</dim>
					<dim>64</dim>
				</port>
				<port id="1" precision="I64">
					<dim>1</dim>
				</port>
				<port id="2" precision="I64">
					<dim>1</dim>
				</port>
				<port id="3" precision="I64">
					<dim>1</dim>
				</port>
				<port id="4" precision="I64">
					<dim>1</dim>
				</port>
			</input>
			<output>
				<port id="5" precision="FP32" names="410,x2.13">
					<dim>-1</dim>
					<dim>12</dim>
					<dim>32</dim>
				</port>
			</output>
		</layer>
		<layer id="348" name="__module.blocks.3.attn/aten::neg/Constant" type="Const" version="opset1">
			<data element_type="i32" shape="" offset="0" size="4" />
			<output>
				<port id="0" precision="I32" />
			</output>
		</layer>
		<layer id="349" name="__module.blocks.3.attn/aten::neg/ConvertLike" type="Convert" version="opset1">
			<data destination_type="f32" />
			<input>
				<port id="0" precision="I32" />
			</input>
			<output>
				<port id="1" precision="FP32" />
			</output>
		</layer>
		<layer id="350" name="__module.blocks.3.attn/aten::neg/Multiply" type="Multiply" version="opset1">
			<data auto_broadcast="numpy" />
			<input>
				<port id="0" precision="FP32">
					<dim>-1</dim>
					<dim>12</dim>
					<dim>32</dim>
				</port>
				<port id="1" precision="FP32" />
			</input>
			<output>
				<port id="2" precision="FP32" names="411">
					<dim>-1</dim>
					<dim>12</dim>
					<dim>32</dim>
				</port>
			</output>
		</layer>
		<layer id="351" name="Constant_144768" type="Const" version="opset1">
			<data element_type="i64" shape="1" offset="1784900" size="8" />
			<output>
				<port id="0" precision="I64">
					<dim>1</dim>
				</port>
			</output>
		</layer>
		<layer id="352" name="Constant_144809" type="Const" version="opset1">
			<data element_type="i64" shape="1" offset="1784944" size="8" />
			<output>
				<port id="0" precision="I64">
					<dim>1</dim>
				</port>
			</output>
		</layer>
		<layer id="353" name="Constant_144766" type="Const" version="opset1">
			<data element_type="i64" shape="1" offset="1784916" size="8" />
			<output>
				<port id="0" precision="I64">
					<dim>1</dim>
				</port>
			</output>
		</layer>
		<layer id="354" name="__module.blocks.3.attn/aten::slice/Slice_1" type="Slice" version="opset8">
			<input>
				<port id="0" precision="FP32">
					<dim>-1</dim>
					<dim>12</dim>
					<dim>64</dim>
				</port>
				<port id="1" precision="I64">
					<dim>1</dim>
				</port>
				<port id="2" precision="I64">
					<dim>1</dim>
				</port>
				<port id="3" precision="I64">
					<dim>1</dim>
				</port>
				<port id="4" precision="I64">
					<dim>1</dim>
				</port>
			</input>
			<output>
				<port id="5" precision="FP32" names="405,x1.13">
					<dim>-1</dim>
					<dim>12</dim>
					<dim>32</dim>
				</port>
			</output>
		</layer>
		<layer id="355" name="__module.blocks.3.attn/aten::cat/Concat" type="Concat" version="opset1">
			<data axis="-1" />
			<input>
				<port id="0" precision="FP32">
					<dim>-1</dim>
					<dim>12</dim>
					<dim>32</dim>
				</port>
				<port id="1" precision="FP32">
					<dim>-1</dim>
					<dim>12</dim>
					<dim>32</dim>
				</port>
			</input>
			<output>
				<port id="2" precision="FP32" names="413">
					<dim>-1</dim>
					<dim>12</dim>
					<dim>64</dim>
				</port>
			</output>
		</layer>
		<layer id="356" name="__module.blocks.3.attn/aten::mul/Multiply_1" type="Multiply" version="opset1">
			<data auto_broadcast="numpy" />
			<input>
				<port id="0" precision="FP32">
					<dim>-1</dim>
					<dim>12</dim>
					<dim>64</dim>
				</port>
				<port id="1" precision="FP32">
					<dim>-1</dim>
					<dim>1</dim>
					<dim>64</dim>
				</port>
			</input>
			<output>
				<port id="2" precision="FP32" names="414">
					<dim>-1</dim>
					<dim>12</dim>
					<dim>64</dim>
				</port>
			</output>
		</layer>
		<layer id="357" name="__module.blocks.3.attn/aten::add/Add" type="Add" version="opset1">
			<data auto_broadcast="numpy" />
			<input>
				<port id="0" precision="FP32">
					<dim>-1</dim>
					<dim>12</dim>
					<dim>64</dim>
				</port>
				<port id="1" precision="FP32">
					<dim>-1</dim>
					<dim>12</dim>
					<dim>64</dim>
				</port>
			</input>
			<output>
				<port id="2" precision="FP32" names="415,432,q.29,q_embed.7">
					<dim>-1</dim>
					<dim>12</dim>
					<dim>64</dim>
				</port>
			</output>
		</layer>
		<layer id="358" name="__module.blocks.3.attn/aten::transpose/Constant" type="Const" version="opset1">
			<data element_type="i32" shape="3" offset="1784952" size="12" />
			<output>
				<port id="0" precision="I32">
					<dim>3</dim>
				</port>
			</output>
		</layer>
		<layer id="359" name="__module.blocks.3.attn/aten::transpose/Transpose" type="Transpose" version="opset1">
			<input>
				<port id="0" precision="FP32">
					<dim>-1</dim>
					<dim>12</dim>
					<dim>64</dim>
				</port>
				<port id="1" precision="I32">
					<dim>3</dim>
				</port>
			</input>
			<output>
				<port id="2" precision="FP32" names="434,q.31">
					<dim>12</dim>
					<dim>-1</dim>
					<dim>64</dim>
				</port>
			</output>
		</layer>
		<layer id="360" name="__module.blocks.3.attn/prim::ListUnpack/Squeeze_0" type="Squeeze" version="opset1">
			<input>
				<port id="0" precision="FP32">
					<dim>1</dim>
					<dim>-1</dim>
					<dim>12</dim>
					<dim>64</dim>
				</port>
				<port id="1" precision="I64" />
			</input>
			<output>
				<port id="2" precision="FP32" names="394,397,k.25,k.27">
					<dim>-1</dim>
					<dim>12</dim>
					<dim>64</dim>
				</port>
			</output>
		</layer>
		<layer id="361" name="__module.blocks.3.attn/aten::mul/Multiply_2" type="Multiply" version="opset1">
			<data auto_broadcast="numpy" />
			<input>
				<port id="0" precision="FP32">
					<dim>-1</dim>
					<dim>12</dim>
					<dim>64</dim>
				</port>
				<port id="1" precision="FP32">
					<dim>-1</dim>
					<dim>1</dim>
					<dim>64</dim>
				</port>
			</input>
			<output>
				<port id="2" precision="FP32" names="416">
					<dim>-1</dim>
					<dim>12</dim>
					<dim>64</dim>
				</port>
			</output>
		</layer>
		<layer id="362" name="Constant_145109" type="Const" version="opset1">
			<data element_type="i64" shape="1" offset="1784936" size="8" />
			<output>
				<port id="0" precision="I64">
					<dim>1</dim>
				</port>
			</output>
		</layer>
		<layer id="363" name="Constant_145111" type="Const" version="opset1">
			<data element_type="i64" shape="1" offset="1784944" size="8" />
			<output>
				<port id="0" precision="I64">
					<dim>1</dim>
				</port>
			</output>
		</layer>
		<layer id="364" name="Constant_145068" type="Const" version="opset1">
			<data element_type="i64" shape="1" offset="1784916" size="8" />
			<output>
				<port id="0" precision="I64">
					<dim>1</dim>
				</port>
			</output>
		</layer>
		<layer id="365" name="__module.blocks.3.attn/aten::slice/Slice_2" type="Slice" version="opset8">
			<input>
				<port id="0" precision="FP32">
					<dim>-1</dim>
					<dim>12</dim>
					<dim>64</dim>
				</port>
				<port id="1" precision="I64">
					<dim>1</dim>
				</port>
				<port id="2" precision="I64">
					<dim>1</dim>
				</port>
				<port id="3" precision="I64">
					<dim>1</dim>
				</port>
				<port id="4" precision="I64">
					<dim>1</dim>
				</port>
			</input>
			<output>
				<port id="5" precision="FP32" names="426,x2.15">
					<dim>-1</dim>
					<dim>12</dim>
					<dim>32</dim>
				</port>
			</output>
		</layer>
		<layer id="366" name="__module.blocks.3.attn/aten::neg/Constant_1" type="Const" version="opset1">
			<data element_type="i32" shape="" offset="0" size="4" />
			<output>
				<port id="0" precision="I32" />
			</output>
		</layer>
		<layer id="367" name="__module.blocks.3.attn/aten::neg/ConvertLike_1" type="Convert" version="opset1">
			<data destination_type="f32" />
			<input>
				<port id="0" precision="I32" />
			</input>
			<output>
				<port id="1" precision="FP32" />
			</output>
		</layer>
		<layer id="368" name="__module.blocks.3.attn/aten::neg/Multiply_1" type="Multiply" version="opset1">
			<data auto_broadcast="numpy" />
			<input>
				<port id="0" precision="FP32">
					<dim>-1</dim>
					<dim>12</dim>
					<dim>32</dim>
				</port>
				<port id="1" precision="FP32" />
			</input>
			<output>
				<port id="2" precision="FP32" names="427">
					<dim>-1</dim>
					<dim>12</dim>
					<dim>32</dim>
				</port>
			</output>
		</layer>
		<layer id="369" name="Constant_144976" type="Const" version="opset1">
			<data element_type="i64" shape="1" offset="1784900" size="8" />
			<output>
				<port id="0" precision="I64">
					<dim>1</dim>
				</port>
			</output>
		</layer>
		<layer id="370" name="Constant_145017" type="Const" version="opset1">
			<data element_type="i64" shape="1" offset="1784944" size="8" />
			<output>
				<port id="0" precision="I64">
					<dim>1</dim>
				</port>
			</output>
		</layer>
		<layer id="371" name="Constant_144974" type="Const" version="opset1">
			<data element_type="i64" shape="1" offset="1784916" size="8" />
			<output>
				<port id="0" precision="I64">
					<dim>1</dim>
				</port>
			</output>
		</layer>
		<layer id="372" name="__module.blocks.3.attn/aten::slice/Slice_3" type="Slice" version="opset8">
			<input>
				<port id="0" precision="FP32">
					<dim>-1</dim>
					<dim>12</dim>
					<dim>64</dim>
				</port>
				<port id="1" precision="I64">
					<dim>1</dim>
				</port>
				<port id="2" precision="I64">
					<dim>1</dim>
				</port>
				<port id="3" precision="I64">
					<dim>1</dim>
				</port>
				<port id="4" precision="I64">
					<dim>1</dim>
				</port>
			</input>
			<output>
				<port id="5" precision="FP32" names="421,x1.15">
					<dim>-1</dim>
					<dim>12</dim>
					<dim>32</dim>
				</port>
			</output>
		</layer>
		<layer id="373" name="__module.blocks.3.attn/aten::cat/Concat_1" type="Concat" version="opset1">
			<data axis="-1" />
			<input>
				<port id="0" precision="FP32">
					<dim>-1</dim>
					<dim>12</dim>
					<dim>32</dim>
				</port>
				<port id="1" precision="FP32">
					<dim>-1</dim>
					<dim>12</dim>
					<dim>32</dim>
				</port>
			</input>
			<output>
				<port id="2" precision="FP32" names="429">
					<dim>-1</dim>
					<dim>12</dim>
					<dim>64</dim>
				</port>
			</output>
		</layer>
		<layer id="374" name="__module.blocks.3.attn/aten::mul/Multiply_3" type="Multiply" version="opset1">
			<data auto_broadcast="numpy" />
			<input>
				<port id="0" precision="FP32">
					<dim>-1</dim>
					<dim>12</dim>
					<dim>64</dim>
				</port>
				<port id="1" precision="FP32">
					<dim>-1</dim>
					<dim>1</dim>
					<dim>64</dim>
				</port>
			</input>
			<output>
				<port id="2" precision="FP32" names="430">
					<dim>-1</dim>
					<dim>12</dim>
					<dim>64</dim>
				</port>
			</output>
		</layer>
		<layer id="375" name="__module.blocks.3.attn/aten::add/Add_1" type="Add" version="opset1">
			<data auto_broadcast="numpy" />
			<input>
				<port id="0" precision="FP32">
					<dim>-1</dim>
					<dim>12</dim>
					<dim>64</dim>
				</port>
				<port id="1" precision="FP32">
					<dim>-1</dim>
					<dim>12</dim>
					<dim>64</dim>
				</port>
			</input>
			<output>
				<port id="2" precision="FP32" names="431,433,k.29,k_embed.7">
					<dim>-1</dim>
					<dim>12</dim>
					<dim>64</dim>
				</port>
			</output>
		</layer>
		<layer id="376" name="__module.blocks.3.attn/aten::transpose/Constant_1" type="Const" version="opset1">
			<data element_type="i32" shape="3" offset="1784952" size="12" />
			<output>
				<port id="0" precision="I32">
					<dim>3</dim>
				</port>
			</output>
		</layer>
		<layer id="377" name="__module.blocks.3.attn/aten::transpose/Transpose_1" type="Transpose" version="opset1">
			<input>
				<port id="0" precision="FP32">
					<dim>-1</dim>
					<dim>12</dim>
					<dim>64</dim>
				</port>
				<port id="1" precision="I32">
					<dim>3</dim>
				</port>
			</input>
			<output>
				<port id="2" precision="FP32" names="435,k.31">
					<dim>12</dim>
					<dim>-1</dim>
					<dim>64</dim>
				</port>
			</output>
		</layer>
		<layer id="378" name="__module.blocks.3.attn/prim::ListUnpack/Squeeze_1" type="Squeeze" version="opset1">
			<input>
				<port id="0" precision="FP32">
					<dim>1</dim>
					<dim>-1</dim>
					<dim>12</dim>
					<dim>64</dim>
				</port>
				<port id="1" precision="I64" />
			</input>
			<output>
				<port id="2" precision="FP32" names="395,v.13">
					<dim>-1</dim>
					<dim>12</dim>
					<dim>64</dim>
				</port>
			</output>
		</layer>
		<layer id="379" name="__module.blocks.3.attn/aten::transpose/Constant_2" type="Const" version="opset1">
			<data element_type="i32" shape="3" offset="1784952" size="12" />
			<output>
				<port id="0" precision="I32">
					<dim>3</dim>
				</port>
			</output>
		</layer>
		<layer id="380" name="__module.blocks.3.attn/aten::transpose/Transpose_2" type="Transpose" version="opset1">
			<input>
				<port id="0" precision="FP32">
					<dim>-1</dim>
					<dim>12</dim>
					<dim>64</dim>
				</port>
				<port id="1" precision="I32">
					<dim>3</dim>
				</port>
			</input>
			<output>
				<port id="2" precision="FP32" names="436,v.15">
					<dim>12</dim>
					<dim>-1</dim>
					<dim>64</dim>
				</port>
			</output>
		</layer>
		<layer id="381" name="__module.blocks.3.attn/aten::scaled_dot_product_attention/ScaledDotProductAttention" type="ScaledDotProductAttention" version="opset13">
			<data causal="false" />
			<input>
				<port id="0" precision="FP32">
					<dim>12</dim>
					<dim>-1</dim>
					<dim>64</dim>
				</port>
				<port id="1" precision="FP32">
					<dim>12</dim>
					<dim>-1</dim>
					<dim>64</dim>
				</port>
				<port id="2" precision="FP32">
					<dim>12</dim>
					<dim>-1</dim>
					<dim>64</dim>
				</port>
				<port id="3" precision="FP32">
					<dim>1</dim>
					<dim>-1</dim>
					<dim>-1</dim>
				</port>
			</input>
			<output>
				<port id="4" precision="FP32" names="437,attn_output.13">
					<dim>12</dim>
					<dim>-1</dim>
					<dim>64</dim>
				</port>
			</output>
		</layer>
		<layer id="382" name="__module.blocks.3.attn/aten::transpose/Constant_3" type="Const" version="opset1">
			<data element_type="i32" shape="3" offset="1784952" size="12" />
			<output>
				<port id="0" precision="I32">
					<dim>3</dim>
				</port>
			</output>
		</layer>
		<layer id="383" name="__module.blocks.3.attn/aten::transpose/Transpose_3" type="Transpose" version="opset1">
			<input>
				<port id="0" precision="FP32">
					<dim>12</dim>
					<dim>-1</dim>
					<dim>64</dim>
				</port>
				<port id="1" precision="I32">
					<dim>3</dim>
				</port>
			</input>
			<output>
				<port id="2" precision="FP32" names="438,attn_output.15">
					<dim>-1</dim>
					<dim>12</dim>
					<dim>64</dim>
				</port>
			</output>
		</layer>
		<layer id="384" name="Constant_175130" type="Const" version="opset1">
			<data element_type="i64" shape="2" offset="1784964" size="16" />
			<output>
				<port id="0" precision="I64">
					<dim>2</dim>
				</port>
			</output>
		</layer>
		<layer id="385" name="__module.blocks.3.attn/aten::reshape/Reshape_1" type="Reshape" version="opset1">
			<data special_zero="true" />
			<input>
				<port id="0" precision="FP32">
					<dim>-1</dim>
					<dim>12</dim>
					<dim>64</dim>
				</port>
				<port id="1" precision="I64">
					<dim>2</dim>
				</port>
			</input>
			<output>
				<port id="2" precision="FP32" names="440">
					<dim>-1</dim>
					<dim>768</dim>
				</port>
			</output>
		</layer>
		<layer id="386" name="self.blocks.3.attn.proj.weight" type="Const" version="opset1">
			<data element_type="i8" shape="768, 768" offset="23138452" size="589824" />
			<output>
				<port id="0" precision="I8">
					<dim>768</dim>
					<dim>768</dim>
				</port>
			</output>
		</layer>
…
		<edge from-layer="632" from-port="0" to-layer="633" to-port="1" />
		<edge from-layer="633" from-port="2" to-layer="634" to-port="0" />
		<edge from-layer="634" from-port="1" to-layer="635" to-port="1" />
		<edge from-layer="635" from-port="2" to-layer="638" to-port="0" />
		<edge from-layer="636" from-port="0" to-layer="637" to-port="0" />
		<edge from-layer="637" from-port="1" to-layer="638" to-port="1" />
		<edge from-layer="638" from-port="2" to-layer="640" to-port="0" />
		<edge from-layer="639" from-port="0" to-layer="640" to-port="1" />
		<edge from-layer="640" from-port="2" to-layer="642" to-port="0" />
		<edge from-layer="641" from-port="0" to-layer="642" to-port="1" />
		<edge from-layer="642" from-port="2" to-layer="644" to-port="0" />
		<edge from-layer="643" from-port="0" to-layer="663" to-port="1" />
		<edge from-layer="643" from-port="0" to-layer="645" to-port="1" />
		<edge from-layer="643" from-port="0" to-layer="644" to-port="1" />
		<edge from-layer="643" from-port="0" to-layer="681" to-port="1" />
		<edge from-layer="644" from-port="4" to-layer="681" to-port="0" />
		<edge from-layer="644" from-port="3" to-layer="663" to-port="0" />
		<edge from-layer="644" from-port="2" to-layer="645" to-port="0" />
		<edge from-layer="645" from-port="2" to-layer="646" to-port="0" />
		<edge from-layer="645" from-port="2" to-layer="657" to-port="0" />
		<edge from-layer="645" from-port="2" to-layer="650" to-port="0" />
		<edge from-layer="646" from-port="2" to-layer="660" to-port="0" />
		<edge from-layer="647" from-port="0" to-layer="650" to-port="2" />
		<edge from-layer="648" from-port="0" to-layer="650" to-port="3" />
		<edge from-layer="649" from-port="0" to-layer="650" to-port="4" />
		<edge from-layer="650" from-port="5" to-layer="653" to-port="0" />
		<edge from-layer="651" from-port="0" to-layer="652" to-port="0" />
		<edge from-layer="652" from-port="1" to-layer="653" to-port="1" />
		<edge from-layer="653" from-port="2" to-layer="658" to-port="0" />
		<edge from-layer="654" from-port="0" to-layer="657" to-port="1" />
		<edge from-layer="655" from-port="0" to-layer="657" to-port="3" />
		<edge from-layer="656" from-port="0" to-layer="657" to-port="4" />
		<edge from-layer="657" from-port="5" to-layer="658" to-port="1" />
		<edge from-layer="658" from-port="2" to-layer="659" to-port="0" />
		<edge from-layer="659" from-port="2" to-layer="660" to-port="1" />
		<edge from-layer="660" from-port="2" to-layer="662" to-port="0" />
		<edge from-layer="661" from-port="0" to-layer="662" to-port="1" />
		<edge from-layer="662" from-port="2" to-layer="684" to-port="0" />
		<edge from-layer="663" from-port="2" to-layer="675" to-port="0" />
		<edge from-layer="663" from-port="2" to-layer="664" to-port="0" />
		<edge from-layer="663" from-port="2" to-layer="668" to-port="0" />
		<edge from-layer="664" from-port="2" to-layer="678" to-port="0" />
		<edge from-layer="665" from-port="0" to-layer="668" to-port="2" />
		<edge from-layer="666" from-port="0" to-layer="668" to-port="3" />
		<edge from-layer="667" from-port="0" to-layer="668" to-port="4" />
		<edge from-layer="668" from-port="5" to-layer="671" to-port="0" />
		<edge from-layer="669" from-port="0" to-layer="670" to-port="0" />
		<edge from-layer="670" from-port="1" to-layer="671" to-port="1" />
		<edge from-layer="671" from-port="2" to-layer="676" to-port="0" />
		<edge from-layer="672" from-port="0" to-layer="675" to-port="1" />
		<edge from-layer="673" from-port="0" to-layer="675" to-port="3" />
		<edge from-layer="674" from-port="0" to-layer="675" to-port="4" />
		<edge from-layer="675" from-port="5" to-layer="676" to-port="1" />
		<edge from-layer="676" from-port="2" to-layer="677" to-port="0" />
		<edge from-layer="677" from-port="2" to-layer="678" to-port="1" />
		<edge from-layer="678" from-port="2" to-layer="680" to-port="0" />
		<edge from-layer="679" from-port="0" to-layer="680" to-port="1" />
		<edge from-layer="680" from-port="2" to-layer="684" to-port="1" />
		<edge from-layer="681" from-port="2" to-layer="683" to-port="0" />
		<edge from-layer="682" from-port="0" to-layer="683" to-port="1" />
		<edge from-layer="683" from-port="2" to-layer="684" to-port="2" />
		<edge from-layer="684" from-port="4" to-layer="686" to-port="0" />
		<edge from-layer="685" from-port="0" to-layer="686" to-port="1" />
		<edge from-layer="686" from-port="2" to-layer="688" to-port="0" />
		<edge from-layer="687" from-port="0" to-layer="688" to-port="1" />
		<edge from-layer="688" from-port="2" to-layer="694" to-port="0" />
		<edge from-layer="689" from-port="0" to-layer="690" to-port="0" />
		<edge from-layer="690" from-port="1" to-layer="692" to-port="0" />
		<edge from-layer="691" from-port="0" to-layer="692" to-port="1" />
		<edge from-layer="692" from-port="2" to-layer="693" to-port="0" />
		<edge from-layer="693" from-port="1" to-layer="694" to-port="1" />
		<edge from-layer="694" from-port="2" to-layer="697" to-port="0" />
		<edge from-layer="695" from-port="0" to-layer="696" to-port="0" />
		<edge from-layer="696" from-port="1" to-layer="697" to-port="1" />
		<edge from-layer="697" from-port="2" to-layer="698" to-port="1" />
		<edge from-layer="698" from-port="2" to-layer="700" to-port="0" />
		<edge from-layer="698" from-port="2" to-layer="724" to-port="0" />
		<edge from-layer="699" from-port="0" to-layer="700" to-port="1" />
		<edge from-layer="700" from-port="2" to-layer="702" to-port="0" />
		<edge from-layer="701" from-port="0" to-layer="702" to-port="1" />
		<edge from-layer="702" from-port="2" to-layer="704" to-port="0" />
		<edge from-layer="703" from-port="0" to-layer="704" to-port="1" />
		<edge from-layer="704" from-port="2" to-layer="710" to-port="0" />
		<edge from-layer="705" from-port="0" to-layer="706" to-port="0" />
		<edge from-layer="706" from-port="1" to-layer="708" to-port="0" />
		<edge from-layer="707" from-port="0" to-layer="708" to-port="1" />
		<edge from-layer="708" from-port="2" to-layer="709" to-port="0" />
		<edge from-layer="709" from-port="1" to-layer="710" to-port="1" />
		<edge from-layer="710" from-port="2" to-layer="713" to-port="0" />
		<edge from-layer="711" from-port="0" to-layer="712" to-port="0" />
		<edge from-layer="712" from-port="1" to-layer="713" to-port="1" />
		<edge from-layer="713" from-port="2" to-layer="714" to-port="0" />
		<edge from-layer="714" from-port="1" to-layer="720" to-port="0" />
		<edge from-layer="715" from-port="0" to-layer="716" to-port="0" />
		<edge from-layer="716" from-port="1" to-layer="718" to-port="0" />
		<edge from-layer="717" from-port="0" to-layer="718" to-port="1" />
		<edge from-layer="718" from-port="2" to-layer="719" to-port="0" />
		<edge from-layer="719" from-port="1" to-layer="720" to-port="1" />
		<edge from-layer="720" from-port="2" to-layer="723" to-port="0" />
		<edge from-layer="721" from-port="0" to-layer="722" to-port="0" />
		<edge from-layer="722" from-port="1" to-layer="723" to-port="1" />
		<edge from-layer="723" from-port="2" to-layer="724" to-port="1" />
		<edge from-layer="724" from-port="2" to-layer="799" to-port="0" />
		<edge from-layer="724" from-port="2" to-layer="726" to-port="0" />
		<edge from-layer="725" from-port="0" to-layer="726" to-port="1" />
		<edge from-layer="726" from-port="2" to-layer="728" to-port="0" />
		<edge from-layer="727" from-port="0" to-layer="728" to-port="1" />
		<edge from-layer="728" from-port="2" to-layer="730" to-port="0" />
		<edge from-layer="729" from-port="0" to-layer="730" to-port="1" />
		<edge from-layer="730" from-port="2" to-layer="736" to-port="0" />
		<edge from-layer="731" from-port="0" to-layer="732" to-port="0" />
		<edge from-layer="732" from-port="1" to-layer="734" to-port="0" />
		<edge from-layer="733" from-port="0" to-layer="734" to-port="1" />
		<edge from-layer="734" from-port="2" to-layer="735" to-port="0" />
		<edge from-layer="735" from-port="1" to-layer="736" to-port="1" />
		<edge from-layer="736" from-port="2" to-layer="739" to-port="0" />
		<edge from-layer="737" from-port="0" to-layer="738" to-port="0" />
		<edge from-layer="738" from-port="1" to-layer="739" to-port="1" />
		<edge from-layer="739" from-port="2" to-layer="741" to-port="0" />
		<edge from-layer="740" from-port="0" to-layer="741" to-port="1" />
		<edge from-layer="741" from-port="2" to-layer="743" to-port="0" />
		<edge from-layer="742" from-port="0" to-layer="743" to-port="1" />
		<edge from-layer="743" from-port="2" to-layer="745" to-port="0" />
		<edge from-layer="744" from-port="0" to-layer="764" to-port="1" />
		<edge from-layer="744" from-port="0" to-layer="745" to-port="1" />
		<edge from-layer="744" from-port="0" to-layer="782" to-port="1" />
		<edge from-layer="744" from-port="0" to-layer="746" to-port="1" />
		<edge from-layer="745" from-port="3" to-layer="764" to-port="0" />
		<edge from-layer="745" from-port="4" to-layer="782" to-port="0" />
		<edge from-layer="745" from-port="2" to-layer="746" to-port="0" />
		<edge from-layer="746" from-port="2" to-layer="747" to-port="0" />
		<edge from-layer="746" from-port="2" to-layer="758" to-port="0" />
		<edge from-layer="746" from-port="2" to-layer="751" to-port="0" />
		<edge from-layer="747" from-port="2" to-layer="761" to-port="0" />
		<edge from-layer="748" from-port="0" to-layer="751" to-port="2" />
		<edge from-layer="749" from-port="0" to-layer="751" to-port="3" />
		<edge from-layer="750" from-port="0" to-layer="751" to-port="4" />
		<edge from-layer="751" from-port="5" to-layer="754" to-port="0" />
		<edge from-layer="752" from-port="0" to-layer="753" to-port="0" />
		<edge from-layer="753" from-port="1" to-layer="754" to-port="1" />
		<edge from-layer="754" from-port="2" to-layer="759" to-port="0" />
		<edge from-layer="755" from-port="0" to-layer="758" to-port="1" />
		<edge from-layer="756" from-port="0" to-layer="758" to-port="3" />
		<edge from-layer="757" from-port="0" to-layer="758" to-port="4" />
		<edge from-layer="758" from-port="5" to-layer="759" to-port="1" />
		<edge from-layer="759" from-port="2" to-layer="760" to-port="0" />
		<edge from-layer="760" from-port="2" to-layer="761" to-port="1" />
		<edge from-layer="761" from-port="2" to-layer="763" to-port="0" />
		<edge from-layer="762" from-port="0" to-layer="763" to-port="1" />
		<edge from-layer="763" from-port="2" to-layer="785" to-port="0" />
		<edge from-layer="764" from-port="2" to-layer="765" to-port="0" />
		<edge from-layer="764" from-port="2" to-layer="769" to-port="0" />
		<edge from-layer="764" from-port="2" to-layer="776" to-port="0" />
		<edge from-layer="765" from-port="2" to-layer="779" to-port="0" />
		<edge from-layer="766" from-port="0" to-layer="769" to-port="2" />
		<edge from-layer="767" from-port="0" to-layer="769" to-port="3" />
		<edge from-layer="768" from-port="0" to-layer="769" to-port="4" />
		<edge from-layer="769" from-port="5" to-layer="772" to-port="0" />
		<edge from-layer="770" from-port="0" to-layer="771" to-port="0" />
		<edge from-layer="771" from-port="1" to-layer="772" to-port="1" />
		<edge from-layer="772" from-port="2" to-layer="777" to-port="0" />
		<edge from-layer="773" from-port="0" to-layer="776" to-port="1" />
		<edge from-layer="774" from-port="0" to-layer="776" to-port="3" />
		<edge from-layer="775" from-port="0" to-layer="776" to-port="4" />
		<edge from-layer="776" from-port="5" to-layer="777" to-port="1" />
		<edge from-layer="777" from-port="2" to-layer="778" to-port="0" />
		<edge from-layer="778" from-port="2" to-layer="779" to-port="1" />
		<edge from-layer="779" from-port="2" to-layer="781" to-port="0" />
		<edge from-layer="780" from-port="0" to-layer="781" to-port="1" />
		<edge from-layer="781" from-port="2" to-layer="785" to-port="1" />
		<edge from-layer="782" from-port="2" to-layer="784" to-port="0" />
		<edge from-layer="783" from-port="0" to-layer="784" to-port="1" />
		<edge from-layer="784" from-port="2" to-layer="785" to-port="2" />
		<edge from-layer="785" from-port="4" to-layer="787" to-port="0" />
		<edge from-layer="786" from-port="0" to-layer="787" to-port="1" />
		<edge from-layer="787" from-port="2" to-layer="789" to-port="0" />
		<edge from-layer="788" from-port="0" to-layer="789" to-port="1" />
		<edge from-layer="789" from-port="2" to-layer="795" to-port="0" />
		<edge from-layer="790" from-port="0" to-layer="791" to-port="0" />
		<edge from-layer="791" from-port="1" to-layer="793" to-port="0" />
		<edge from-layer="792" from-port="0" to-layer="793" to-port="1" />
		<edge from-layer="793" from-port="2" to-layer="794" to-port="0" />
		<edge from-layer="794" from-port="1" to-layer="795" to-port="1" />
		<edge from-layer="795" from-port="2" to-layer="798" to-port="0" />
		<edge from-layer="796" from-port="0" to-layer="797" to-port="0" />
		<edge from-layer="797" from-port="1" to-layer="798" to-port="1" />
		<edge from-layer="798" from-port="2" to-layer="799" to-port="1" />
		<edge from-layer="799" from-port="2" to-layer="825" to-port="0" />
		<edge from-layer="799" from-port="2" to-layer="801" to-port="0" />
		<edge from-layer="800" from-port="0" to-layer="801" to-port="1" />
		<edge from-layer="801" from-port="2" to-layer="803" to-port="0" />
		<edge from-layer="802" from-port="0" to-layer="803" to-port="1" />
		<edge from-layer="803" from-port="2" to-layer="805" to-port="0" />
		<edge from-layer="804" from-port="0" to-layer="805" to-port="1" />
		<edge from-layer="805" from-port="2" to-layer="811" to-port="0" />
		<edge from-layer="806" from-port="0" to-layer="807" to-port="0" />
		<edge from-layer="807" from-port="1" to-layer="809" to-port="0" />
		<edge from-layer="808" from-port="0" to-layer="809" to-port="1" />
		<edge from-layer="809" from-port="2" to-layer="810" to-port="0" />
		<edge from-layer="810" from-port="1" to-layer="811" to-port="1" />
		<edge from-layer="811" from-port="2" to-layer="814" to-port="0" />
		<edge from-layer="812" from-port="0" to-layer="813" to-port="0" />
		<edge from-layer="813" from-port="1" to-layer="814" to-port="1" />
		<edge from-layer="814" from-port="2" to-layer="815" to-port="0" />
		<edge from-layer="815" from-port="1" to-layer="821" to-port="0" />
		<edge from-layer="816" from-port="0" to-layer="817" to-port="0" />
		<edge from-layer="817" from-port="1" to-layer="819" to-port="0" />
		<edge from-layer="818" from-port="0" to-layer="819" to-port="1" />
		<edge from-layer="819" from-port="2" to-layer="820" to-port="0" />
		<edge from-layer="820" from-port="1" to-layer="821" to-port="1" />
		<edge from-layer="821" from-port="2" to-layer="824" to-port="0" />
		<edge from-layer="822" from-port="0" to-layer="823" to-port="0" />
		<edge from-layer="823" from-port="1" to-layer="824" to-port="1" />
		<edge from-layer="824" from-port="2" to-layer="825" to-port="1" />
		<edge from-layer="825" from-port="2" to-layer="900" to-port="0" />
		<edge from-layer="825" from-port="2" to-layer="827" to-port="0" />
		<edge from-layer="826" from-port="0" to-layer="827" to-port="1" />
		<edge from-layer="827" from-port="2" to-layer="829" to-port="0" />
		<edge from-layer="828" from-port="0" to-layer="829" to-port="1" />
		<edge from-layer="829" from-port="2" to-layer="831" to-port="0" />
		<edge from-layer="830" from-port="0" to-layer="831" to-port="1" />
		<edge from-layer="831" from-port="2" to-layer="837" to-port="0" />
		<edge from-layer="832" from-port="0" to-layer="833" to-port="0" />
		<edge from-layer="833" from-port="1" to-layer="835" to-port="0" />
		<edge from-layer="834" from-port="0" to-layer="835" to-port="1" />
		<edge from-layer="835" from-port="2" to-layer="836" to-port="0" />
		<edge from-layer="836" from-port="1" to-layer="837" to-port="1" />
		<edge from-layer="837" from-port="2" to-layer="840" to-port="0" />
		<edge from-layer="838" from-port="0" to-layer="839" to-port="0" />
		<edge from-layer="839" from-port="1" to-layer="840" to-port="1" />
		<edge from-layer="840" from-port="2" to-layer="842" to-port="0" />
		<edge from-layer="841" from-port="0" to-layer="842" to-port="1" />
		<edge from-layer="842" from-port="2" to-layer="844" to-port="0" />
		<edge from-layer="843" from-port="0" to-layer="844" to-port="1" />
		<edge from-layer="844" from-port="2" to-layer="846" to-port="0" />
		<edge from-layer="845" from-port="0" to-layer="865" to-port="1" />
		<edge from-layer="845" from-port="0" to-layer="883" to-port="1" />
		<edge from-layer="845" from-port="0" to-layer="847" to-port="1" />
		<edge from-layer="845" from-port="0" to-layer="846" to-port="1" />
		<edge from-layer="846" from-port="4" to-layer="883" to-port="0" />
		<edge from-layer="846" from-port="3" to-layer="865" to-port="0" />
		<edge from-layer="846" from-port="2" to-layer="847" to-port="0" />
		<edge from-layer="847" from-port="2" to-layer="848" to-port="0" />
		<edge from-layer="847" from-port="2" to-layer="852" to-port="0" />
		<edge from-layer="847" from-port="2" to-layer="859" to-port="0" />
		<edge from-layer="848" from-port="2" to-layer="862" to-port="0" />
		<edge from-layer="849" from-port="0" to-layer="852" to-port="2" />
		<edge from-layer="850" from-port="0" to-layer="852" to-port="3" />
		<edge from-layer="851" from-port="0" to-layer="852" to-port="4" />
		<edge from-layer="852" from-port="5" to-layer="855" to-port="0" />
		<edge from-layer="853" from-port="0" to-layer="854" to-port="0" />
		<edge from-layer="854" from-port="1" to-layer="855" to-port="1" />
		<edge from-layer="855" from-port="2" to-layer="860" to-port="0" />
		<edge from-layer="856" from-port="0" to-layer="859" to-port="1" />
		<edge from-layer="857" from-port="0" to-layer="859" to-port="3" />
		<edge from-layer="858" from-port="0" to-layer="859" to-port="4" />
		<edge from-layer="859" from-port="5" to-layer="860" to-port="1" />
		<edge from-layer="860" from-port="2" to-layer="861" to-port="0" />
		<edge from-layer="861" from-port="2" to-layer="862" to-port="1" />
		<edge from-layer="862" from-port="2" to-layer="864" to-port="0" />
		<edge from-layer="863" from-port="0" to-layer="864" to-port="1" />
		<edge from-layer="864" from-port="2" to-layer="886" to-port="0" />
		<edge from-layer="865" from-port="2" to-layer="870" to-port="0" />
		<edge from-layer="865" from-port="2" to-layer="877" to-port="0" />
		<edge from-layer="865" from-port="2" to-layer="866" to-port="0" />
		<edge from-layer="866" from-port="2" to-layer="880" to-port="0" />
		<edge from-layer="867" from-port="0" to-layer="870" to-port="2" />
		<edge from-layer="868" from-port="0" to-layer="870" to-port="3" />
		<edge from-layer="869" from-port="0" to-layer="870" to-port="4" />
		<edge from-layer="870" from-port="5" to-layer="873" to-port="0" />
		<edge from-layer="871" from-port="0" to-layer="872" to-port="0" />
		<edge from-layer="872" from-port="1" to-layer="873" to-port="1" />
		<edge from-layer="873" from-port="2" to-layer="878" to-port="0" />
		<edge from-layer="874" from-port="0" to-layer="877" to-port="1" />
		<edge from-layer="875" from-port="0" to-layer="877" to-port="3" />
		<edge from-layer="876" from-port="0" to-layer="877" to-port="4" />
		<edge from-layer="877" from-port="5" to-layer="878" to-port="1" />
		<edge from-layer="878" from-port="2" to-layer="879" to-port="0" />
		<edge from-layer="879" from-port="2" to-layer="880" to-port="1" />
		<edge from-layer="880" from-port="2" to-layer="882" to-port="0" />
		<edge from-layer="881" from-port="0" to-layer="882" to-port="1" />
		<edge from-layer="882" from-port="2" to-layer="886" to-port="1" />
		<edge from-layer="883" from-port="2" to-layer="885" to-port="0" />
		<edge from-layer="884" from-port="0" to-layer="885" to-port="1" />
		<edge from-layer="885" from-port="2" to-layer="886" to-port="2" />
		<edge from-layer="886" from-port="4" to-layer="888" to-port="0" />
		<edge from-layer="887" from-port="0" to-layer="888" to-port="1" />
		<edge from-layer="888" from-port="2" to-layer="890" to-port="0" />
		<edge from-layer="889" from-port="0" to-layer="890" to-port="1" />
		<edge from-layer="890" from-port="2" to-layer="896" to-port="0" />
		<edge from-layer="891" from-port="0" to-layer="892" to-port="0" />
		<edge from-layer="892" from-port="1" to-layer="894" to-port="0" />
		<edge from-layer="893" from-port="0" to-layer="894" to-port="1" />
		<edge from-layer="894" from-port="2" to-layer="895" to-port="0" />
		<edge from-layer="895" from-port="1" to-layer="896" to-port="1" />
		<edge from-layer="896" from-port="2" to-layer="899" to-port="0" />
		<edge from-layer="897" from-port="0" to-layer="898" to-port="0" />
		<edge from-layer="898" from-port="1" to-layer="899" to-port="1" />
		<edge from-layer="899" from-port="2" to-layer="900" to-port="1" />
		<edge from-layer="900" from-port="2" to-layer="926" to-port="0" />
		<edge from-layer="900" from-port="2" to-layer="902" to-port="0" />
		<edge from-layer="901" from-port="0" to-layer="902" to-port="1" />
		<edge from-layer="902" from-port="2" to-layer="904" to-port="0" />
		<edge from-layer="903" from-port="0" to-layer="904" to-port="1" />
		<edge from-layer="904" from-port="2" to-layer="906" to-port="0" />
		<edge from-layer="905" from-port="0" to-layer="906" to-port="1" />
		<edge from-layer="906" from-port="2" to-layer="912" to-port="0" />
		<edge from-layer="907" from-port="0" to-layer="908" to-port="0" />
		<edge from-layer="908" from-port="1" to-layer="910" to-port="0" />
		<edge from-layer="909" from-port="0" to-layer="910" to-port="1" />
		<edge from-layer="910" from-port="2" to-layer="911" to-port="0" />
		<edge from-layer="911" from-port="1" to-layer="912" to-port="1" />
		<edge from-layer="912" from-port="2" to-layer="915" to-port="0" />
		<edge from-layer="913" from-port="0" to-layer="914" to-port="0" />
		<edge from-layer="914" from-port="1" to-layer="915" to-port="1" />
		<edge from-layer="915" from-port="2" to-layer="916" to-port="0" />
		<edge from-layer="916" from-port="1" to-layer="922" to-port="0" />
		<edge from-layer="917" from-port="0" to-layer="918" to-port="0" />
		<edge from-layer="918" from-port="1" to-layer="920" to-port="0" />
		<edge from-layer="919" from-port="0" to-layer="920" to-port="1" />
		<edge from-layer="920" from-port="2" to-layer="921" to-port="0" />
		<edge from-layer="921" from-port="1" to-layer="922" to-port="1" />
		<edge from-layer="922" from-port="2" to-layer="925" to-port="0" />
		<edge from-layer="923" from-port="0" to-layer="924" to-port="0" />
		<edge from-layer="924" from-port="1" to-layer="925" to-port="1" />
		<edge from-layer="925" from-port="2" to-layer="926" to-port="1" />
		<edge from-layer="926" from-port="2" to-layer="1001" to-port="0" />
		<edge from-layer="926" from-port="2" to-layer="928" to-port="0" />
		<edge from-layer="927" from-port="0" to-layer="928" to-port="1" />
		<edge from-layer="928" from-port="2" to-layer="930" to-port="0" />
		<edge from-layer="929" from-port="0" to-layer="930" to-port="1" />
		<edge from-layer="930" from-port="2" to-layer="932" to-port="0" />
		<edge from-layer="931" from-port="0" to-layer="932" to-port="1" />
		<edge from-layer="932" from-port="2" to-layer="938" to-port="0" />
		<edge from-layer="933" from-port="0" to-layer="934" to-port="0" />
		<edge from-layer="934" from-port="1" to-layer="936" to-port="0" />
		<edge from-layer="935" from-port="0" to-layer="936" to-port="1" />
		<edge from-layer="936" from-port="2" to-layer="937" to-port="0" />
		<edge from-layer="937" from-port="1" to-layer="938" to-port="1" />
		<edge from-layer="938" from-port="2" to-layer="941" to-port="0" />
		<edge from-layer="939" from-port="0" to-layer="940" to-port="0" />
		<edge from-layer="940" from-port="1" to-layer="941" to-port="1" />
		<edge from-layer="941" from-port="2" to-layer="943" to-port="0" />
		<edge from-layer="942" from-port="0" to-layer="943" to-port="1" />
		<edge from-layer="943" from-port="2" to-layer="945" to-port="0" />
		<edge from-layer="944" from-port="0" to-layer="945" to-port="1" />
		<edge from-layer="945" from-port="2" to-layer="947" to-port="0" />
		<edge from-layer="946" from-port="0" to-layer="984" to-port="1" />
		<edge from-layer="946" from-port="0" to-layer="966" to-port="1" />
		<edge from-layer="946" from-port="0" to-layer="947" to-port="1" />
		<edge from-layer="946" from-port="0" to-layer="948" to-port="1" />
		<edge from-layer="947" from-port="3" to-layer="966" to-port="0" />
		<edge from-layer="947" from-port="4" to-layer="984" to-port="0" />
		<edge from-layer="947" from-port="2" to-layer="948" to-port="0" />
		<edge from-layer="948" from-port="2" to-layer="960" to-port="0" />
		<edge from-layer="948" from-port="2" to-layer="953" to-port="0" />
		<edge from-layer="948" from-port="2" to-layer="949" to-port="0" />
		<edge from-layer="949" from-port="2" to-layer="963" to-port="0" />
		<edge from-layer="950" from-port="0" to-layer="953" to-port="2" />
		<edge from-layer="951" from-port="0" to-layer="953" to-port="3" />
		<edge from-layer="952" from-port="0" to-layer="953" to-port="4" />
		<edge from-layer="953" from-port="5" to-layer="956" to-port="0" />
		<edge from-layer="954" from-port="0" to-layer="955" to-port="0" />
		<edge from-layer="955" from-port="1" to-layer="956" to-port="1" />
		<edge from-layer="956" from-port="2" to-layer="961" to-port="0" />
		<edge from-layer="957" from-port="0" to-layer="960" to-port="1" />
		<edge from-layer="958" from-port="0" to-layer="960" to-port="3" />
		<edge from-layer="959" from-port="0" to-layer="960" to-port="4" />
		<edge from-layer="960" from-port="5" to-layer="961" to-port="1" />
		<edge from-layer="961" from-port="2" to-layer="962" to-port="0" />
		<edge from-layer="962" from-port="2" to-layer="963" to-port="1" />
		<edge from-layer="963" from-port="2" to-layer="965" to-port="0" />
		<edge from-layer="964" from-port="0" to-layer="965" to-port="1" />
		<edge from-layer="965" from-port="2" to-layer="987" to-port="0" />
		<edge from-layer="966" from-port="2" to-layer="978" to-port="0" />
		<edge from-layer="966" from-port="2" to-layer="971" to-port="0" />
		<edge from-layer="966" from-port="2" to-layer="967" to-port="0" />
		<edge from-layer="967" from-port="2" to-layer="981" to-port="0" />
		<edge from-layer="968" from-port="0" to-layer="971" to-port="2" />
		<edge from-layer="969" from-port="0" to-layer="971" to-port="3" />
		<edge from-layer="970" from-port="0" to-layer="971" to-port="4" />
		<edge from-layer="971" from-port="5" to-layer="974" to-port="0" />
		<edge from-layer="972" from-port="0" to-layer="973" to-port="0" />
		<edge from-layer="973" from-port="1" to-layer="974" to-port="1" />
		<edge from-layer="974" from-port="2" to-layer="979" to-port="0" />
		<edge from-layer="975" from-port="0" to-layer="978" to-port="1" />
		<edge from-layer="976" from-port="0" to-layer="978" to-port="3" />
		<edge from-layer="977" from-port="0" to-layer="978" to-port="4" />
		<edge from-layer="978" from-port="5" to-layer="979" to-port="1" />
		<edge from-layer="979" from-port="2" to-layer="980" to-port="0" />
		<edge from-layer="980" from-port="2" to-layer="981" to-port="1" />
		<edge from-layer="981" from-port="2" to-layer="983" to-port="0" />
		<edge from-layer="982" from-port="0" to-layer="983" to-port="1" />
		<edge from-layer="983" from-port="2" to-layer="987" to-port="1" />
		<edge from-layer="984" from-port="2" to-layer="986" to-port="0" />
		<edge from-layer="985" from-port="0" to-layer="986" to-port="1" />
		<edge from-layer="986" from-port="2" to-layer="987" to-port="2" />
		<edge from-layer="987" from-port="4" to-layer="989" to-port="0" />
		<edge from-layer="988" from-port="0" to-layer="989" to-port="1" />
		<edge from-layer="989" from-port="2" to-layer="991" to-port="0" />
		<edge from-layer="990" from-port="0" to-layer="991" to-port="1" />
		<edge from-layer="991" from-port="2" to-layer="997" to-port="0" />
		<edge from-layer="992" from-port="0" to-layer="993" to-port="0" />
		<edge from-layer="993" from-port="1" to-layer="995" to-port="0" />
		<edge from-layer="994" from-port="0" to-layer="995" to-port="1" />
		<edge from-layer="995" from-port="2" to-layer="996" to-port="0" />
		<edge from-layer="996" from-port="1" to-layer="997" to-port="1" />
		<edge from-layer="997" from-port="2" to-layer="1000" to-port="0" />
		<edge from-layer="998" from-port="0" to-layer="999" to-port="0" />
		<edge from-layer="999" from-port="1" to-layer="1000" to-port="1" />
		<edge from-layer="1000" from-port="2" to-layer="1001" to-port="1" />
		<edge from-layer="1001" from-port="2" to-layer="1003" to-port="0" />
		<edge from-layer="1001" from-port="2" to-layer="1027" to-port="0" />
		<edge from-layer="1002" from-port="0" to-layer="1003" to-port="1" />
		<edge from-layer="1003" from-port="2" to-layer="1005" to-port="0" />
		<edge from-layer="1004" from-port="0" to-layer="1005" to-port="1" />
		<edge from-layer="1005" from-port="2" to-layer="1007" to-port="0" />
		<edge from-layer="1006" from-port="0" to-layer="1007" to-port="1" />
		<edge from-layer="1007" from-port="2" to-layer="1013" to-port="0" />
		<edge from-layer="1008" from-port="0" to-layer="1009" to-port="0" />
		<edge from-layer="1009" from-port="1" to-layer="1011" to-port="0" />
		<edge from-layer="1010" from-port="0" to-layer="1011" to-port="1" />
		<edge from-layer="1011" from-port="2" to-layer="1012" to-port="0" />
		<edge from-layer="1012" from-port="1" to-layer="1013" to-port="1" />
		<edge from-layer="1013" from-port="2" to-layer="1016" to-port="0" />
		<edge from-layer="1014" from-port="0" to-layer="1015" to-port="0" />
		<edge from-layer="1015" from-port="1" to-layer="1016" to-port="1" />
		<edge from-layer="1016" from-port="2" to-layer="1017" to-port="0" />
		<edge from-layer="1017" from-port="1" to-layer="1023" to-port="0" />
		<edge from-layer="1018" from-port="0" to-layer="1019" to-port="0" />
		<edge from-layer="1019" from-port="1" to-layer="1021" to-port="0" />
		<edge from-layer="1020" from-port="0" to-layer="1021" to-port="1" />
		<edge from-layer="1021" from-port="2" to-layer="1022" to-port="0" />
		<edge from-layer="1022" from-port="1" to-layer="1023" to-port="1" />
		<edge from-layer="1023" from-port="2" to-layer="1026" to-port="0" />
		<edge from-layer="1024" from-port="0" to-layer="1025" to-port="0" />
		<edge from-layer="1025" from-port="1" to-layer="1026" to-port="1" />
		<edge from-layer="1026" from-port="2" to-layer="1027" to-port="1" />
		<edge from-layer="1027" from-port="2" to-layer="1102" to-port="0" />
		<edge from-layer="1027" from-port="2" to-layer="1029" to-port="0" />
		<edge from-layer="1028" from-port="0" to-layer="1029" to-port="1" />
		<edge from-layer="1029" from-port="2" to-layer="1031" to-port="0" />
		<edge from-layer="1030" from-port="0" to-layer="1031" to-port="1" />
		<edge from-layer="1031" from-port="2" to-layer="1033" to-port="0" />
		<edge from-layer="1032" from-port="0" to-layer="1033" to-port="1" />
		<edge from-layer="1033" from-port="2" to-layer="1039" to-port="0" />
		<edge from-layer="1034" from-port="0" to-layer="1035" to-port="0" />
		<edge from-layer="1035" from-port="1" to-layer="1037" to-port="0" />
		<edge from-layer="1036" from-port="0" to-layer="1037" to-port="1" />
		<edge from-layer="1037" from-port="2" to-layer="1038" to-port="0" />
		<edge from-layer="1038" from-port="1" to-layer="1039" to-port="1" />
		<edge from-layer="1039" from-port="2" to-layer="1042" to-port="0" />
		<edge from-layer="1040" from-port="0" to-layer="1041" to-port="0" />
		<edge from-layer="1041" from-port="1" to-layer="1042" to-port="1" />
		<edge from-layer="1042" from-port="2" to-layer="1044" to-port="0" />
		<edge from-layer="1043" from-port="0" to-layer="1044" to-port="1" />
		<edge from-layer="1044" from-port="2" to-layer="1046" to-port="0" />
		<edge from-layer="1045" from-port="0" to-layer="1046" to-port="1" />
		<edge from-layer="1046" from-port="2" to-layer="1048" to-port="0" />
		<edge from-layer="1047" from-port="0" to-layer="1048" to-port="1" />
		<edge from-layer="1047" from-port="0" to-layer="1049" to-port="1" />
		<edge from-layer="1047" from-port="0" to-layer="1067" to-port="1" />
		<edge from-layer="1047" from-port="0" to-layer="1085" to-port="1" />
		<edge from-layer="1048" from-port="2" to-layer="1049" to-port="0" />
		<edge from-layer="1048" from-port="3" to-layer="1067" to-port="0" />
		<edge from-layer="1048" from-port="4" to-layer="1085" to-port="0" />
		<edge from-layer="1049" from-port="2" to-layer="1061" to-port="0" />
		<edge from-layer="1049" from-port="2" to-layer="1050" to-port="0" />
		<edge from-layer="1049" from-port="2" to-layer="1054" to-port="0" />
		<edge from-layer="1050" from-port="2" to-layer="1064" to-port="0" />
		<edge from-layer="1051" from-port="0" to-layer="1054" to-port="2" />
		<edge from-layer="1052" from-port="0" to-layer="1054" to-port="3" />
		<edge from-layer="1053" from-port="0" to-layer="1054" to-port="4" />
		<edge from-layer="1054" from-port="5" to-layer="1057" to-port="0" />
		<edge from-layer="1055" from-port="0" to-layer="1056" to-port="0" />
		<edge from-layer="1056" from-port="1" to-layer="1057" to-port="1" />
		<edge from-layer="1057" from-port="2" to-layer="1062" to-port="0" />
		<edge from-layer="1058" from-port="0" to-layer="1061" to-port="1" />
		<edge from-layer="1059" from-port="0" to-layer="1061" to-port="3" />
		<edge from-layer="1060" from-port="0" to-layer="1061" to-port="4" />
		<edge from-layer="1061" from-port="5" to-layer="1062" to-port="1" />
		<edge from-layer="1062" from-port="2" to-layer="1063" to-port="0" />
		<edge from-layer="1063" from-port="2" to-layer="1064" to-port="1" />
		<edge from-layer="1064" from-port="2" to-layer="1066" to-port="0" />
		<edge from-layer="1065" from-port="0" to-layer="1066" to-port="1" />
		<edge from-layer="1066" from-port="2" to-layer="1088" to-port="0" />
		<edge from-layer="1067" from-port="2" to-layer="1079" to-port="0" />
		<edge from-layer="1067" from-port="2" to-layer="1068" to-port="0" />
		<edge from-layer="1067" from-port="2" to-layer="1072" to-port="0" />
		<edge from-layer="1068" from-port="2" to-layer="1082" to-port="0" />
		<edge from-layer="1069" from-port="0" to-layer="1072" to-port="2" />
		<edge from-layer="1070" from-port="0" to-layer="1072" to-port="3" />
		<edge from-layer="1071" from-port="0" to-layer="1072" to-port="4" />
		<edge from-layer="1072" from-port="5" to-layer="1075" to-port="0" />
		<edge from-layer="1073" from-port="0" to-layer="1074" to-port="0" />
		<edge from-layer="1074" from-port="1" to-layer="1075" to-port="1" />
		<edge from-layer="1075" from-port="2" to-layer="1080" to-port="0" />
		<edge from-layer="1076" from-port="0" to-layer="1079" to-port="1" />
		<edge from-layer="1077" from-port="0" to-layer="1079" to-port="3" />
		<edge from-layer="1078" from-port="0" to-layer="1079" to-port="4" />
		<edge from-layer="1079" from-port="5" to-layer="1080" to-port="1" />
		<edge from-layer="1080" from-port="2" to-layer="1081" to-port="0" />
		<edge from-layer="1081" from-port="2" to-layer="1082" to-port="1" />
		<edge from-layer="1082" from-port="2" to-layer="1084" to-port="0" />
		<edge from-layer="1083" from-port="0" to-layer="1084" to-port="1" />
		<edge from-layer="1084" from-port="2" to-layer="1088" to-port="1" />
		<edge from-layer="1085" from-port="2" to-layer="1087" to-port="0" />
		<edge from-layer="1086" from-port="0" to-layer="1087" to-port="1" />
		<edge from-layer="1087" from-port="2" to-layer="1088" to-port="2" />
		<edge from-layer="1088" from-port="4" to-layer="1090" to-port="0" />
		<edge from-layer="1089" from-port="0" to-layer="1090" to-port="1" />
		<edge from-layer="1090" from-port="2" to-layer="1092" to-port="0" />
		<edge from-layer="1091" from-port="0" to-layer="1092" to-port="1" />
		<edge from-layer="1092" from-port="2" to-layer="1098" to-port="0" />
		<edge from-layer="1093" from-port="0" to-layer="1094" to-port="0" />
		<edge from-layer="1094" from-port="1" to-layer="1096" to-port="0" />
		<edge from-layer="1095" from-port="0" to-layer="1096" to-port="1" />
		<edge from-layer="1096" from-port="2" to-layer="1097" to-port="0" />
		<edge from-layer="1097" from-port="1" to-layer="1098" to-port="1" />
		<edge from-layer="1098" from-port="2" to-layer="1101" to-port="0" />
		<edge from-layer="1099" from-port="0" to-layer="1100" to-port="0" />
		<edge from-layer="1100" from-port="1" to-layer="1101" to-port="1" />
		<edge from-layer="1101" from-port="2" to-layer="1102" to-port="1" />
		<edge from-layer="1102" from-port="2" to-layer="1104" to-port="0" />
		<edge from-layer="1102" from-port="2" to-layer="1128" to-port="0" />
		<edge from-layer="1103" from-port="0" to-layer="1104" to-port="1" />
		<edge from-layer="1104" from-port="2" to-layer="1106" to-port="0" />
		<edge from-layer="1105" from-port="0" to-layer="1106" to-port="1" />
		<edge from-layer="1106" from-port="2" to-layer="1108" to-port="0" />
		<edge from-layer="1107" from-port="0" to-layer="1108" to-port="1" />
		<edge from-layer="1108" from-port="2" to-layer="1114" to-port="0" />
		<edge from-layer="1109" from-port="0" to-layer="1110" to-port="0" />
		<edge from-layer="1110" from-port="1" to-layer="1112" to-port="0" />
		<edge from-layer="1111" from-port="0" to-layer="1112" to-port="1" />
		<edge from-layer="1112" from-port="2" to-layer="1113" to-port="0" />
		<edge from-layer="1113" from-port="1" to-layer="1114" to-port="1" />
		<edge from-layer="1114" from-port="2" to-layer="1117" to-port="0" />
		<edge from-layer="1115" from-port="0" to-layer="1116" to-port="0" />
		<edge from-layer="1116" from-port="1" to-layer="1117" to-port="1" />
		<edge from-layer="1117" from-port="2" to-layer="1118" to-port="0" />
		<edge from-layer="1118" from-port="1" to-layer="1124" to-port="0" />
		<edge from-layer="1119" from-port="0" to-layer="1120" to-port="0" />
		<edge from-layer="1120" from-port="1" to-layer="1122" to-port="0" />
		<edge from-layer="1121" from-port="0" to-layer="1122" to-port="1" />
		<edge from-layer="1122" from-port="2" to-layer="1123" to-port="0" />
		<edge from-layer="1123" from-port="1" to-layer="1124" to-port="1" />
		<edge from-layer="1124" from-port="2" to-layer="1127" to-port="0" />
		<edge from-layer="1125" from-port="0" to-layer="1126" to-port="0" />
		<edge from-layer="1126" from-port="1" to-layer="1127" to-port="1" />
		<edge from-layer="1127" from-port="2" to-layer="1128" to-port="1" />
		<edge from-layer="1128" from-port="2" to-layer="1203" to-port="0" />
		<edge from-layer="1128" from-port="2" to-layer="1130" to-port="0" />
		<edge from-layer="1129" from-port="0" to-layer="1130" to-port="1" />
		<edge from-layer="1130" from-port="2" to-layer="1132" to-port="0" />
		<edge from-layer="1131" from-port="0" to-layer="1132" to-port="1" />
		<edge from-layer="1132" from-port="2" to-layer="1134" to-port="0" />
		<edge from-layer="1133" from-port="0" to-layer="1134" to-port="1" />
		<edge from-layer="1134" from-port="2" to-layer="1140" to-port="0" />
		<edge from-layer="1135" from-port="0" to-layer="1136" to-port="0" />
		<edge from-layer="1136" from-port="1" to-layer="1138" to-port="0" />
		<edge from-layer="1137" from-port="0" to-layer="1138" to-port="1" />
		<edge from-layer="1138" from-port="2" to-layer="1139" to-port="0" />
		<edge from-layer="1139" from-port="1" to-layer="1140" to-port="1" />
		<edge from-layer="1140" from-port="2" to-layer="1143" to-port="0" />
		<edge from-layer="1141" from-port="0" to-layer="1142" to-port="0" />
		<edge from-layer="1142" from-port="1" to-layer="1143" to-port="1" />
		<edge from-layer="1143" from-port="2" to-layer="1145" to-port="0" />
		<edge from-layer="1144" from-port="0" to-layer="1145" to-port="1" />
		<edge from-layer="1145" from-port="2" to-layer="1147" to-port="0" />
		<edge from-layer="1146" from-port="0" to-layer="1147" to-port="1" />
		<edge from-layer="1147" from-port="2" to-layer="1149" to-port="0" />
		<edge from-layer="1148" from-port="0" to-layer="1186" to-port="1" />
		<edge from-layer="1148" from-port="0" to-layer="1149" to-port="1" />
		<edge from-layer="1148" from-port="0" to-layer="1168" to-port="1" />
		<edge from-layer="1148" from-port="0" to-layer="1150" to-port="1" />
		<edge from-layer="1149" from-port="4" to-layer="1186" to-port="0" />
		<edge from-layer="1149" from-port="2" to-layer="1150" to-port="0" />
		<edge from-layer="1149" from-port="3" to-layer="1168" to-port="0" />
		<edge from-layer="1150" from-port="2" to-layer="1155" to-port="0" />
		<edge from-layer="1150" from-port="2" to-layer="1162" to-port="0" />
		<edge from-layer="1150" from-port="2" to-layer="1151" to-port="0" />
		<edge from-layer="1151" from-port="2" to-layer="1165" to-port="0" />
		<edge from-layer="1152" from-port="0" to-layer="1155" to-port="2" />
		<edge from-layer="1153" from-port="0" to-layer="1155" to-port="3" />
		<edge from-layer="1154" from-port="0" to-layer="1155" to-port="4" />
		<edge from-layer="1155" from-port="5" to-layer="1158" to-port="0" />
		<edge from-layer="1156" from-port="0" to-layer="1157" to-port="0" />
		<edge from-layer="1157" from-port="1" to-layer="1158" to-port="1" />
		<edge from-layer="1158" from-port="2" to-layer="1163" to-port="0" />
		<edge from-layer="1159" from-port="0" to-layer="1162" to-port="1" />
		<edge from-layer="1160" from-port="0" to-layer="1162" to-port="3" />
		<edge from-layer="1161" from-port="0" to-layer="1162" to-port="4" />
		<edge from-layer="1162" from-port="5" to-layer="1163" to-port="1" />
		<edge from-layer="1163" from-port="2" to-layer="1164" to-port="0" />
		<edge from-layer="1164" from-port="2" to-layer="1165" to-port="1" />
		<edge from-layer="1165" from-port="2" to-layer="1167" to-port="0" />
		<edge from-layer="1166" from-port="0" to-layer="1167" to-port="1" />
		<edge from-layer="1167" from-port="2" to-layer="1189" to-port="0" />
		<edge from-layer="1168" from-port="2" to-layer="1180" to-port="0" />
		<edge from-layer="1168" from-port="2" to-layer="1169" to-port="0" />
		<edge from-layer="1168" from-port="2" to-layer="1173" to-port="0" />
		<edge from-layer="1169" from-port="2" to-layer="1183" to-port="0" />
		<edge from-layer="1170" from-port="0" to-layer="1173" to-port="2" />
		<edge from-layer="1171" from-port="0" to-layer="1173" to-port="3" />
		<edge from-layer="1172" from-port="0" to-layer="1173" to-port="4" />
		<edge from-layer="1173" from-port="5" to-layer="1176" to-port="0" />
		<edge from-layer="1174" from-port="0" to-layer="1175" to-port="0" />
		<edge from-layer="1175" from-port="1" to-layer="1176" to-port="1" />
		<edge from-layer="1176" from-port="2" to-layer="1181" to-port="0" />
		<edge from-layer="1177" from-port="0" to-layer="1180" to-port="1" />
		<edge from-layer="1178" from-port="0" to-layer="1180" to-port="3" />
		<edge from-layer="1179" from-port="0" to-layer="1180" to-port="4" />
		<edge from-layer="1180" from-port="5" to-layer="1181" to-port="1" />
		<edge from-layer="1181" from-port="2" to-layer="1182" to-port="0" />
		<edge from-layer="1182" from-port="2" to-layer="1183" to-port="1" />
		<edge from-layer="1183" from-port="2" to-layer="1185" to-port="0" />
		<edge from-layer="1184" from-port="0" to-layer="1185" to-port="1" />
		<edge from-layer="1185" from-port="2" to-layer="1189" to-port="1" />
		<edge from-layer="1186" from-port="2" to-layer="1188" to-port="0" />
		<edge from-layer="1187" from-port="0" to-layer="1188" to-port="1" />
		<edge from-layer="1188" from-port="2" to-layer="1189" to-port="2" />
		<edge from-layer="1189" from-port="4" to-layer="1191" to-port="0" />
		<edge from-layer="1190" from-port="0" to-layer="1191" to-port="1" />
		<edge from-layer="1191" from-port="2" to-layer="1193" to-port="0" />
		<edge from-layer="1192" from-port="0" to-layer="1193" to-port="1" />
		<edge from-layer="1193" from-port="2" to-layer="1199" to-port="0" />
		<edge from-layer="1194" from-port="0" to-layer="1195" to-port="0" />
		<edge from-layer="1195" from-port="1" to-layer="1197" to-port="0" />
		<edge from-layer="1196" from-port="0" to-layer="1197" to-port="1" />
		<edge from-layer="1197" from-port="2" to-layer="1198" to-port="0" />
		<edge from-layer="1198" from-port="1" to-layer="1199" to-port="1" />
		<edge from-layer="1199" from-port="2" to-layer="1202" to-port="0" />
		<edge from-layer="1200" from-port="0" to-layer="1201" to-port="0" />
		<edge from-layer="1201" from-port="1" to-layer="1202" to-port="1" />
		<edge from-layer="1202" from-port="2" to-layer="1203" to-port="1" />
		<edge from-layer="1203" from-port="2" to-layer="1229" to-port="0" />
		<edge from-layer="1203" from-port="2" to-layer="1205" to-port="0" />
		<edge from-layer="1204" from-port="0" to-layer="1205" to-port="1" />
		<edge from-layer="1205" from-port="2" to-layer="1207" to-port="0" />
		<edge from-layer="1206" from-port="0" to-layer="1207" to-port="1" />
		<edge from-layer="1207" from-port="2" to-layer="1209" to-port="0" />
		<edge from-layer="1208" from-port="0" to-layer="1209" to-port="1" />
		<edge from-layer="1209" from-port="2" to-layer="1215" to-port="0" />
		<edge from-layer="1210" from-port="0" to-layer="1211" to-port="0" />
		<edge from-layer="1211" from-port="1" to-layer="1213" to-port="0" />
		<edge from-layer="1212" from-port="0" to-layer="1213" to-port="1" />
		<edge from-layer="1213" from-port="2" to-layer="1214" to-port="0" />
		<edge from-layer="1214" from-port="1" to-layer="1215" to-port="1" />
		<edge from-layer="1215" from-port="2" to-layer="1218" to-port="0" />
		<edge from-layer="1216" from-port="0" to-layer="1217" to-port="0" />
		<edge from-layer="1217" from-port="1" to-layer="1218" to-port="1" />
		<edge from-layer="1218" from-port="2" to-layer="1219" to-port="0" />
		<edge from-layer="1219" from-port="1" to-layer="1225" to-port="0" />
		<edge from-layer="1220" from-port="0" to-layer="1221" to-port="0" />
		<edge from-layer="1221" from-port="1" to-layer="1223" to-port="0" />
		<edge from-layer="1222" from-port="0" to-layer="1223" to-port="1" />
		<edge from-layer="1223" from-port="2" to-layer="1224" to-port="0" />
		<edge from-layer="1224" from-port="1" to-layer="1225" to-port="1" />
		<edge from-layer="1225" from-port="2" to-layer="1228" to-port="0" />
		<edge from-layer="1226" from-port="0" to-layer="1227" to-port="0" />
		<edge from-layer="1227" from-port="1" to-layer="1228" to-port="1" />
		<edge from-layer="1228" from-port="2" to-layer="1229" to-port="1" />
		<edge from-layer="1229" from-port="2" to-layer="1231" to-port="0" />
		<edge from-layer="1230" from-port="0" to-layer="1231" to-port="1" />
		<edge from-layer="1231" from-port="2" to-layer="1233" to-port="0" />
		<edge from-layer="1232" from-port="0" to-layer="1233" to-port="1" />
		<edge from-layer="1233" from-port="2" to-layer="1235" to-port="0" />
		<edge from-layer="1234" from-port="0" to-layer="1235" to-port="1" />
		<edge from-layer="1235" from-port="2" to-layer="1237" to-port="0" />
		<edge from-layer="1236" from-port="0" to-layer="1237" to-port="1" />
		<edge from-layer="1237" from-port="2" to-layer="1243" to-port="0" />
		<edge from-layer="1238" from-port="0" to-layer="1239" to-port="0" />
		<edge from-layer="1239" from-port="1" to-layer="1241" to-port="0" />
		<edge from-layer="1240" from-port="0" to-layer="1241" to-port="1" />
		<edge from-layer="1241" from-port="2" to-layer="1242" to-port="0" />
		<edge from-layer="1242" from-port="1" to-layer="1243" to-port="1" />
		<edge from-layer="1243" from-port="2" to-layer="1246" to-port="0" />
		<edge from-layer="1244" from-port="0" to-layer="1245" to-port="0" />
		<edge from-layer="1245" from-port="1" to-layer="1246" to-port="1" />
		<edge from-layer="1246" from-port="2" to-layer="1247" to-port="0" />
		<edge from-layer="1247" from-port="1" to-layer="1253" to-port="0" />
		<edge from-layer="1248" from-port="0" to-layer="1249" to-port="0" />
		<edge from-layer="1249" from-port="1" to-layer="1251" to-port="0" />
		<edge from-layer="1250" from-port="0" to-layer="1251" to-port="1" />
		<edge from-layer="1251" from-port="2" to-layer="1252" to-port="0" />
		<edge from-layer="1252" from-port="1" to-layer="1253" to-port="1" />
		<edge from-layer="1253" from-port="2" to-layer="1256" to-port="0" />
		<edge from-layer="1254" from-port="0" to-layer="1255" to-port="0" />
		<edge from-layer="1255" from-port="1" to-layer="1256" to-port="1" />
		<edge from-layer="1256" from-port="2" to-layer="1257" to-port="0" />
	</edges>
	<rt_info>
		<info name="OpenVINO Runtime" value="2026.2.0-21903-52ddc073857-releases/2026/2" />
		<Runtime_version value="2026.2.0-21903-52ddc073857-releases/2026/2" />
		<conversion_parameters>
			<framework value="pytorch" />
			<is_python_object value="True" />
		</conversion_parameters>
		<nncf>
			<friendly_names_were_updated value="True" />
			<version value="3.2.0" />
			<weight_compression>
				<advanced_parameters value="{'statistics_path': None, 'lora_adapter_rank': 256, 'group_size_fallback_mode': 'error', 'min_adjusted_group_size': 32, 'awq_params': {'subset_size': 32, 'percent_to_apply': 0.002, 'alpha_min': 0.0, 'alpha_max': 1.0, 'steps': 100, 'prefer_data_aware_scaling': True}, 'scale_estimation_params': {'subset_size': 64, 'initial_steps': 5, 'scale_steps': 5, 'weight_penalty': -1.0}, 'gptq_params': {'damp_percent': 0.1, 'block_size': 128, 'subset_size': 128}, 'lora_correction_params': {'adapter_rank': 8, 'num_iterations': 3, 'apply_regularization': True, 'subset_size': 128, 'use_int8_adapters': True}, 'backend_params': {}, 'codebook': None, 'adaptive_codebook_params': {'value_type': 'f8e4m3', 'across_blocks': False, 'num_elements': 16}}" />
				<all_layers value="False" />
				<awq value="False" />
				<backup_mode value="int8_asym" />
				<compression_format value="dequantize" />
				<gptq value="False" />
				<group_size value="-1" />
				<ignored_scope value="[]" />
				<lora_correction value="False" />
				<mode value="int8_sym" />
				<ratio value="1.0" />
				<scale_estimation value="False" />
				<sensitivity_metric value="weight_quantization_error" />
			</weight_compression>
		</nncf>
		<optimum>
			<nncf_version value="3.2.0" />
			<optimum_intel_version value="2.0.0" />
			<optimum_version value="2.2.0" />
			<pytorch_version value="2.12.0+cpu" />
			<transformers_version value="5.11.0" />
		</optimum>
	</rt_info>
</net>
