<?xml version="1.0"?>
<net name="Model18" version="11">
	<layers>
		<layer id="0" name="attention_mask" type="Parameter" version="opset1">
			<data shape="?,?" element_type="i64" />
			<output>
				<port id="0" precision="I64" names="attention_mask">
					<dim>-1</dim>
					<dim>-1</dim>
				</port>
			</output>
		</layer>
		<layer id="1" name="inputs_embeds" type="Parameter" version="opset1">
			<data shape="?,?,1024" element_type="f32" />
			<output>
				<port id="0" precision="FP32" names="inputs_embeds">
					<dim>-1</dim>
					<dim>-1</dim>
					<dim>1024</dim>
				</port>
			</output>
		</layer>
		<layer id="2" name="position_ids" type="Parameter" version="opset1">
			<data shape="4,?,?" element_type="i64" />
			<output>
				<port id="0" precision="I64" names="position_ids">
					<dim>4</dim>
					<dim>-1</dim>
					<dim>-1</dim>
				</port>
			</output>
		</layer>
		<layer id="3" name="beam_idx" type="Parameter" version="opset1">
			<data shape="?" element_type="i32" />
			<output>
				<port id="0" precision="I32" names="beam_idx">
					<dim>-1</dim>
				</port>
			</output>
		</layer>
		<layer id="4" name="Constant_129289" type="Const" version="opset1">
			<data element_type="f32" shape="" offset="0" size="4" />
			<output>
				<port id="0" precision="FP32" />
			</output>
		</layer>
		<layer id="5" name="ShapeOf_129275" type="ShapeOf" version="opset3">
			<data output_type="i64" />
			<input>
				<port id="0" precision="FP32">
					<dim>-1</dim>
					<dim>-1</dim>
					<dim>1024</dim>
				</port>
			</input>
			<output>
				<port id="1" precision="I64">
					<dim>3</dim>
				</port>
			</output>
		</layer>
		<layer id="6" name="Constant_129277" type="Const" version="opset1">
			<data element_type="i64" shape="1" offset="4" size="8" />
			<output>
				<port id="0" precision="I64">
					<dim>1</dim>
				</port>
			</output>
		</layer>
		<layer id="7" name="Constant_129279" type="Const" version="opset1">
			<data element_type="i64" shape="" offset="4" size="8" />
			<output>
				<port id="0" precision="I64" />
			</output>
		</layer>
		<layer id="8" name="Gather_129280" type="Gather" version="opset8">
			<data batch_dims="0" />
			<input>
				<port id="0" precision="I64">
					<dim>3</dim>
				</port>
				<port id="1" precision="I64">
					<dim>1</dim>
				</port>
				<port id="2" precision="I64" />
			</input>
			<output>
				<port id="3" precision="I64">
					<dim>1</dim>
				</port>
			</output>
		</layer>
		<layer id="9" name="Constant_129282" type="Const" version="opset1">
			<data element_type="i64" shape="1" offset="12" size="8" />
			<output>
				<port id="0" precision="I64">
					<dim>1</dim>
				</port>
			</output>
		</layer>
		<layer id="10" name="Constant_129284" type="Const" version="opset1">
			<data element_type="i64" shape="1" offset="4" size="8" />
			<output>
				<port id="0" precision="I64">
					<dim>1</dim>
				</port>
			</output>
		</layer>
		<layer id="11" name="Constant_129286" type="Const" version="opset1">
			<data element_type="i64" shape="1" offset="20" size="8" />
			<output>
				<port id="0" precision="I64">
					<dim>1</dim>
				</port>
			</output>
		</layer>
		<layer id="12" name="Concat_129287" type="Concat" version="opset1">
			<data axis="0" />
			<input>
				<port id="0" precision="I64">
					<dim>1</dim>
				</port>
				<port id="1" precision="I64">
					<dim>1</dim>
				</port>
				<port id="2" precision="I64">
					<dim>1</dim>
				</port>
				<port id="3" precision="I64">
					<dim>1</dim>
				</port>
			</input>
			<output>
				<port id="4" precision="I64">
					<dim>4</dim>
				</port>
			</output>
		</layer>
		<layer id="13" name="Broadcast_129290" type="Broadcast" version="opset3">
			<data mode="numpy" />
			<input>
				<port id="0" precision="FP32" />
				<port id="1" precision="I64">
					<dim>4</dim>
				</port>
			</input>
			<output>
				<port id="2" precision="FP32">
					<dim>-1</dim>
					<dim>2</dim>
					<dim>0</dim>
					<dim>256</dim>
				</port>
			</output>
		</layer>
		<layer id="14" name="ReadValue_127064" type="ReadValue" version="opset6">
			<data variable_id="cache_params.past.value.5cache_params.present.value.5" variable_type="f32" variable_shape="?,2,?,256" />
			<input>
				<port id="0" precision="FP32">
					<dim>-1</dim>
					<dim>2</dim>
					<dim>0</dim>
					<dim>256</dim>
				</port>
			</input>
			<output>
				<port id="1" precision="FP32" names="cache_params.past.value.5">
					<dim>-1</dim>
					<dim>2</dim>
					<dim>-1</dim>
					<dim>256</dim>
				</port>
			</output>
		</layer>
		<layer id="15" name="Constant_124651" type="Const" version="opset1">
			<data element_type="i64" shape="" offset="4" size="8" />
			<output>
				<port id="0" precision="I64" />
			</output>
		</layer>
		<layer id="16" name="Gather_124652" type="Gather" version="opset8">
			<data batch_dims="0" />
			<input>
				<port id="0" precision="FP32">
					<dim>-1</dim>
					<dim>2</dim>
					<dim>-1</dim>
					<dim>256</dim>
				</port>
				<port id="1" precision="I32">
					<dim>-1</dim>
				</port>
				<port id="2" precision="I64" />
			</input>
			<output>
				<port id="3" precision="FP32">
					<dim>-1</dim>
					<dim>2</dim>
					<dim>-1</dim>
					<dim>256</dim>
				</port>
			</output>
		</layer>
		<layer id="17" name="Constant_103904" type="Const" version="opset1">
			<data element_type="f32" shape="1, 128" offset="28" size="512" />
			<output>
				<port id="0" precision="FP32">
					<dim>1</dim>
					<dim>128</dim>
				</port>
			</output>
		</layer>
		<layer id="18" name="Constant_129299" type="Const" version="opset1">
			<data element_type="f32" shape="" offset="0" size="4" />
			<output>
				<port id="0" precision="FP32" />
			</output>
		</layer>
		<layer id="19" name="Constant_129294" type="Const" version="opset1">
			<data element_type="i64" shape="1" offset="540" size="8" />
			<output>
				<port id="0" precision="I64">
					<dim>1</dim>
				</port>
			</output>
		</layer>
		<layer id="20" name="Constant_129296" type="Const" version="opset1">
			<data element_type="i64" shape="1" offset="548" size="8" />
			<output>
				<port id="0" precision="I64">
					<dim>1</dim>
				</port>
			</output>
		</layer>
		<layer id="21" name="Concat_129297" type="Concat" version="opset1">
			<data axis="0" />
			<input>
				<port id="0" precision="I64">
					<dim>1</dim>
				</port>
				<port id="1" precision="I64">
					<dim>1</dim>
				</port>
				<port id="2" precision="I64">
					<dim>1</dim>
				</port>
			</input>
			<output>
				<port id="3" precision="I64">
					<dim>3</dim>
				</port>
			</output>
		</layer>
		<layer id="22" name="Broadcast_129300" type="Broadcast" version="opset3">
			<data mode="numpy" />
			<input>
				<port id="0" precision="FP32" />
				<port id="1" precision="I64">
					<dim>3</dim>
				</port>
			</input>
			<output>
				<port id="2" precision="FP32">
					<dim>-1</dim>
					<dim>6144</dim>
					<dim>4</dim>
				</port>
			</output>
		</layer>
		<layer id="23" name="ReadValue_126970" type="ReadValue" version="opset6">
			<data variable_id="cache_params.past.conv.0cache_params.present.conv.0" variable_type="f32" variable_shape="?,6144,4" />
			<input>
				<port id="0" precision="FP32">
					<dim>-1</dim>
					<dim>6144</dim>
					<dim>4</dim>
				</port>
			</input>
			<output>
				<port id="1" precision="FP32" names="cache_params.past.conv.0">
					<dim>-1</dim>
					<dim>6144</dim>
					<dim>4</dim>
				</port>
			</output>
		</layer>
		<layer id="24" name="Constant_124654" type="Const" version="opset1">
			<data element_type="i64" shape="" offset="4" size="8" />
			<output>
				<port id="0" precision="I64" />
			</output>
		</layer>
		<layer id="25" name="Gather_124655" type="Gather" version="opset8">
			<data batch_dims="0" />
			<input>
				<port id="0" precision="FP32">
					<dim>-1</dim>
					<dim>6144</dim>
					<dim>4</dim>
				</port>
				<port id="1" precision="I32">
					<dim>-1</dim>
				</port>
				<port id="2" precision="I64" />
			</input>
			<output>
				<port id="3" precision="FP32">
					<dim>-1</dim>
					<dim>6144</dim>
					<dim>4</dim>
				</port>
			</output>
		</layer>
		<layer id="26" name="Constant_103894" type="Const" version="opset1">
			<data element_type="f32" shape="1, 1, 1" offset="556" size="4" />
			<output>
				<port id="0" precision="FP32">
					<dim>1</dim>
					<dim>1</dim>
					<dim>1</dim>
				</port>
			</output>
		</layer>
		<layer id="27" name="Constant_103892" type="Const" version="opset1">
			<data element_type="f32" shape="1, 1, 1" offset="560" size="4" />
			<output>
				<port id="0" precision="FP32">
					<dim>1</dim>
					<dim>1</dim>
					<dim>1</dim>
				</port>
			</output>
		</layer>
		<layer id="28" name="__module.model.model.language_model.layers.0.input_layernorm/aten::pow/Power" type="Power" version="opset1">
			<data auto_broadcast="numpy" />
			<input>
				<port id="0" precision="FP32">
					<dim>-1</dim>
					<dim>-1</dim>
					<dim>1024</dim>
				</port>
				<port id="1" precision="FP32">
					<dim>1</dim>
					<dim>1</dim>
					<dim>1</dim>
				</port>
			</input>
			<output>
				<port id="2" precision="FP32" names="293">
					<dim>-1</dim>
					<dim>-1</dim>
					<dim>1024</dim>
				</port>
			</output>
		</layer>
		<layer id="29" name="Constant_473" type="Const" version="opset1">
			<data element_type="i64" shape="1" offset="564" size="8" />
			<output>
				<port id="0" precision="I64">
					<dim>1</dim>
				</port>
			</output>
		</layer>
		<layer id="30" name="__module.model.model.language_model.layers.0.input_layernorm/aten::mean/ReduceMean" type="ReduceMean" version="opset1">
			<data keep_dims="true" />
			<input>
				<port id="0" precision="FP32">
					<dim>-1</dim>
					<dim>-1</dim>
					<dim>1024</dim>
				</port>
				<port id="1" precision="I64">
					<dim>1</dim>
				</port>
			</input>
			<output>
				<port id="2" precision="FP32" names="295">
					<dim>-1</dim>
					<dim>-1</dim>
					<dim>1</dim>
				</port>
			</output>
		</layer>
		<layer id="31" name="Constant_103893" type="Const" version="opset1">
			<data element_type="f32" shape="1, 1, 1" offset="572" size="4" />
			<output>
				<port id="0" precision="FP32">
					<dim>1</dim>
					<dim>1</dim>
					<dim>1</dim>
				</port>
			</output>
		</layer>
		<layer id="32" name="__module.model.model.language_model.layers.0.input_layernorm/aten::add/Add" type="Add" version="opset1">
			<data auto_broadcast="numpy" />
			<input>
				<port id="0" precision="FP32">
					<dim>-1</dim>
					<dim>-1</dim>
					<dim>1</dim>
				</port>
				<port id="1" precision="FP32">
					<dim>1</dim>
					<dim>1</dim>
					<dim>1</dim>
				</port>
			</input>
			<output>
				<port id="2" precision="FP32" names="296">
					<dim>-1</dim>
					<dim>-1</dim>
					<dim>1</dim>
				</port>
			</output>
		</layer>
		<layer id="33" name="__module.model.model.language_model.layers.0.input_layernorm/aten::rsqrt/Sqrt" type="Sqrt" version="opset1">
			<input>
				<port id="0" precision="FP32">
					<dim>-1</dim>
					<dim>-1</dim>
					<dim>1</dim>
				</port>
			</input>
			<output>
				<port id="1" precision="FP32">
					<dim>-1</dim>
					<dim>-1</dim>
					<dim>1</dim>
				</port>
			</output>
		</layer>
		<layer id="34" name="__module.model.model.language_model.layers.0.input_layernorm/aten::rsqrt/Divide" type="Divide" version="opset1">
			<data auto_broadcast="numpy" m_pythondiv="true" />
			<input>
				<port id="0" precision="FP32">
					<dim>1</dim>
					<dim>1</dim>
					<dim>1</dim>
				</port>
				<port id="1" precision="FP32">
					<dim>-1</dim>
					<dim>-1</dim>
					<dim>1</dim>
				</port>
			</input>
			<output>
				<port id="2" precision="FP32" names="297">
					<dim>-1</dim>
					<dim>-1</dim>
					<dim>1</dim>
				</port>
			</output>
		</layer>
		<layer id="35" name="__module.model.model.language_model.layers.0.input_layernorm/aten::mul/Multiply" type="Multiply" version="opset1">
			<data auto_broadcast="numpy" />
			<input>
				<port id="0" precision="FP32">
					<dim>-1</dim>
					<dim>-1</dim>
					<dim>1024</dim>
				</port>
				<port id="1" precision="FP32">
					<dim>-1</dim>
					<dim>-1</dim>
					<dim>1</dim>
				</port>
			</input>
			<output>
				<port id="2" precision="FP32" names="298,output.1">
					<dim>-1</dim>
					<dim>-1</dim>
					<dim>1024</dim>
				</port>
			</output>
		</layer>
		<layer id="36" name="Constant_103895" type="Const" version="opset1">
			<data element_type="f32" shape="1, 1, 1024" offset="576" size="4096" />
			<output>
				<port id="0" precision="FP32">
					<dim>1</dim>
					<dim>1</dim>
					<dim>1024</dim>
				</port>
			</output>
		</layer>
		<layer id="37" name="__module.model.model.language_model.layers.0.input_layernorm/aten::mul/Multiply_1" type="Multiply" version="opset1">
			<data auto_broadcast="numpy" />
			<input>
				<port id="0" precision="FP32">
					<dim>-1</dim>
					<dim>-1</dim>
					<dim>1024</dim>
				</port>
				<port id="1" precision="FP32">
					<dim>1</dim>
					<dim>1</dim>
					<dim>1024</dim>
				</port>
			</input>
			<output>
				<port id="2" precision="FP32" names="301,302,hidden_states.1,output.3">
					<dim>-1</dim>
					<dim>-1</dim>
					<dim>1024</dim>
				</port>
			</output>
		</layer>
		<layer id="38" name="self.model.model.language_model.layers.0.linear_attn.in_proj_qkv.weight" type="Const" version="opset1">
			<data element_type="u4" shape="6144, 8, 128" offset="4672" size="3145728" />
			<output>
				<port id="0" precision="U4">
					<dim>6144</dim>
					<dim>8</dim>
					<dim>128</dim>
				</port>
			</output>
		</layer>
		<layer id="39" name="Convert_222581" type="Convert" version="opset1">
			<data destination_type="f16" />
			<input>
				<port id="0" precision="U4">
					<dim>6144</dim>
					<dim>8</dim>
					<dim>128</dim>
				</port>
			</input>
			<output>
				<port id="1" precision="FP16">
					<dim>6144</dim>
					<dim>8</dim>
					<dim>128</dim>
				</port>
			</output>
		</layer>
		<layer id="40" name="self.model.model.language_model.layers.0.linear_attn.in_proj_qkv.weight/zero_point" type="Const" version="opset1">
			<data element_type="u4" shape="6144, 8, 1" offset="3150400" size="24576" />
			<output>
				<port id="0" precision="U4">
					<dim>6144</dim>
					<dim>8</dim>
					<dim>1</dim>
				</port>
			</output>
		</layer>
		<layer id="41" name="Convert_222584" type="Convert" version="opset1">
			<data destination_type="f16" />
			<input>
				<port id="0" precision="U4">
					<dim>6144</dim>
					<dim>8</dim>
					<dim>1</dim>
				</port>
			</input>
			<output>
				<port id="1" precision="FP16">
					<dim>6144</dim>
					<dim>8</dim>
					<dim>1</dim>
				</port>
			</output>
		</layer>
		<layer id="42" name="self.model.model.language_model.layers.0.linear_attn.in_proj_qkv.weight/zero_point/subtract" type="Subtract" version="opset1">
			<data auto_broadcast="numpy" />
			<input>
				<port id="0" precision="FP16">
					<dim>6144</dim>
					<dim>8</dim>
					<dim>128</dim>
				</port>
				<port id="1" precision="FP16">
					<dim>6144</dim>
					<dim>8</dim>
					<dim>1</dim>
				</port>
			</input>
			<output>
				<port id="2" precision="FP16">
					<dim>6144</dim>
					<dim>8</dim>
					<dim>128</dim>
				</port>
			</output>
		</layer>
		<layer id="43" name="self.model.model.language_model.layers.0.linear_attn.in_proj_qkv.weight/scale" type="Const" version="opset1">
			<data element_type="f16" shape="6144, 8, 1" offset="3174976" size="98304" />
			<output>
				<port id="0" precision="FP16">
					<dim>6144</dim>
					<dim>8</dim>
					<dim>1</dim>
				</port>
			</output>
		</layer>
		<layer id="44" name="self.model.model.language_model.layers.0.linear_attn.in_proj_qkv.weight/fq_weights_1" type="Multiply" version="opset1">
			<data auto_broadcast="numpy" />
			<input>
				<port id="0" precision="FP16">
					<dim>6144</dim>
					<dim>8</dim>
					<dim>128</dim>
				</port>
				<port id="1" precision="FP16">
					<dim>6144</dim>
					<dim>8</dim>
					<dim>1</dim>
				</port>
			</input>
			<output>
				<port id="2" precision="FP16">
					<dim>6144</dim>
					<dim>8</dim>
					<dim>128</dim>
				</port>
			</output>
		</layer>
		<layer id="45" name="Constant_222589" type="Const" version="opset1">
			<data element_type="i64" shape="2" offset="3273280" size="16" />
			<output>
				<port id="0" precision="I64">
					<dim>2</dim>
				</port>
			</output>
		</layer>
		<layer id="46" name="Reshape_222590" type="Reshape" version="opset1">
			<data special_zero="false" />
			<input>
				<port id="0" precision="FP16">
					<dim>6144</dim>
					<dim>8</dim>
					<dim>128</dim>
				</port>
				<port id="1" precision="I64">
					<dim>2</dim>
				</port>
			</input>
			<output>
				<port id="2" precision="FP16">
					<dim>6144</dim>
					<dim>1024</dim>
				</port>
			</output>
		</layer>
		<layer id="47" name="self.model.model.language_model.layers.0.linear_attn.in_proj_qkv.weight/fq_weights_1/convert" type="Convert" version="opset1">
			<data destination_type="f32" />
			<input>
				<port id="0" precision="FP16">
					<dim>6144</dim>
					<dim>1024</dim>
				</port>
			</input>
			<output>
				<port id="1" precision="FP32">
					<dim>6144</dim>
					<dim>1024</dim>
				</port>
			</output>
		</layer>
		<layer id="48" name="__module.model.model.language_model.layers.0.linear_attn.in_proj_qkv/ov_ext::linear/MatMul" type="MatMul" version="opset1">
			<data transpose_a="false" transpose_b="true" />
			<input>
				<port id="0" precision="FP32">
					<dim>-1</dim>
					<dim>-1</dim>
					<dim>1024</dim>
				</port>
				<port id="1" precision="FP32">
					<dim>6144</dim>
					<dim>1024</dim>
				</port>
			</input>
			<output>
				<port id="2" precision="FP32" names="319,mixed_qkv.1">
					<dim>-1</dim>
					<dim>-1</dim>
					<dim>6144</dim>
				</port>
			</output>
		</layer>
		<layer id="49" name="__module.model.model.language_model.layers.0.linear_attn/aten::transpose/Constant" type="Const" version="opset1">
			<data element_type="i32" shape="3" offset="3273296" size="12" />
			<output>
				<port id="0" precision="I32">
					<dim>3</dim>
				</port>
			</output>
		</layer>
		<layer id="50" name="__module.model.model.language_model.layers.0.linear_attn/aten::transpose/Transpose" type="Transpose" version="opset1">
			<input>
				<port id="0" precision="FP32">
					<dim>-1</dim>
					<dim>-1</dim>
					<dim>6144</dim>
				</port>
				<port id="1" precision="I32">
					<dim>3</dim>
				</port>
			</input>
			<output>
				<port id="2" precision="FP32" names="320,input_embeds.1">
					<dim>-1</dim>
					<dim>6144</dim>
					<dim>-1</dim>
				</port>
			</output>
		</layer>
		<layer id="51" name="__module.model.model.language_model.layers.0.linear_attn/aten::cat/Concat" type="Concat" version="opset1">
			<data axis="-1" />
			<input>
				<port id="0" precision="FP32">
					<dim>-1</dim>
					<dim>6144</dim>
					<dim>4</dim>
				</port>
				<port id="1" precision="FP32">
					<dim>-1</dim>
					<dim>6144</dim>
					<dim>-1</dim>
				</port>
			</input>
			<output>
				<port id="2" precision="FP32" names="334,335,348,349,input_embeds_new.1">
					<dim>-1</dim>
					<dim>6144</dim>
					<dim>-1</dim>
				</port>
			</output>
		</layer>
		<layer id="52" name="__module.model.model.language_model.layers.0.linear_attn/aten::_convolution/Reshape" type="Const" version="opset1">
			<data element_type="u8" shape="6144, 1, 1, 4" offset="3273308" size="24576" />
			<output>
				<port id="0" precision="U8">
					<dim>6144</dim>
					<dim>1</dim>
					<dim>1</dim>
					<dim>4</dim>
				</port>
			</output>
		</layer>
		<layer id="53" name="Convert_1003371" type="Convert" version="opset1">
			<data destination_type="f16" />
			<input>
				<port id="0" precision="U8">
					<dim>6144</dim>
					<dim>1</dim>
					<dim>1</dim>
					<dim>4</dim>
				</port>
			</input>
			<output>
				<port id="1" precision="FP16">
					<dim>6144</dim>
					<dim>1</dim>
					<dim>1</dim>
					<dim>4</dim>
				</port>
			</output>
		</layer>
		<layer id="54" name="__module.model.model.language_model.layers.0.linear_attn/aten::_convolution/Reshape/zero_point" type="Const" version="opset1">
			<data element_type="u8" shape="6144, 1, 1, 1" offset="3297884" size="6144" />
			<output>
				<port id="0" precision="U8">
					<dim>6144</dim>
					<dim>1</dim>
					<dim>1</dim>
					<dim>1</dim>
				</port>
			</output>
		</layer>
		<layer id="55" name="Convert_1003374" type="Convert" version="opset1">
			<data destination_type="f16" />
			<input>
				<port id="0" precision="U8">
					<dim>6144</dim>
					<dim>1</dim>
					<dim>1</dim>
					<dim>1</dim>
				</port>
			</input>
			<output>
				<port id="1" precision="FP16">
					<dim>6144</dim>
					<dim>1</dim>
					<dim>1</dim>
					<dim>1</dim>
				</port>
			</output>
		</layer>
		<layer id="56" name="__module.model.model.language_model.layers.0.linear_attn/aten::_convolution/Reshape/zero_point/subtract" type="Subtract" version="opset1">
			<data auto_broadcast="numpy" />
			<input>
				<port id="0" precision="FP16">
					<dim>6144</dim>
					<dim>1</dim>
					<dim>1</dim>
					<dim>4</dim>
				</port>
				<port id="1" precision="FP16">
					<dim>6144</dim>
					<dim>1</dim>
					<dim>1</dim>
					<dim>1</dim>
				</port>
			</input>
			<output>
				<port id="2" precision="FP16">
					<dim>6144</dim>
					<dim>1</dim>
					<dim>1</dim>
					<dim>4</dim>
				</port>
			</output>
		</layer>
		<layer id="57" name="__module.model.model.language_model.layers.0.linear_attn/aten::_convolution/Reshape/scale" type="Const" version="opset1">
			<data element_type="f16" shape="6144, 1, 1, 1" offset="3304028" size="12288" />
			<output>
				<port id="0" precision="FP16">
					<dim>6144</dim>
					<dim>1</dim>
					<dim>1</dim>
					<dim>1</dim>
				</port>
			</output>
		</layer>
		<layer id="58" name="__module.model.model.language_model.layers.0.linear_attn/aten::_convolution/Reshape/fq_weights_1" type="Multiply" version="opset1">
			<data auto_broadcast="numpy" />
			<input>
				<port id="0" precision="FP16">
					<dim>6144</dim>
					<dim>1</dim>
					<dim>1</dim>
					<dim>4</dim>
				</port>
				<port id="1" precision="FP16">
					<dim>6144</dim>
					<dim>1</dim>
					<dim>1</dim>
					<dim>1</dim>
				</port>
			</input>
			<output>
				<port id="2" precision="FP16">
					<dim>6144</dim>
					<dim>1</dim>
					<dim>1</dim>
					<dim>4</dim>
				</port>
			</output>
		</layer>
		<layer id="59" name="__module.model.model.language_model.layers.0.linear_attn/aten::_convolution/Reshape/fq_weights_1/convert" type="Convert" version="opset1">
			<data destination_type="f32" />
			<input>
				<port id="0" precision="FP16">
					<dim>6144</dim>
					<dim>1</dim>
					<dim>1</dim>
					<dim>4</dim>
				</port>
			</input>
			<output>
				<port id="1" precision="FP32">
					<dim>6144</dim>
					<dim>1</dim>
					<dim>1</dim>
					<dim>4</dim>
				</port>
			</output>
		</layer>
		<layer id="60" name="__module.model.model.language_model.layers.0.linear_attn/aten::_convolution/GroupConvolution" type="GroupConvolution" version="opset1">
			<data strides="1" pads_begin="0" pads_end="0" dilations="1" auto_pad="explicit" />
			<input>
				<port id="0" precision="FP32">
					<dim>-1</dim>
					<dim>6144</dim>
					<dim>-1</dim>
				</port>
				<port id="1" precision="FP32">
					<dim>6144</dim>
					<dim>1</dim>
					<dim>1</dim>
					<dim>4</dim>
				</port>
			</input>
			<output>
				<port id="2" precision="FP32" names="340,343,344,conv_out.1">
					<dim>-1</dim>
					<dim>6144</dim>
					<dim>-1</dim>
				</port>
			</output>
		</layer>
		<layer id="61" name="ShapeOf_108824" type="ShapeOf" version="opset3">
			<data output_type="i64" />
			<input>
				<port id="0" precision="FP32">
					<dim>-1</dim>
					<dim>6144</dim>
					<dim>-1</dim>
				</port>
			</input>
			<output>
				<port id="1" precision="I64">
					<dim>3</dim>
				</port>
			</output>
		</layer>
		<layer id="62" name="Constant_108825" type="Const" version="opset1">
			<data element_type="i64" shape="1" offset="12" size="8" />
			<output>
				<port id="0" precision="I64">
					<dim>1</dim>
				</port>
			</output>
		</layer>
		<layer id="63" name="Constant_108826" type="Const" version="opset1">
			<data element_type="i64" shape="" offset="4" size="8" />
			<output>
				<port id="0" precision="I64" />
			</output>
		</layer>
		<layer id="64" name="Gather_108827" type="Gather" version="opset8">
			<data batch_dims="0" />
			<input>
				<port id="0" precision="I64">
					<dim>3</dim>
				</port>
				<port id="1" precision="I64">
					<dim>1</dim>
				</port>
				<port id="2" precision="I64" />
			</input>
			<output>
				<port id="3" precision="I64" names="1133,1335,1537,1937,2139,216,2341,2741,2943,3145,329,3545,3747,3949,4349,4551,4753,531,733">
					<dim>1</dim>
				</port>
			</output>
		</layer>
		<layer id="65" name="__module.model.model.language_model.layers.0.linear_attn/aten::neg/Constant" type="Const" version="opset1">
			<data element_type="i32" shape="" offset="3316316" size="4" />
			<output>
				<port id="0" precision="I32" />
			</output>
		</layer>
		<layer id="66" name="__module.model.model.language_model.layers.0.linear_attn/aten::neg/ConvertLike" type="Convert" version="opset1">
			<data destination_type="i64" />
			<input>
				<port id="0" precision="I32" />
			</input>
			<output>
				<port id="1" precision="I64" />
			</output>
		</layer>
		<layer id="67" name="Constant_59215" type="Const" version="opset1">
			<data element_type="i64" shape="1" offset="564" size="8" />
			<output>
				<port id="0" precision="I64">
					<dim>1</dim>
				</port>
			</output>
		</layer>
		<layer id="68" name="Reshape_80451" type="Reshape" version="opset1">
			<data special_zero="false" />
			<input>
				<port id="0" precision="I64" />
				<port id="1" precision="I64">
					<dim>1</dim>
				</port>
			</input>
			<output>
				<port id="2" precision="I64">
					<dim>1</dim>
				</port>
			</output>
		</layer>
		<layer id="69" name="__module.model.model.language_model.layers.0.linear_attn/aten::neg/Multiply" type="Multiply" version="opset1">
			<data auto_broadcast="numpy" />
			<input>
				<port id="0" precision="I64">
					<dim>1</dim>
				</port>
				<port id="1" precision="I64">
					<dim>1</dim>
				</port>
			</input>
			<output>
				<port id="2" precision="I64" names="341,342">
					<dim>1</dim>
				</port>
			</output>
		</layer>
		<layer id="70" name="Constant_696" type="Const" version="opset1">
			<data element_type="i64" shape="1" offset="3316320" size="8" />
			<output>
				<port id="0" precision="I64">
					<dim>1</dim>
				</port>
			</output>
		</layer>
		<layer id="71" name="Constant_698" type="Const" version="opset1">
			<data element_type="i64" shape="1" offset="3316328" size="8" />
			<output>
				<port id="0" precision="I64">
					<dim>1</dim>
				</port>
			</output>
		</layer>
		<layer id="72" name="Constant_693" type="Const" version="opset1">
			<data element_type="i64" shape="1" offset="12" size="8" />
			<output>
				<port id="0" precision="I64">
					<dim>1</dim>
				</port>
			</output>
		</layer>
		<layer id="73" name="__module.model.model.language_model.layers.0.linear_attn/aten::slice/Slice_2" type="Slice" version="opset8">
			<input>
				<port id="0" precision="FP32">
					<dim>-1</dim>
					<dim>6144</dim>
					<dim>-1</dim>
				</port>
				<port id="1" precision="I64">
					<dim>1</dim>
				</port>
				<port id="2" precision="I64">
					<dim>1</dim>
				</port>
				<port id="3" precision="I64">
					<dim>1</dim>
				</port>
				<port id="4" precision="I64">
					<dim>1</dim>
				</port>
			</input>
			<output>
				<port id="5" precision="FP32" names="345,input.1">
					<dim>-1</dim>
					<dim>6144</dim>
					<dim>-1</dim>
				</port>
			</output>
		</layer>
		<layer id="74" name="__module.model.model.language_model.layers.0.linear_attn/aten::silu/Swish" type="Swish" version="opset4">
			<input>
				<port id="0" precision="FP32">
					<dim>-1</dim>
					<dim>6144</dim>
					<dim>-1</dim>
				</port>
			</input>
			<output>
				<port id="1" precision="FP32" names="351,mixed_qkv.3">
					<dim>-1</dim>
					<dim>6144</dim>
					<dim>-1</dim>
				</port>
			</output>
		</layer>
		<layer id="75" name="__module.model.model.language_model.layers.0.linear_attn/aten::transpose/Constant_1" type="Const" version="opset1">
			<data element_type="i32" shape="3" offset="3273296" size="12" />
			<output>
				<port id="0" precision="I32">
					<dim>3</dim>
				</port>
			</output>
		</layer>
		<layer id="76" name="__module.model.model.language_model.layers.0.linear_attn/aten::transpose/Transpose_1" type="Transpose" version="opset1">
			<input>
				<port id="0" precision="FP32">
					<dim>-1</dim>
					<dim>6144</dim>
					<dim>-1</dim>
				</port>
				<port id="1" precision="I32">
					<dim>3</dim>
				</port>
			</input>
			<output>
				<port id="2" precision="FP32" names="352">
					<dim>-1</dim>
					<dim>-1</dim>
					<dim>6144</dim>
				</port>
			</output>
		</layer>
		<layer id="77" name="132" type="Const" version="opset1">
			<data element_type="i64" shape="" offset="564" size="8" />
			<output>
				<port id="0" precision="I64" names="132" />
			</output>
		</layer>
		<layer id="78" name="Constant_775" type="Const" version="opset1">
			<data element_type="i64" shape="3" offset="3316336" size="24" />
			<output>
				<port id="0" precision="I64">
					<dim>3</dim>
				</port>
			</output>
		</layer>
		<layer id="79" name="__module.model.model.language_model.layers.0.linear_attn/aten::split_with_sizes/VariadicSplit" type="VariadicSplit" version="opset1">
			<input>
				<port id="0" precision="FP32">
					<dim>-1</dim>
					<dim>-1</dim>
					<dim>6144</dim>
				</port>
				<port id="1" precision="I64" />
				<port id="2" precision="I64">
					<dim>3</dim>
				</port>
			</input>
			<output>
				<port id="3" precision="FP32" names="355,query.1">
					<dim>-1</dim>
					<dim>-1</dim>
					<dim>2048</dim>
				</port>
				<port id="4" precision="FP32" names="356,key.1">
					<dim>-1</dim>
					<dim>-1</dim>
					<dim>2048</dim>
				</port>
				<port id="5" precision="FP32" names="357,value.1">
					<dim>-1</dim>
					<dim>-1</dim>
					<dim>2048</dim>
				</port>
			</output>
		</layer>
		<layer id="80" name="__module.model.model.language_model.layers.0.linear_attn/prim::ListConstruct/SequenceMark_1" type="Const" version="opset1">
			<data element_type="i64" shape="4" offset="3316360" size="32" />
			<output>
				<port id="0" precision="I64">
					<dim>4</dim>
				</port>
			</output>
		</layer>
		<layer id="81" name="__module.model.model.language_model.layers.0.linear_attn/aten::reshape/Reshape_1" type="Reshape" version="opset1">
			<data special_zero="true" />
			<input>
				<port id="0" precision="FP32">
					<dim>-1</dim>
					<dim>-1</dim>
					<dim>2048</dim>
				</port>
				<port id="1" precision="I64">
					<dim>4</dim>
				</port>
			</input>
			<output>
				<port id="2" precision="FP32" names="361,x.3">
					<dim>-1</dim>
					<dim>-1</dim>
					<dim>16</dim>
					<dim>128</dim>
				</port>
			</output>
		</layer>
		<layer id="82" name="Constant_103897" type="Const" version="opset1">
			<data element_type="f32" shape="1, 1, 1, 1" offset="556" size="4" />
			<output>
				<port id="0" precision="FP32">
					<dim>1</dim>
					<dim>1</dim>
					<dim>1</dim>
					<dim>1</dim>
				</port>
			</output>
		</layer>
		<layer id="83" name="__module.model.model.language_model.layers.0.linear_attn/aten::mul/Multiply" type="Multiply" version="opset1">
			<data auto_broadcast="numpy" />
			<input>
				<port id="0" precision="FP32">
					<dim>-1</dim>
					<dim>-1</dim>
					<dim>16</dim>
					<dim>128</dim>
				</port>
				<port id="1" precision="FP32">
					<dim>-1</dim>
					<dim>-1</dim>
					<dim>16</dim>
					<dim>128</dim>
				</port>
			</input>
			<output>
				<port id="2" precision="FP32" names="378">
					<dim>-1</dim>
					<dim>-1</dim>
					<dim>16</dim>
					<dim>128</dim>
				</port>
			</output>
		</layer>
		<layer id="84" name="Constant_865" type="Const" version="opset1">
			<data element_type="i64" shape="1" offset="564" size="8" />
			<output>
				<port id="0" precision="I64">
					<dim>1</dim>
				</port>
			</output>
		</layer>
		<layer id="85" name="__module.model.model.language_model.layers.0.linear_attn/aten::sum/ReduceSum" type="ReduceSum" version="opset1">
			<data keep_dims="true" />
			<input>
				<port id="0" precision="FP32">
					<dim>-1</dim>
					<dim>-1</dim>
					<dim>16</dim>
					<dim>128</dim>
				</port>
				<port id="1" precision="I64">
					<dim>1</dim>
				</port>
			</input>
			<output>
				<port id="2" precision="FP32" names="380">
					<dim>-1</dim>
					<dim>-1</dim>
					<dim>16</dim>
					<dim>1</dim>
				</port>
			</output>
		</layer>
		<layer id="86" name="Constant_103896" type="Const" version="opset1">
			<data element_type="f32" shape="1, 1, 1, 1" offset="572" size="4" />
			<output>
				<port id="0" precision="FP32">
					<dim>1</dim>
					<dim>1</dim>
					<dim>1</dim>
					<dim>1</dim>
				</port>
			</output>
		</layer>
		<layer id="87" name="__module.model.model.language_model.layers.0.linear_attn/aten::add/Add" type="Add" version="opset1">
			<data auto_broadcast="numpy" />
			<input>
				<port id="0" precision="FP32">
					<dim>-1</dim>
					<dim>-1</dim>
					<dim>16</dim>
					<dim>1</dim>
				</port>
				<port id="1" precision="FP32">
					<dim>1</dim>
					<dim>1</dim>
					<dim>1</dim>
					<dim>1</dim>
				</port>
			</input>
			<output>
				<port id="2" precision="FP32" names="381">
					<dim>-1</dim>
					<dim>-1</dim>
					<dim>16</dim>
					<dim>1</dim>
				</port>
			</output>
		</layer>
		<layer id="88" name="__module.model.model.language_model.layers.0.linear_attn/aten::rsqrt/Sqrt" type="Sqrt" version="opset1">
			<input>
				<port id="0" precision="FP32">
					<dim>-1</dim>
					<dim>-1</dim>
					<dim>16</dim>
					<dim>1</dim>
				</port>
			</input>
			<output>
				<port id="1" precision="FP32">
					<dim>-1</dim>
					<dim>-1</dim>
					<dim>16</dim>
					<dim>1</dim>
				</port>
			</output>
		</layer>
		<layer id="89" name="__module.model.model.language_model.layers.0.linear_attn/aten::rsqrt/Divide" type="Divide" version="opset1">
			<data auto_broadcast="numpy" m_pythondiv="true" />
			<input>
				<port id="0" precision="FP32">
					<dim>1</dim>
					<dim>1</dim>
					<dim>1</dim>
					<dim>1</dim>
				</port>
				<port id="1" precision="FP32">
					<dim>-1</dim>
					<dim>-1</dim>
					<dim>16</dim>
					<dim>1</dim>
				</port>
			</input>
			<output>
				<port id="2" precision="FP32" names="382,inv_norm.1">
					<dim>-1</dim>
					<dim>-1</dim>
					<dim>16</dim>
					<dim>1</dim>
				</port>
			</output>
		</layer>
		<layer id="90" name="__module.model.model.language_model.layers.0.linear_attn/aten::mul/Multiply_1" type="Multiply" version="opset1">
			<data auto_broadcast="numpy" />
			<input>
				<port id="0" precision="FP32">
					<dim>-1</dim>
					<dim>-1</dim>
					<dim>16</dim>
					<dim>128</dim>
				</port>
				<port id="1" precision="FP32">
					<dim>-1</dim>
					<dim>-1</dim>
					<dim>16</dim>
					<dim>1</dim>
				</port>
			</input>
			<output>
				<port id="2" precision="FP32" names="383,x.7">
					<dim>-1</dim>
					<dim>-1</dim>
					<dim>16</dim>
					<dim>128</dim>
				</port>
			</output>
		</layer>
		<layer id="91" name="__module.model.model.language_model.layers.0.linear_attn/aten::transpose/Constant_3" type="Const" version="opset1">
			<data element_type="i32" shape="4" offset="3316392" size="16" />
			<output>
				<port id="0" precision="I32">
					<dim>4</dim>
				</port>
			</output>
		</layer>
		<layer id="92" name="__module.model.model.language_model.layers.0.linear_attn/aten::to/Convert_2" type="Transpose" version="opset1">
			<input>
				<port id="0" precision="FP32">
					<dim>-1</dim>
					<dim>-1</dim>
					<dim>16</dim>
					<dim>128</dim>
				</port>
				<port id="1" precision="I32">
					<dim>4</dim>
				</port>
			</input>
			<output>
				<port id="2" precision="FP32" names="392,query.3">
					<dim>-1</dim>
					<dim>16</dim>
					<dim>-1</dim>
					<dim>128</dim>
				</port>
			</output>
		</layer>
		<layer id="93" name="ShapeOf_108830" type="ShapeOf" version="opset3">
			<data output_type="i64" />
			<input>
				<port id="0" precision="FP32">
					<dim>-1</dim>
					<dim>16</dim>
					<dim>-1</dim>
					<dim>128</dim>
				</port>
			</input>
			<output>
				<port id="1" precision="I64">
					<dim>4</dim>
				</port>
			</output>
		</layer>
		<layer id="94" name="Constant_108831" type="Const" version="opset1">
			<data element_type="i64" shape="" offset="12" size="8" />
			<output>
				<port id="0" precision="I64" />
			</output>
		</layer>
		<layer id="95" name="Constant_108832" type="Const" version="opset1">
			<data element_type="i64" shape="" offset="4" size="8" />
			<output>
				<port id="0" precision="I64" />
			</output>
		</layer>
		<layer id="96" name="Gather_108833" type="Gather" version="opset8">
			<data batch_dims="0" />
			<input>
				<port id="0" precision="I64">
					<dim>4</dim>
				</port>
				<port id="1" precision="I64" />
				<port id="2" precision="I64" />
			</input>
			<output>
				<port id="3" precision="I64" />
			</output>
		</layer>
		<layer id="97" name="Convert_108834" type="Convert" version="opset1">
			<data destination_type="i32" />
			<input>
				<port id="0" precision="I64" />
			</input>
			<output>
				<port id="1" precision="I32" />
			</output>
		</layer>
		<layer id="98" name="Constant_1166" type="Const" version="opset1">
			<data element_type="boolean" shape="" offset="3316408" size="1" />
			<output>
				<port id="0" precision="BOOL" />
			</output>
		</layer>
		<layer id="99" name="109" type="Const" version="opset1">
			<data element_type="i64" shape="" offset="3316409" size="8" />
			<output>
				<port id="0" precision="I64" names="109" />
			</output>
		</layer>
		<layer id="100" name="__module.model.model.language_model.layers.0.linear_attn/aten::size/Constant_5" type="Const" version="opset1">
			<data element_type="i32" shape="" offset="0" size="4" />
			<output>
				<port id="0" precision="I32" />
			</output>
		</layer>
		<layer id="101" name="__module.model.model.language_model.layers.0.linear_attn/aten::size/Gather_5" type="Gather" version="opset8">
			<data batch_dims="0" />
			<input>
				<port id="0" precision="I64">
					<dim>4</dim>
				</port>
				<port id="1" precision="I64" />
				<port id="2" precision="I32" />
			</input>
			<output>
				<port id="3" precision="I64" names="405" />
			</output>
		</layer>
		<layer id="102" name="__module.model.model.language_model.layers.0.linear_attn/aten::pow/Convert" type="Convert" version="opset1">
			<data destination_type="f32" />
			<input>
				<port id="0" precision="I64" />
			</input>
			<output>
				<port id="1" precision="FP32" />
			</output>
		</layer>
		<layer id="103" name="121" type="Const" version="opset1">
			<data element_type="f32" shape="" offset="3316417" size="4" />
			<output>
				<port id="0" precision="FP32" names="121" />
			</output>
		</layer>
		<layer id="104" name="__module.model.model.language_model.layers.0.linear_attn/aten::pow/Power" type="Power" version="opset1">
			<data auto_broadcast="numpy" />
			<input>
				<port id="0" precision="FP32" />
				<port id="1" precision="FP32" />
			</input>
			<output>
				<port id="2" precision="FP32" names="407" />
			</output>
		</layer>
		<layer id="105" name="__module.model.model.language_model.layers.0.linear_attn/aten::mul/Multiply_3" type="Divide" version="opset1">
			<data auto_broadcast="numpy" m_pythondiv="true" />
			<input>
				<port id="0" precision="FP32">
					<dim>-1</dim>
					<dim>16</dim>
					<dim>-1</dim>
					<dim>128</dim>
				</port>
				<port id="1" precision="FP32" />
			</input>
			<output>
				<port id="2" precision="FP32" names="410,query.5">
					<dim>-1</dim>
					<dim>16</dim>
					<dim>-1</dim>
					<dim>128</dim>
				</port>
			</output>
		</layer>
		<layer id="106" name="__module.model.model.language_model.layers.0.linear_attn/prim::ListConstruct/SequenceMark_2" type="Const" version="opset1">
			<data element_type="i64" shape="4" offset="3316360" size="32" />
			<output>
				<port id="0" precision="I64">
					<dim>4</dim>
				</port>
			</output>
		</layer>
		<layer id="107" name="__module.model.model.language_model.layers.0.linear_attn/aten::reshape/Reshape_2" type="Reshape" version="opset1">
			<data special_zero="true" />
			<input>
				<port id="0" precision="FP32">
					<dim>-1</dim>
					<dim>-1</dim>
					<dim>2048</dim>
				</port>
				<port id="1" precision="I64">
					<dim>4</dim>
				</port>
			</input>
			<output>
				<port id="2" precision="FP32" names="365,x.5">
					<dim>-1</dim>
					<dim>-1</dim>
					<dim>16</dim>
					<dim>128</dim>
				</port>
			</output>
		</layer>
		<layer id="108" name="Constant_103899" type="Const" version="opset1">
			<data element_type="f32" shape="1, 1, 1, 1" offset="556" size="4" />
			<output>
				<port id="0" precision="FP32">
					<dim>1</dim>
					<dim>1</dim>
					<dim>1</dim>
					<dim>1</dim>
				</port>
			</output>
		</layer>
		<layer id="109" name="__module.model.model.language_model.layers.0.linear_attn/aten::mul/Multiply_4" type="Multiply" version="opset1">
			<data auto_broadcast="numpy" />
			<input>
				<port id="0" precision="FP32">
					<dim>-1</dim>
					<dim>-1</dim>
					<dim>16</dim>
					<dim>128</dim>
				</port>
				<port id="1" precision="FP32">
					<dim>-1</dim>
					<dim>-1</dim>
					<dim>16</dim>
					<dim>128</dim>
				</port>
			</input>
			<output>
				<port id="2" precision="FP32" names="384">
					<dim>-1</dim>
					<dim>-1</dim>
					<dim>16</dim>
					<dim>128</dim>
				</port>
			</output>
		</layer>
		<layer id="110" name="Constant_896" type="Const" version="opset1">
			<data element_type="i64" shape="1" offset="564" size="8" />
			<output>
				<port id="0" precision="I64">
					<dim>1</dim>
				</port>
			</output>
		</layer>
		<layer id="111" name="__module.model.model.language_model.layers.0.linear_attn/aten::sum/ReduceSum_1" type="ReduceSum" version="opset1">
			<data keep_dims="true" />
			<input>
				<port id="0" precision="FP32">
					<dim>-1</dim>
					<dim>-1</dim>
					<dim>16</dim>
					<dim>128</dim>
				</port>
				<port id="1" precision="I64">
					<dim>1</dim>
				</port>
			</input>
			<output>
				<port id="2" precision="FP32" names="386">
					<dim>-1</dim>
					<dim>-1</dim>
					<dim>16</dim>
					<dim>1</dim>
				</port>
			</output>
		</layer>
		<layer id="112" name="Constant_103898" type="Const" version="opset1">
			<data element_type="f32" shape="1, 1, 1, 1" offset="572" size="4" />
			<output>
				<port id="0" precision="FP32">
					<dim>1</dim>
					<dim>1</dim>
					<dim>1</dim>
					<dim>1</dim>
				</port>
			</output>
		</layer>
		<layer id="113" name="__module.model.model.language_model.layers.0.linear_attn/aten::add/Add_1" type="Add" version="opset1">
			<data auto_broadcast="numpy" />
			<input>
				<port id="0" precision="FP32">
					<dim>-1</dim>
					<dim>-1</dim>
					<dim>16</dim>
					<dim>1</dim>
				</port>
				<port id="1" precision="FP32">
					<dim>1</dim>
					<dim>1</dim>
					<dim>1</dim>
					<dim>1</dim>
				</port>
			</input>
			<output>
				<port id="2" precision="FP32" names="387">
					<dim>-1</dim>
					<dim>-1</dim>
					<dim>16</dim>
					<dim>1</dim>
				</port>
			</output>
		</layer>
		<layer id="114" name="__module.model.model.language_model.layers.0.linear_attn/aten::rsqrt/Sqrt_1" type="Sqrt" version="opset1">
			<input>
				<port id="0" precision="FP32">
					<dim>-1</dim>
					<dim>-1</dim>
					<dim>16</dim>
					<dim>1</dim>
				</port>
			</input>
			<output>
				<port id="1" precision="FP32">
					<dim>-1</dim>
					<dim>-1</dim>
					<dim>16</dim>
					<dim>1</dim>
				</port>
			</output>
		</layer>
		<layer id="115" name="__module.model.model.language_model.layers.0.linear_attn/aten::rsqrt/Divide_1" type="Divide" version="opset1">
			<data auto_broadcast="numpy" m_pythondiv="true" />
			<input>
				<port id="0" precision="FP32">
					<dim>1</dim>
					<dim>1</dim>
					<dim>1</dim>
					<dim>1</dim>
				</port>
				<port id="1" precision="FP32">
					<dim>-1</dim>
					<dim>-1</dim>
					<dim>16</dim>
					<dim>1</dim>
				</port>
			</input>
			<output>
				<port id="2" precision="FP32" names="388,inv_norm.3">
					<dim>-1</dim>
					<dim>-1</dim>
					<dim>16</dim>
					<dim>1</dim>
				</port>
			</output>
		</layer>
		<layer id="116" name="__module.model.model.language_model.layers.0.linear_attn/aten::mul/Multiply_5" type="Multiply" version="opset1">
			<data auto_broadcast="numpy" />
			<input>
				<port id="0" precision="FP32">
					<dim>-1</dim>
					<dim>-1</dim>
					<dim>16</dim>
					<dim>128</dim>
				</port>
				<port id="1" precision="FP32">
					<dim>-1</dim>
					<dim>-1</dim>
					<dim>16</dim>
					<dim>1</dim>
				</port>
			</input>
			<output>
				<port id="2" precision="FP32" names="389,x.9">
					<dim>-1</dim>
					<dim>-1</dim>
					<dim>16</dim>
					<dim>128</dim>
				</port>
			</output>
		</layer>
		<layer id="117" name="__module.model.model.language_model.layers.0.linear_attn/aten::transpose/Constant_4" type="Const" version="opset1">
			<data element_type="i32" shape="4" offset="3316392" size="16" />
			<output>
				<port id="0" precision="I32">
					<dim>4</dim>
				</port>
			</output>
		</layer>
		<layer id="118" name="__module.model.model.language_model.layers.0.linear_attn/aten::to/Convert_3" type="Transpose" version="opset1">
			<input>
				<port id="0" precision="FP32">
					<dim>-1</dim>
					<dim>-1</dim>
					<dim>16</dim>
					<dim>128</dim>
				</port>
				<port id="1" precision="I32">
					<dim>4</dim>
				</port>
			</input>
			<output>
				<port id="2" precision="FP32" names="395,key.3">
					<dim>-1</dim>
					<dim>16</dim>
					<dim>-1</dim>
					<dim>128</dim>
				</port>
			</output>
		</layer>
		<layer id="119" name="__module.model.model.language_model.layers.0.linear_attn/prim::ListConstruct/SequenceMark" type="Const" version="opset1">
			<data element_type="i64" shape="4" offset="3316360" size="32" />
			<output>
				<port id="0" precision="I64">
					<dim>4</dim>
				</port>
			</output>
		</layer>
		<layer id="120" name="__module.model.model.language_model.layers.0.linear_attn/aten::reshape/Reshape" type="Reshape" version="opset1">
			<data special_zero="true" />
			<input>
				<port id="0" precision="FP32">
					<dim>-1</dim>
					<dim>-1</dim>
					<dim>2048</dim>
				</port>
				<port id="1" precision="I64">
					<dim>4</dim>
				</port>
			</input>
			<output>
				<port id="2" precision="FP32" names="369,x.11">
					<dim>-1</dim>
					<dim>-1</dim>
					<dim>16</dim>
					<dim>128</dim>
				</port>
			</output>
		</layer>
		<layer id="121" name="__module.model.model.language_model.layers.0.linear_attn/aten::transpose/Constant_2" type="Const" version="opset1">
			<data element_type="i32" shape="4" offset="3316392" size="16" />
			<output>
				<port id="0" precision="I32">
					<dim>4</dim>
				</port>
			</output>
		</layer>
		<layer id="122" name="__module.model.model.language_model.layers.0.linear_attn/aten::to/Convert_1" type="Transpose" version="opset1">
			<input>
				<port id="0" precision="FP32">
					<dim>-1</dim>
					<dim>-1</dim>
					<dim>16</dim>
					<dim>128</dim>
				</port>
				<port id="1" precision="I32">
					<dim>4</dim>
				</port>
			</input>
			<output>
				<port id="2" precision="FP32" names="398,value.3">
					<dim>-1</dim>
					<dim>16</dim>
					<dim>-1</dim>
					<dim>128</dim>
				</port>
			</output>
		</layer>
		<layer id="123" name="__module.model.model.language_model.layers.0.linear_attn/aten::exp/Exp" type="Const" version="opset1">
			<data element_type="f32" shape="16" offset="3316421" size="64" />
			<output>
				<port id="0" precision="FP32" names="372">
					<dim>16</dim>
				</port>
			</output>
		</layer>
		<layer id="124" name="__module.model.model.language_model.layers.0.linear_attn/aten::neg/Constant_1" type="Const" version="opset1">
			<data element_type="i32" shape="" offset="3316316" size="4" />
			<output>
				<port id="0" precision="I32" />
			</output>
		</layer>
		<layer id="125" name="__module.model.model.language_model.layers.0.linear_attn/aten::neg/ConvertLike_1" type="Convert" version="opset1">
			<data destination_type="f32" />
			<input>
				<port id="0" precision="I32" />
			</input>
			<output>
				<port id="1" precision="FP32" />
			</output>
		</layer>
		<layer id="126" name="__module.model.model.language_model.layers.0.linear_attn/aten::neg/Multiply_1" type="Multiply" version="opset1">
			<data auto_broadcast="numpy" />
			<input>
				<port id="0" precision="FP32">
					<dim>16</dim>
				</port>
				<port id="1" precision="FP32" />
			</input>
			<output>
				<port id="2" precision="FP32" names="373">
					<dim>16</dim>
				</port>
			</output>
		</layer>
		<layer id="127" name="self.model.model.language_model.layers.0.linear_attn.in_proj_a.weight" type="Const" version="opset1">
			<data element_type="u4" shape="16, 8, 128" offset="3316485" size="8192" />
			<output>
				<port id="0" precision="U4">
					<dim>16</dim>
					<dim>8</dim>
					<dim>128</dim>
				</port>
			</output>
		</layer>
		<layer id="128" name="Convert_1102177" type="Convert" version="opset1">
			<data destination_type="f16" />
			<input>
				<port id="0" precision="U4">
					<dim>16</dim>
					<dim>8</dim>
					<dim>128</dim>
				</port>
			</input>
			<output>
				<port id="1" precision="FP16">
					<dim>16</dim>
					<dim>8</dim>
					<dim>128</dim>
				</port>
			</output>
		</layer>
		<layer id="129" name="self.model.model.language_model.layers.0.linear_attn.in_proj_a.weight/zero_point" type="Const" version="opset1">
			<data element_type="u4" shape="16, 8, 1" offset="3324677" size="64" />
			<output>
				<port id="0" precision="U4">
					<dim>16</dim>
					<dim>8</dim>
					<dim>1</dim>
				</port>
			</output>
		</layer>
		<layer id="130" name="Convert_1102180" type="Convert" version="opset1">
			<data destination_type="f16" />
			<input>
				<port id="0" precision="U4">
					<dim>16</dim>
					<dim>8</dim>
					<dim>1</dim>
				</port>
			</input>
			<output>
				<port id="1" precision="FP16">
					<dim>16</dim>
					<dim>8</dim>
					<dim>1</dim>
				</port>
			</output>
		</layer>
		<layer id="131" name="self.model.model.language_model.layers.0.linear_attn.in_proj_a.weight/zero_point/subtract" type="Subtract" version="opset1">
			<data auto_broadcast="numpy" />
			<input>
				<port id="0" precision="FP16">
					<dim>16</dim>
					<dim>8</dim>
					<dim>128</dim>
				</port>
				<port id="1" precision="FP16">
					<dim>16</dim>
					<dim>8</dim>
					<dim>1</dim>
				</port>
			</input>
			<output>
				<port id="2" precision="FP16">
					<dim>16</dim>
					<dim>8</dim>
					<dim>128</dim>
				</port>
			</output>
		</layer>
		<layer id="132" name="self.model.model.language_model.layers.0.linear_attn.in_proj_a.weight/scale" type="Const" version="opset1">
			<data element_type="f16" shape="16, 8, 1" offset="3324741" size="256" />
			<output>
				<port id="0" precision="FP16">
					<dim>16</dim>
					<dim>8</dim>
					<dim>1</dim>
				</port>
			</output>
		</layer>
		<layer id="133" name="self.model.model.language_model.layers.0.linear_attn.in_proj_a.weight/fq_weights_1" type="Multiply" version="opset1">
			<data auto_broadcast="numpy" />
			<input>
				<port id="0" precision="FP16">
					<dim>16</dim>
					<dim>8</dim>
					<dim>128</dim>
				</port>
				<port id="1" precision="FP16">
					<dim>16</dim>
					<dim>8</dim>
					<dim>1</dim>
				</port>
			</input>
			<output>
				<port id="2" precision="FP16">
					<dim>16</dim>
					<dim>8</dim>
					<dim>128</dim>
				</port>
			</output>
		</layer>
		<layer id="134" name="Constant_1102185" type="Const" version="opset1">
			<data element_type="i64" shape="2" offset="3324997" size="16" />
			<output>
				<port id="0" precision="I64">
					<dim>2</dim>
				</port>
			</output>
		</layer>
		<layer id="135" name="Reshape_1102186" type="Reshape" version="opset1">
			<data special_zero="false" />
			<input>
				<port id="0" precision="FP16">
					<dim>16</dim>
					<dim>8</dim>
					<dim>128</dim>
				</port>
				<port id="1" precision="I64">
					<dim>2</dim>
				</port>
			</input>
			<output>
				<port id="2" precision="FP16">
					<dim>16</dim>
					<dim>1024</dim>
				</port>
			</output>
		</layer>
		<layer id="136" name="self.model.model.language_model.layers.0.linear_attn.in_proj_a.weight/fq_weights_1/convert" type="Convert" version="opset1">
			<data destination_type="f32" />
			<input>
				<port id="0" precision="FP16">
					<dim>16</dim>
					<dim>1024</dim>
				</port>
			</input>
			<output>
				<port id="1" precision="FP32">
					<dim>16</dim>
					<dim>1024</dim>
				</port>
			</output>
		</layer>
		<layer id="137" name="__module.model.model.language_model.layers.0.linear_attn.in_proj_a/ov_ext::linear/MatMul" type="MatMul" version="opset1">
			<data transpose_a="false" transpose_b="true" />
			<input>
				<port id="0" precision="FP32">
					<dim>-1</dim>
					<dim>-1</dim>
					<dim>1024</dim>
				</port>
				<port id="1" precision="FP32">
					<dim>16</dim>
					<dim>1024</dim>
				</port>
			</input>
			<output>
				<port id="2" precision="FP32" names="328,374,a.1,a.3">
					<dim>-1</dim>
					<dim>-1</dim>
					<dim>16</dim>
				</port>
			</output>
		</layer>
		<layer id="138" name="Constant_103900" type="Const" version="opset1">
			<data element_type="f32" shape="1, 1, 16" offset="3325013" size="64" />
			<output>
				<port id="0" precision="FP32">
					<dim>1</dim>
					<dim>1</dim>
					<dim>16</dim>
				</port>
			</output>
		</layer>
		<layer id="139" name="__module.model.model.language_model.layers.0.linear_attn/aten::add/Add_2" type="Add" version="opset1">
			<data auto_broadcast="numpy" />
			<input>
				<port id="0" precision="FP32">
					<dim>-1</dim>
					<dim>-1</dim>
					<dim>16</dim>
				</port>
				<port id="1" precision="FP32">
					<dim>1</dim>
					<dim>1</dim>
					<dim>16</dim>
				</port>
			</input>
			<output>
				<port id="2" precision="FP32" names="375">
					<dim>-1</dim>
					<dim>-1</dim>
					<dim>16</dim>
				</port>
			</output>
		</layer>
		<layer id="140" name="__module.model.model.language_model.layers.0.linear_attn/aten::softplus/SoftPlus" type="SoftPlus" version="opset4">
			<input>
				<port id="0" precision="FP32">
					<dim>-1</dim>
					<dim>-1</dim>
					<dim>16</dim>
				</port>
			</input>
			<output>
				<port id="1" precision="FP32" names="376">
					<dim>-1</dim>
					<dim>-1</dim>
					<dim>16</dim>
				</port>
			</output>
		</layer>
		<layer id="141" name="__module.model.model.language_model.layers.0.linear_attn/aten::mul/Multiply_6" type="Multiply" version="opset1">
			<data auto_broadcast="numpy" />
			<input>
				<port id="0" precision="FP32">
					<dim>16</dim>
				</port>
				<port id="1" precision="FP32">
					<dim>-1</dim>
					<dim>-1</dim>
					<dim>16</dim>
				</port>
			</input>
			<output>
				<port id="2" precision="FP32" names="377,x.15">
					<dim>-1</dim>
					<dim>-1</dim>
					<dim>16</dim>
				</port>
			</output>
		</layer>
		<layer id="142" name="__module.model.model.language_model.layers.0.linear_attn/aten::transpose/Constant_5" type="Const" version="opset1">
			<data element_type="i32" shape="3" offset="3273296" size="12" />
			<output>
				<port id="0" precision="I32">
					<dim>3</dim>
				</port>
			</output>
		</layer>
		<layer id="143" name="__module.model.model.language_model.layers.0.linear_attn/aten::to/Convert_6" type="Transpose" version="opset1">
			<input>
				<port id="0" precision="FP32">
					<dim>-1</dim>
					<dim>-1</dim>
					<dim>16</dim>
				</port>
				<port id="1" precision="I32">
					<dim>3</dim>
				</port>
			</input>
			<output>
				<port id="2" precision="FP32" names="404,g.1">
					<dim>-1</dim>
					<dim>16</dim>
					<dim>-1</dim>
				</port>
			</output>
		</layer>
		<layer id="144" name="self.model.model.language_model.layers.0.linear_attn.in_proj_b.weight" type="Const" version="opset1">
			<data element_type="u4" shape="16, 8, 128" offset="3325077" size="8192" />
			<output>
				<port id="0" precision="U4">
					<dim>16</dim>
					<dim>8</dim>
					<dim>128</dim>
				</port>
			</output>
		</layer>
		<layer id="145" name="Convert_1096973" type="Convert" version="opset1">
			<data destination_type="f16" />
			<input>
				<port id="0" precision="U4">
					<dim>16</dim>
					<dim>8</dim>
					<dim>128</dim>
				</port>
			</input>
			<output>
				<port id="1" precision="FP16">
					<dim>16</dim>
					<dim>8</dim>
					<dim>128</dim>
				</port>
			</output>
		</layer>
		<layer id="146" name="self.model.model.language_model.layers.0.linear_attn.in_proj_b.weight/zero_point" type="Const" version="opset1">
			<data element_type="u4" shape="16, 8, 1" offset="3333269" size="64" />
			<output>
				<port id="0" precision="U4">
					<dim>16</dim>
					<dim>8</dim>
					<dim>1</dim>
				</port>
			</output>
		</layer>
		<layer id="147" name="Convert_1096976" type="Convert" version="opset1">
			<data destination_type="f16" />
			<input>
				<port id="0" precision="U4">
					<dim>16</dim>
					<dim>8</dim>
					<dim>1</dim>
				</port>
			</input>
			<output>
				<port id="1" precision="FP16">
					<dim>16</dim>
					<dim>8</dim>
					<dim>1</dim>
				</port>
			</output>
		</layer>
		<layer id="148" name="self.model.model.language_model.layers.0.linear_attn.in_proj_b.weight/zero_point/subtract" type="Subtract" version="opset1">
			<data auto_broadcast="numpy" />
			<input>
				<port id="0" precision="FP16">
					<dim>16</dim>
					<dim>8</dim>
					<dim>128</dim>
				</port>
				<port id="1" precision="FP16">
					<dim>16</dim>
					<dim>8</dim>
					<dim>1</dim>
				</port>
			</input>
			<output>
				<port id="2" precision="FP16">
					<dim>16</dim>
					<dim>8</dim>
					<dim>128</dim>
				</port>
			</output>
		</layer>
		<layer id="149" name="self.model.model.language_model.layers.0.linear_attn.in_proj_b.weight/scale" type="Const" version="opset1">
			<data element_type="f16" shape="16, 8, 1" offset="3333333" size="256" />
			<output>
				<port id="0" precision="FP16">
					<dim>16</dim>
					<dim>8</dim>
					<dim>1</dim>
				</port>
			</output>
		</layer>
		<layer id="150" name="self.model.model.language_model.layers.0.linear_attn.in_proj_b.weight/fq_weights_1" type="Multiply" version="opset1">
			<data auto_broadcast="numpy" />
			<input>
				<port id="0" precision="FP16">
					<dim>16</dim>
					<dim>8</dim>
					<dim>128</dim>
				</port>
				<port id="1" precision="FP16">
					<dim>16</dim>
					<dim>8</dim>
					<dim>1</dim>
				</port>
			</input>
			<output>
				<port id="2" precision="FP16">
					<dim>16</dim>
					<dim>8</dim>
					<dim>128</dim>
				</port>
			</output>
		</layer>
		<layer id="151" name="Constant_1096981" type="Const" version="opset1">
			<data element_type="i64" shape="2" offset="3324997" size="16" />
			<output>
				<port id="0" precision="I64">
					<dim>2</dim>
				</port>
			</output>
		</layer>
		<layer id="152" name="Reshape_1096982" type="Reshape" version="opset1">
			<data special_zero="false" />
			<input>
				<port id="0" precision="FP16">
					<dim>16</dim>
					<dim>8</dim>
					<dim>128</dim>
				</port>
				<port id="1" precision="I64">
					<dim>2</dim>
				</port>
			</input>
			<output>
				<port id="2" precision="FP16">
					<dim>16</dim>
					<dim>1024</dim>
				</port>
			</output>
		</layer>
		<layer id="153" name="self.model.model.language_model.layers.0.linear_attn.in_proj_b.weight/fq_weights_1/convert" type="Convert" version="opset1">
			<data destination_type="f32" />
			<input>
				<port id="0" precision="FP16">
					<dim>16</dim>
					<dim>1024</dim>
				</port>
			</input>
			<output>
				<port id="1" precision="FP32">
					<dim>16</dim>
					<dim>1024</dim>
				</port>
			</output>
		</layer>
		<layer id="154" name="__module.model.model.language_model.layers.0.linear_attn.in_proj_b/ov_ext::linear/MatMul" type="MatMul" version="opset1">
			<data transpose_a="false" transpose_b="true" />
			<input>
				<port id="0" precision="FP32">
					<dim>-1</dim>
					<dim>-1</dim>
					<dim>1024</dim>
				</port>
				<port id="1" precision="FP32">
					<dim>16</dim>
					<dim>1024</dim>
				</port>
			</input>
			<output>
				<port id="2" precision="FP32" names="326,b.1">
					<dim>-1</dim>
					<dim>-1</dim>
					<dim>16</dim>
				</port>
			</output>
		</layer>
		<layer id="155" name="__module.model.model.language_model.layers.0.linear_attn/aten::sigmoid/Sigmoid" type="Sigmoid" version="opset1">
			<input>
				<port id="0" precision="FP32">
					<dim>-1</dim>
					<dim>-1</dim>
					<dim>16</dim>
				</port>
			</input>
			<output>
				<port id="1" precision="FP32" names="370,x.13">
					<dim>-1</dim>
					<dim>-1</dim>
					<dim>16</dim>
				</port>
			</output>
		</layer>
		<layer id="156" name="__module.model.model.language_model.layers.0.linear_attn/aten::transpose/Constant_6" type="Const" version="opset1">
			<data element_type="i32" shape="3" offset="3273296" size="12" />
			<output>
				<port id="0" precision="I32">
					<dim>3</dim>
				</port>
			</output>
		</layer>
		<layer id="157" name="__module.model.model.language_model.layers.0.linear_attn/aten::to/Convert_7" type="Transpose" version="opset1">
			<input>
				<port id="0" precision="FP32">
					<dim>-1</dim>
					<dim>-1</dim>
					<dim>16</dim>
				</port>
				<port id="1" precision="I32">
					<dim>3</dim>
				</port>
			</input>
			<output>
				<port id="2" precision="FP32" names="401,beta.1">
					<dim>-1</dim>
					<dim>16</dim>
					<dim>-1</dim>
				</port>
			</output>
		</layer>
		<layer id="158" name="Constant_129311" type="Const" version="opset1">
			<data element_type="f32" shape="" offset="0" size="4" />
			<output>
				<port id="0" precision="FP32" />
			</output>
		</layer>
		<layer id="159" name="Constant_129304" type="Const" version="opset1">
			<data element_type="i64" shape="1" offset="3333589" size="8" />
			<output>
				<port id="0" precision="I64">
					<dim>1</dim>
				</port>
			</output>
		</layer>
		<layer id="160" name="Constant_129306" type="Const" version="opset1">
			<data element_type="i64" shape="1" offset="3333597" size="8" />
			<output>
				<port id="0" precision="I64">
					<dim>1</dim>
				</port>
			</output>
		</layer>
		<layer id="161" name="Constant_129308" type="Const" version="opset1">
			<data element_type="i64" shape="1" offset="3333597" size="8" />
			<output>
				<port id="0" precision="I64">
					<dim>1</dim>
				</port>
			</output>
		</layer>
		<layer id="162" name="Concat_129309" type="Concat" version="opset1">
			<data axis="0" />
			<input>
				<port id="0" precision="I64">
					<dim>1</dim>
				</port>
				<port id="1" precision="I64">
					<dim>1</dim>
				</port>
				<port id="2" precision="I64">
					<dim>1</dim>
				</port>
				<port id="3" precision="I64">
					<dim>1</dim>
				</port>
			</input>
			<output>
				<port id="4" precision="I64">
					<dim>4</dim>
				</port>
			</output>
		</layer>
		<layer id="163" name="Broadcast_129312" type="Broadcast" version="opset3">
			<data mode="numpy" />
			<input>
				<port id="0" precision="FP32" />
				<port id="1" precision="I64">
					<dim>4</dim>
				</port>
			</input>
			<output>
				<port id="2" precision="FP32">
					<dim>-1</dim>
					<dim>16</dim>
					<dim>128</dim>
					<dim>128</dim>
				</port>
			</output>
		</layer>
		<layer id="164" name="ReadValue_127018" type="ReadValue" version="opset6">
			<data variable_id="cache_params.past.ssm.0cache_params.present.ssm.0" variable_type="f32" variable_shape="?,16,128,128" />
			<input>
				<port id="0" precision="FP32">
					<dim>-1</dim>
					<dim>16</dim>
					<dim>128</dim>
					<dim>128</dim>
				</port>
			</input>
			<output>
				<port id="1" precision="FP32" names="cache_params.past.ssm.0">
					<dim>-1</dim>
					<dim>16</dim>
					<dim>128</dim>
					<dim>128</dim>
				</port>
			</output>
		</layer>
		<layer id="165" name="Constant_124657" type="Const" version="opset1">
			<data element_type="i64" shape="" offset="4" size="8" />
			<output>
				<port id="0" precision="I64" />
			</output>
		</layer>
		<layer id="166" name="Gather_124658" type="Gather" version="opset8">
			<data batch_dims="0" />
			<input>
				<port id="0" precision="FP32">
					<dim>-1</dim>
					<dim>16</dim>
					<dim>128</dim>
					<dim>128</dim>
				</port>
				<port id="1" precision="I32">
					<dim>-1</dim>
				</port>
				<port id="2" precision="I64" />
			</input>
			<output>
				<port id="3" precision="FP32">
					<dim>-1</dim>
					<dim>16</dim>
					<dim>128</dim>
					<dim>128</dim>
				</port>
			</output>
		</layer>
		<layer id="167" name="Constant_1114" type="Const" version="opset1">
			<data element_type="f32" shape="" offset="0" size="4" />
			<output>
				<port id="0" precision="FP32" />
			</output>
		</layer>
		<layer id="168" name="ShapeOf_1112" type="ShapeOf" version="opset3">
			<data output_type="i64" />
			<input>
				<port id="0" precision="FP32">
					<dim>-1</dim>
					<dim>16</dim>
					<dim>-1</dim>
					<dim>128</dim>
				</port>
			</input>
			<output>
				<port id="1" precision="I64">
					<dim>4</dim>
				</port>
			</output>
		</layer>
		<layer id="169" name="Broadcast_1115" type="Broadcast" version="opset3">
			<data mode="numpy" />
			<input>
				<port id="0" precision="FP32" />
				<port id="1" precision="I64">
					<dim>4</dim>
				</port>
			</input>
			<output>
				<port id="2" precision="FP32">
					<dim>-1</dim>
					<dim>16</dim>
					<dim>-1</dim>
					<dim>128</dim>
				</port>
			</output>
		</layer>
		<layer id="170" name="Loop_1167" type="Loop" version="opset5">
			<port_map>
				<input axis="2" external_port_id="2" internal_layer_id="1" start="0" end="-1" stride="1" part_size="1" />
				<input axis="2" external_port_id="3" internal_layer_id="2" start="0" end="-1" stride="1" part_size="1" />
				<input axis="2" external_port_id="4" internal_layer_id="3" start="0" end="-1" stride="1" part_size="1" />
				<input axis="2" external_port_id="5" internal_layer_id="4" start="0" end="-1" stride="1" part_size="1" />
				<input axis="2" external_port_id="6" internal_layer_id="5" start="0" end="-1" stride="1" part_size="1" />
				<input external_port_id="7" internal_layer_id="6" />
				<input external_port_id="8" internal_layer_id="7" />
				<output external_port_id="9" internal_layer_id="34" />
				<output external_port_id="10" internal_layer_id="33" />
				<input external_port_id="-1" internal_layer_id="0" purpose="current_iteration" />
				<output external_port_id="-1" internal_layer_id="32" purpose="execution_condition" />
			</port_map>
			<back_edges>
				<edge from-layer="33" to-layer="6" />
				<edge from-layer="34" to-layer="7" />
			</back_edges>
			<input>
				<port id="0" precision="I32" />
				<port id="1" precision="BOOL" />
				<port id="2" precision="FP32">
					<dim>-1</dim>
					<dim>16</dim>
					<dim>-1</dim>
					<dim>128</dim>
				</port>
				<port id="3" precision="FP32">
					<dim>-1</dim>
					<dim>16</dim>
					<dim>-1</dim>
					<dim>128</dim>
				</port>
				<port id="4" precision="FP32">
					<dim>-1</dim>
					<dim>16</dim>
					<dim>-1</dim>
					<dim>128</dim>
				</port>
				<port id="5" precision="FP32">
					<dim>-1</dim>
					<dim>16</dim>
					<dim>-1</dim>
				</port>
				<port id="6" precision="FP32">
					<dim>-1</dim>
					<dim>16</dim>
					<dim>-1</dim>
				</port>
				<port id="7" precision="FP32">
					<dim>-1</dim>
					<dim>16</dim>
					<dim>128</dim>
					<dim>128</dim>
				</port>
				<port id="8" precision="FP32">
					<dim>-1</dim>
					<dim>16</dim>
					<dim>-1</dim>
					<dim>128</dim>
				</port>
			</input>
			<output>
				<port id="9" precision="FP32">
					<dim>-1</dim>
					<dim>16</dim>
					<dim>-1</dim>
					<dim>128</dim>
				</port>
				<port id="10" precision="FP32">
					<dim>-1</dim>
					<dim>16</dim>
					<dim>128</dim>
					<dim>128</dim>
				</port>
			</output>
			<body>
				<layers>
					<layer id="0" name="Parameter_1123" type="Parameter" version="opset1">
						<data shape="" element_type="i32" />
						<output>
							<port id="0" precision="I32" names="Parameter_1123" />
						</output>
					</layer>
					<layer id="1" name="Parameter_1124" type="Parameter" version="opset1">
						<data shape="?,16,1,128" element_type="f32" />
						<output>
							<port id="0" precision="FP32" names="Parameter_1124">
								<dim>-1</dim>
								<dim>16</dim>
								<dim>1</dim>
								<dim>128</dim>
							</port>
						</output>
					</layer>
					<layer id="2" name="Parameter_1125" type="Parameter" version="opset1">
						<data shape="?,16,1,128" element_type="f32" />
						<output>
							<port id="0" precision="FP32" names="Parameter_1125">
								<dim>-1</dim>
								<dim>16</dim>
								<dim>1</dim>
								<dim>128</dim>
							</port>
						</output>
					</layer>
					<layer id="3" name="Parameter_1126" type="Parameter" version="opset1">
						<data shape="?,16,1,128" element_type="f32" />
						<output>
							<port id="0" precision="FP32" names="Parameter_1126">
								<dim>-1</dim>
								<dim>16</dim>
								<dim>1</dim>
								<dim>128</dim>
							</port>
						</output>
					</layer>
					<layer id="4" name="Parameter_1127" type="Parameter" version="opset1">
						<data shape="?,16,1" element_type="f32" />
						<output>
							<port id="0" precision="FP32" names="Parameter_1127">
								<dim>-1</dim>
								<dim>16</dim>
								<dim>1</dim>
							</port>
						</output>
					</layer>
					<layer id="5" name="Parameter_1128" type="Parameter" version="opset1">
						<data shape="?,16,1" element_type="f32" />
						<output>
							<port id="0" precision="FP32" names="Parameter_1128">
								<dim>-1</dim>
								<dim>16</dim>
								<dim>1</dim>
							</port>
						</output>
					</layer>
					<layer id="6" name="Parameter_1129" type="Parameter" version="opset1">
						<data shape="?,16,128,128" element_type="f32" />
						<output>
							<port id="0" precision="FP32" names="Parameter_1129">
								<dim>-1</dim>
								<dim>16</dim>
								<dim>128</dim>
								<dim>128</dim>
							</port>
						</output>
					</layer>
					<layer id="7" name="Parameter_1130" type="Parameter" version="opset1">
						<data shape="?,16,?,128" element_type="f32" />
						<output>
							<port id="0" precision="FP32" names="Parameter_1130">
								<dim>-1</dim>
								<dim>16</dim>
								<dim>-1</dim>
								<dim>128</dim>
							</port>
						</output>
					</layer>
					<layer id="8" name="Constant_1156" type="Const" version="opset1">
						<data element_type="i32" shape="" offset="0" size="4" />
						<output>
							<port id="0" precision="I32" />
						</output>
					</layer>
					<layer id="9" name="Unsqueeze_1157" type="Unsqueeze" version="opset1">
						<input>
							<port id="0" precision="I32" />
							<port id="1" precision="I32" />
						</input>
						<output>
							<port id="2" precision="I32">
								<dim>1</dim>
							</port>
						</output>
					</layer>
					<layer id="10" name="Exp_1138" type="Exp" version="opset1">
						<input>
							<port id="0" precision="FP32">
								<dim>-1</dim>
								<dim>16</dim>
								<dim>1</dim>
							</port>
						</input>
						<output>
							<port id="1" precision="FP32">
								<dim>-1</dim>
								<dim>16</dim>
								<dim>1</dim>
							</port>
						</output>
					</layer>
					<layer id="11" name="Constant_1137" type="Const" version="opset1">
						<data element_type="i32" shape="" offset="3316316" size="4" />
						<output>
							<port id="0" precision="I32" />
						</output>
					</layer>
					<layer id="12" name="Unsqueeze_1139" type="Unsqueeze" version="opset1">
						<input>
							<port id="0" precision="FP32">
								<dim>-1</dim>
								<dim>16</dim>
								<dim>1</dim>
							</port>
							<port id="1" precision="I32" />
						</input>
						<output>
							<port id="2" precision="FP32">
								<dim>-1</dim>
								<dim>16</dim>
								<dim>1</dim>
								<dim>1</dim>
							</port>
						</output>
					</layer>
					<layer id="13" name="Multiply_1140" type="Multiply" version="opset1">
						<data auto_broadcast="numpy" />
						<input>
							<port id="0" precision="FP32">
								<dim>-1</dim>
								<dim>16</dim>
								<dim>128</dim>
								<dim>128</dim>
							</port>
							<port id="1" precision="FP32">
								<dim>-1</dim>
								<dim>16</dim>
								<dim>1</dim>
								<dim>1</dim>
							</port>
						</input>
						<output>
							<port id="2" precision="FP32">
								<dim>-1</dim>
								<dim>16</dim>
								<dim>128</dim>
								<dim>128</dim>
							</port>
						</output>
					</layer>
					<layer id="14" name="Constant_1132" type="Const" version="opset1">
						<data element_type="i32" shape="" offset="3333605" size="4" />
						<output>
							<port id="0" precision="I32" />
						</output>
					</layer>
					<layer id="15" name="Squeeze_1134" type="Squeeze" version="opset1">
						<input>
							<port id="0" precision="FP32">
								<dim>-1</dim>
								<dim>16</dim>
								<dim>1</dim>
								<dim>128</dim>
							</port>
							<port id="1" precision="I32" />
						</input>
						<output>
							<port id="2" precision="FP32">
								<dim>-1</dim>
								<dim>16</dim>
								<dim>128</dim>
							</port>
						</output>
					</layer>
					<layer id="16" name="Unsqueeze_1148" type="Unsqueeze" version="opset1">
						<input>
							<port id="0" precision="FP32">
								<dim>-1</dim>
								<dim>16</dim>
								<dim>128</dim>
							</port>
							<port id="1" precision="I32" />
						</input>
						<output>
							<port id="2" precision="FP32">
								<dim>-1</dim>
								<dim>16</dim>
								<dim>128</dim>
								<dim>1</dim>
							</port>
						</output>
					</layer>
					<layer id="17" name="Squeeze_1135" type="Squeeze" version="opset1">
						<input>
							<port id="0" precision="FP32">
								<dim>-1</dim>
								<dim>16</dim>
								<dim>1</dim>
								<dim>128</dim>
							</port>
							<port id="1" precision="I32" />
						</input>
						<output>
							<port id="2" precision="FP32">
								<dim>-1</dim>
								<dim>16</dim>
								<dim>128</dim>
							</port>
						</output>
					</layer>
					<layer id="18" name="Multiply_1144" type="Multiply" version="opset1">
						<data auto_broadcast="numpy" />
						<input>
							<port id="0" precision="FP32">
								<dim>-1</dim>
								<dim>16</dim>
								<dim>128</dim>
								<dim>128</dim>
							</port>
							<port id="1" precision="FP32">
								<dim>-1</dim>
								<dim>16</dim>
								<dim>128</dim>
								<dim>1</dim>
							</port>
						</input>
						<output>
							<port id="2" precision="FP32">
								<dim>-1</dim>
								<dim>16</dim>
								<dim>128</dim>
								<dim>128</dim>
							</port>
						</output>
					</layer>
					<layer id="19" name="Constant_1142" type="Const" version="opset1">
						<data element_type="i32" shape="" offset="3333609" size="4" />
						<output>
							<port id="0" precision="I32" />
						</output>
					</layer>
					<layer id="20" name="ReduceSum_1145" type="ReduceSum" version="opset1">
						<data keep_dims="false" />
						<input>
							<port id="0" precision="FP32">
								<dim>-1</dim>
								<dim>16</dim>
								<dim>128</dim>
								<dim>128</dim>
							</port>
							<port id="1" precision="I32" />
						</input>
						<output>
							<port id="2" precision="FP32">
								<dim>-1</dim>
								<dim>16</dim>
								<dim>128</dim>
							</port>
						</output>
					</layer>
					<layer id="21" name="Subtract_1146" type="Subtract" version="opset1">
						<data auto_broadcast="numpy" />
						<input>
							<port id="0" precision="FP32">
								<dim>-1</dim>
								<dim>16</dim>
								<dim>128</dim>
							</port>
							<port id="1" precision="FP32">
								<dim>-1</dim>
								<dim>16</dim>
								<dim>128</dim>
							</port>
						</input>
						<output>
							<port id="2" precision="FP32">
								<dim>-1</dim>
								<dim>16</dim>
								<dim>128</dim>
							</port>
						</output>
					</layer>
					<layer id="22" name="Multiply_1147" type="Multiply" version="opset1">
						<data auto_broadcast="numpy" />
						<input>
							<port id="0" precision="FP32">
								<dim>-1</dim>
								<dim>16</dim>
								<dim>128</dim>
							</port>
							<port id="1" precision="FP32">
								<dim>-1</dim>
								<dim>16</dim>
								<dim>1</dim>
							</port>
						</input>
						<output>
							<port id="2" precision="FP32">
								<dim>-1</dim>
								<dim>16</dim>
								<dim>128</dim>
							</port>
						</output>
					</layer>
					<layer id="23" name="Unsqueeze_1149" type="Unsqueeze" version="opset1">
						<input>
							<port id="0" precision="FP32">
								<dim>-1</dim>
								<dim>16</dim>
								<dim>128</dim>
							</port>
							<port id="1" precision="I32" />
						</input>
						<output>
							<port id="2" precision="FP32">
								<dim>-1</dim>
								<dim>16</dim>
								<dim>1</dim>
								<dim>128</dim>
							</port>
						</output>
					</layer>
					<layer id="24" name="Multiply_1150" type="Multiply" version="opset1">
						<data auto_broadcast="numpy" />
						<input>
							<port id="0" precision="FP32">
								<dim>-1</dim>
								<dim>16</dim>
								<dim>128</dim>
								<dim>1</dim>
							</port>
							<port id="1" precision="FP32">
								<dim>-1</dim>
								<dim>16</dim>
								<dim>1</dim>
								<dim>128</dim>
							</port>
						</input>
						<output>
							<port id="2" precision="FP32">
								<dim>-1</dim>
								<dim>16</dim>
								<dim>128</dim>
								<dim>128</dim>
							</port>
						</output>
					</layer>
					<layer id="25" name="Add_1151" type="Add" version="opset1">
						<data auto_broadcast="numpy" />
						<input>
							<port id="0" precision="FP32">
								<dim>-1</dim>
								<dim>16</dim>
								<dim>128</dim>
								<dim>128</dim>
							</port>
							<port id="1" precision="FP32">
								<dim>-1</dim>
								<dim>16</dim>
								<dim>128</dim>
								<dim>128</dim>
							</port>
						</input>
						<output>
							<port id="2" precision="FP32" names="Result_1162">
								<dim>-1</dim>
								<dim>16</dim>
								<dim>128</dim>
								<dim>128</dim>
							</port>
						</output>
					</layer>
					<layer id="26" name="Squeeze_1133" type="Squeeze" version="opset1">
						<input>
							<port id="0" precision="FP32">
								<dim>-1</dim>
								<dim>16</dim>
								<dim>1</dim>
								<dim>128</dim>
							</port>
							<port id="1" precision="I32" />
						</input>
						<output>
							<port id="2" precision="FP32">
								<dim>-1</dim>
								<dim>16</dim>
								<dim>128</dim>
							</port>
						</output>
					</layer>
					<layer id="27" name="Unsqueeze_1152" type="Unsqueeze" version="opset1">
						<input>
							<port id="0" precision="FP32">
								<dim>-1</dim>
								<dim>16</dim>
								<dim>128</dim>
							</port>
							<port id="1" precision="I32" />
						</input>
						<output>
							<port id="2" precision="FP32">
								<dim>-1</dim>
								<dim>16</dim>
								<dim>128</dim>
								<dim>1</dim>
							</port>
						</output>
					</layer>
					<layer id="28" name="Multiply_1153" type="Multiply" version="opset1">
						<data auto_broadcast="numpy" />
						<input>
							<port id="0" precision="FP32">
								<dim>-1</dim>
								<dim>16</dim>
								<dim>128</dim>
								<dim>128</dim>
							</port>
							<port id="1" precision="FP32">
								<dim>-1</dim>
								<dim>16</dim>
								<dim>128</dim>
								<dim>1</dim>
							</port>
						</input>
						<output>
							<port id="2" precision="FP32">
								<dim>-1</dim>
								<dim>16</dim>
								<dim>128</dim>
								<dim>128</dim>
							</port>
						</output>
					</layer>
					<layer id="29" name="ReduceSum_1154" type="ReduceSum" version="opset1">
						<data keep_dims="true" />
						<input>
							<port id="0" precision="FP32">
								<dim>-1</dim>
								<dim>16</dim>
								<dim>128</dim>
								<dim>128</dim>
							</port>
							<port id="1" precision="I32" />
						</input>
						<output>
							<port id="2" precision="FP32">
								<dim>-1</dim>
								<dim>16</dim>
								<dim>1</dim>
								<dim>128</dim>
							</port>
						</output>
					</layer>
					<layer id="30" name="ScatterUpdate_1158" type="ScatterUpdate" version="opset3">
						<input>
							<port id="0" precision="FP32">
								<dim>-1</dim>
								<dim>16</dim>
								<dim>-1</dim>
								<dim>128</dim>
							</port>
							<port id="1" precision="I32">
								<dim>1</dim>
							</port>
							<port id="2" precision="FP32">
								<dim>-1</dim>
								<dim>16</dim>
								<dim>1</dim>
								<dim>128</dim>
							</port>
							<port id="3" precision="I32" />
						</input>
						<output>
							<port id="4" precision="FP32" names="Result_1163">
								<dim>-1</dim>
								<dim>16</dim>
								<dim>-1</dim>
								<dim>128</dim>
							</port>
						</output>
					</layer>
					<layer id="31" name="Constant_1160" type="Const" version="opset1">
						<data element_type="boolean" shape="1" offset="3316408" size="1" />
						<output>
							<port id="0" precision="BOOL" names="Result_1161">
								<dim>1</dim>
							</port>
						</output>
					</layer>
					<layer id="32" name="Result_1161" type="Result" version="opset1" output_names="Result_1161">
						<input>
							<port id="0" precision="BOOL">
								<dim>1</dim>
							</port>
						</input>
					</layer>
					<layer id="33" name="Result_1162" type="Result" version="opset1" output_names="Result_1162">
						<input>
							<port id="0" precision="FP32">
								<dim>-1</dim>
								<dim>16</dim>
								<dim>128</dim>
								<dim>128</dim>
							</port>
						</input>
					</layer>
					<layer id="34" name="Result_1163" type="Result" version="opset1" output_names="Result_1163">
						<input>
							<port id="0" precision="FP32">
								<dim>-1</dim>
								<dim>16</dim>
								<dim>-1</dim>
								<dim>128</dim>
							</port>
						</input>
					</layer>
				</layers>
				<edges>
					<edge from-layer="0" from-port="0" to-layer="9" to-port="0" />
					<edge from-layer="1" from-port="0" to-layer="26" to-port="0" />
					<edge from-layer="2" from-port="0" to-layer="15" to-port="0" />
					<edge from-layer="3" from-port="0" to-layer="17" to-port="0" />
					<edge from-layer="4" from-port="0" to-layer="10" to-port="0" />
					<edge from-layer="5" from-port="0" to-layer="22" to-port="1" />
					<edge from-layer="6" from-port="0" to-layer="13" to-port="0" />
					<edge from-layer="7" from-port="0" to-layer="30" to-port="0" />
					<edge from-layer="8" from-port="0" to-layer="9" to-port="1" />
					<edge from-layer="9" from-port="2" to-layer="30" to-port="1" />
					<edge from-layer="10" from-port="1" to-layer="12" to-port="0" />
					<edge from-layer="11" from-port="0" to-layer="16" to-port="1" />
					<edge from-layer="11" from-port="0" to-layer="27" to-port="1" />
					<edge from-layer="11" from-port="0" to-layer="12" to-port="1" />
					<edge from-layer="12" from-port="2" to-layer="13" to-port="1" />
					<edge from-layer="13" from-port="2" to-layer="18" to-port="0" />
					<edge from-layer="13" from-port="2" to-layer="25" to-port="0" />
					<edge from-layer="14" from-port="0" to-layer="17" to-port="1" />
					<edge from-layer="14" from-port="0" to-layer="30" to-port="3" />
					<edge from-layer="14" from-port="0" to-layer="15" to-port="1" />
					<edge from-layer="14" from-port="0" to-layer="26" to-port="1" />
					<edge from-layer="15" from-port="2" to-layer="16" to-port="0" />
					<edge from-layer="16" from-port="2" to-layer="24" to-port="0" />
					<edge from-layer="16" from-port="2" to-layer="18" to-port="1" />
					<edge from-layer="17" from-port="2" to-layer="21" to-port="0" />
					<edge from-layer="18" from-port="2" to-layer="20" to-port="0" />
					<edge from-layer="19" from-port="0" to-layer="29" to-port="1" />
					<edge from-layer="19" from-port="0" to-layer="23" to-port="1" />
					<edge from-layer="19" from-port="0" to-layer="20" to-port="1" />
					<edge from-layer="20" from-port="2" to-layer="21" to-port="1" />
					<edge from-layer="21" from-port="2" to-layer="22" to-port="0" />
					<edge from-layer="22" from-port="2" to-layer="23" to-port="0" />
					<edge from-layer="23" from-port="2" to-layer="24" to-port="1" />
					<edge from-layer="24" from-port="2" to-layer="25" to-port="1" />
					<edge from-layer="25" from-port="2" to-layer="28" to-port="0" />
					<edge from-layer="25" from-port="2" to-layer="33" to-port="0" />
					<edge from-layer="26" from-port="2" to-layer="27" to-port="0" />
					<edge from-layer="27" from-port="2" to-layer="28" to-port="1" />
					<edge from-layer="28" from-port="2" to-layer="29" to-port="0" />
					<edge from-layer="29" from-port="2" to-layer="30" to-port="2" />
					<edge from-layer="30" from-port="4" to-layer="34" to-port="0" />
					<edge from-layer="31" from-port="0" to-layer="32" to-port="0" />
				</edges>
				<rt_info />
			</body>
		</layer>
		<layer id="171" name="Constant_59216" type="Const" version="opset1">
			<data element_type="i64" shape="1" offset="564" size="8" />
			<output>
				<port id="0" precision="I64">
					<dim>1</dim>
				</port>
			</output>
		</layer>
		<layer id="172" name="Reshape_1174" type="Reshape" version="opset1">
			<data special_zero="false" />
			<input>
				<port id="0" precision="FP32">
					<dim>-1</dim>
					<dim>16</dim>
					<dim>-1</dim>
					<dim>128</dim>
				</port>
				<port id="1" precision="I64">
					<dim>1</dim>
				</port>
			</input>
			<output>
				<port id="2" precision="FP32">
					<dim>-1</dim>
				</port>
			</output>
		</layer>
		<layer id="173" name="Constant_59217" type="Const" version="opset1">
			<data element_type="i64" shape="1" offset="564" size="8" />
			<output>
				<port id="0" precision="I64">
					<dim>1</dim>
				</port>
			</output>
		</layer>
		<layer id="174" name="Reshape_1175" type="Reshape" version="opset1">
			<data special_zero="false" />
			<input>
				<port id="0" precision="FP32">
					<dim>-1</dim>
					<dim>16</dim>
					<dim>128</dim>
					<dim>128</dim>
				</port>
				<port id="1" precision="I64">
					<dim>1</dim>
				</port>
			</input>
			<output>
				<port id="2" precision="FP32">
					<dim>-1</dim>
				</port>
			</output>
		</layer>
		<layer id="175" name="Concat_1176" type="Concat" version="opset1">
			<data axis="0" />
			<input>
				<port id="0" precision="FP32">
					<dim>-1</dim>
				</port>
				<port id="1" precision="FP32">
					<dim>-1</dim>
				</port>
			</input>
			<output>
				<port id="2" precision="FP32" names="412,output_cell.1">
					<dim>-1</dim>
				</port>
			</output>
		</layer>
		<layer id="176" name="Constant_1184" type="Const" version="opset1">
			<data element_type="i64" shape="1" offset="4" size="8" />
			<output>
				<port id="0" precision="I64">
					<dim>1</dim>
				</port>
			</output>
		</layer>
		<layer id="177" name="__module.model.model.language_model.layers.0.linear_attn/aten::numel/Constant" type="Const" version="opset1">
			<data element_type="i64" shape="1" offset="4" size="8" />
			<output>
				<port id="0" precision="I64">
					<dim>1</dim>
				</port>
			</output>
		</layer>
		<layer id="178" name="__module.model.model.language_model.layers.0.linear_attn/aten::slice/Reshape_1" type="ReduceProd" version="opset1">
			<data keep_dims="true" />
			<input>
				<port id="0" precision="I64">
					<dim>4</dim>
				</port>
				<port id="1" precision="I64">
					<dim>1</dim>
				</port>
			</input>
			<output>
				<port id="2" precision="I64" names="413">
					<dim>1</dim>
				</port>
			</output>
		</layer>
		<layer id="179" name="Constant_1213" type="Const" version="opset1">
			<data element_type="i64" shape="1" offset="3316328" size="8" />
			<output>
				<port id="0" precision="I64">
					<dim>1</dim>
				</port>
			</output>
		</layer>
		<layer id="180" name="Constant_1182" type="Const" version="opset1">
			<data element_type="i64" shape="1" offset="4" size="8" />
			<output>
				<port id="0" precision="I64">
					<dim>1</dim>
				</port>
			</output>
		</layer>
		<layer id="181" name="__module.model.model.language_model.layers.0.linear_attn/aten::slice/Slice_3" type="Slice" version="opset8">
			<input>
				<port id="0" precision="FP32">
					<dim>-1</dim>
				</port>
				<port id="1" precision="I64">
					<dim>1</dim>
				</port>
				<port id="2" precision="I64">
					<dim>1</dim>
				</port>
				<port id="3" precision="I64">
					<dim>1</dim>
				</port>
				<port id="4" precision="I64">
					<dim>1</dim>
				</port>
			</input>
			<output>
				<port id="5" precision="FP32" names="414">
					<dim>-1</dim>
				</port>
			</output>
		</layer>
		<layer id="182" name="__module.model.model.language_model.layers.0.linear_attn/aten::reshape/Reshape_3" type="Reshape" version="opset1">
			<data special_zero="false" />
			<input>
				<port id="0" precision="FP32">
					<dim>-1</dim>
				</port>
				<port id="1" precision="I64">
					<dim>4</dim>
				</port>
			</input>
			<output>
				<port id="2" precision="FP32" names="420,core_attn_out.3">
					<dim>-1</dim>
					<dim>16</dim>
					<dim>-1</dim>
					<dim>128</dim>
				</port>
			</output>
		</layer>
		<layer id="183" name="__module.model.model.language_model.layers.0.linear_attn/aten::transpose/Constant_7" type="Const" version="opset1">
			<data element_type="i32" shape="4" offset="3316392" size="16" />
			<output>
				<port id="0" precision="I32">
					<dim>4</dim>
				</port>
			</output>
		</layer>
		<layer id="184" name="__module.model.model.language_model.layers.0.linear_attn/aten::to/Convert_9" type="Transpose" version="opset1">
			<input>
				<port id="0" precision="FP32">
					<dim>-1</dim>
					<dim>16</dim>
					<dim>-1</dim>
					<dim>128</dim>
				</port>
				<port id="1" precision="I32">
					<dim>4</dim>
				</port>
			</input>
			<output>
				<port id="2" precision="FP32" names="430,core_attn_out.5">
					<dim>-1</dim>
					<dim>-1</dim>
					<dim>16</dim>
					<dim>128</dim>
				</port>
			</output>
		</layer>
		<layer id="185" name="Constant_1331" type="Const" version="opset1">
			<data element_type="i64" shape="2" offset="3333613" size="16" />
			<output>
				<port id="0" precision="I64">
					<dim>2</dim>
				</port>
			</output>
		</layer>
		<layer id="186" name="__module.model.model.language_model.layers.0.linear_attn/aten::reshape/Reshape_4" type="Reshape" version="opset1">
			<data special_zero="false" />
			<input>
				<port id="0" precision="FP32">
					<dim>-1</dim>
					<dim>-1</dim>
					<dim>16</dim>
					<dim>128</dim>
				</port>
				<port id="1" precision="I64">
					<dim>2</dim>
				</port>
			</input>
			<output>
				<port id="2" precision="FP32" names="432,436,hidden_states.3,hidden_states.5">
					<dim>-1</dim>
					<dim>128</dim>
				</port>
			</output>
		</layer>
		<layer id="187" name="Constant_103903" type="Const" version="opset1">
			<data element_type="f32" shape="1, 1" offset="556" size="4" />
			<output>
				<port id="0" precision="FP32">
					<dim>1</dim>
					<dim>1</dim>
				</port>
			</output>
		</layer>
		<layer id="188" name="Constant_103901" type="Const" version="opset1">
			<data element_type="f32" shape="1, 1" offset="560" size="4" />
			<output>
				<port id="0" precision="FP32">
					<dim>1</dim>
					<dim>1</dim>
				</port>
			</output>
		</layer>
		<layer id="189" name="__module.model.model.language_model.layers.0.linear_attn.norm/aten::pow/Power" type="Power" version="opset1">
			<data auto_broadcast="numpy" />
			<input>
				<port id="0" precision="FP32">
					<dim>-1</dim>
					<dim>128</dim>
				</port>
				<port id="1" precision="FP32">
					<dim>1</dim>
					<dim>1</dim>
				</port>
			</input>
			<output>
				<port id="2" precision="FP32" names="437">
					<dim>-1</dim>
					<dim>128</dim>
				</port>
			</output>
		</layer>
		<layer id="190" name="Constant_1367" type="Const" version="opset1">
			<data element_type="i64" shape="1" offset="564" size="8" />
			<output>
				<port id="0" precision="I64">
					<dim>1</dim>
				</port>
			</output>
		</layer>
		<layer id="191" name="__module.model.model.language_model.layers.0.linear_attn.norm/aten::mean/ReduceMean" type="ReduceMean" version="opset1">
			<data keep_dims="true" />
			<input>
				<port id="0" precision="FP32">
					<dim>-1</dim>
					<dim>128</dim>
				</port>
				<port id="1" precision="I64">
					<dim>1</dim>
				</port>
			</input>
			<output>
				<port id="2" precision="FP32" names="439,variance.1">
					<dim>-1</dim>
					<dim>1</dim>
				</port>
			</output>
		</layer>
		<layer id="192" name="Constant_103902" type="Const" version="opset1">
			<data element_type="f32" shape="1, 1" offset="572" size="4" />
			<output>
				<port id="0" precision="FP32">
					<dim>1</dim>
					<dim>1</dim>
				</port>
			</output>
		</layer>
		<layer id="193" name="__module.model.model.language_model.layers.0.linear_attn.norm/aten::add/Add" type="Add" version="opset1">
			<data auto_broadcast="numpy" />
			<input>
				<port id="0" precision="FP32">
					<dim>-1</dim>
					<dim>1</dim>
				</port>
				<port id="1" precision="FP32">
					<dim>1</dim>
					<dim>1</dim>
				</port>
			</input>
			<output>
				<port id="2" precision="FP32" names="440">
					<dim>-1</dim>
					<dim>1</dim>
				</port>
			</output>
		</layer>
		<layer id="194" name="__module.model.model.language_model.layers.0.linear_attn.norm/aten::rsqrt/Sqrt" type="Sqrt" version="opset1">
			<input>
				<port id="0" precision="FP32">
					<dim>-1</dim>
					<dim>1</dim>
				</port>
			</input>
			<output>
				<port id="1" precision="FP32">
					<dim>-1</dim>
					<dim>1</dim>
				</port>
			</output>
		</layer>
		<layer id="195" name="__module.model.model.language_model.layers.0.linear_attn.norm/aten::rsqrt/Divide" type="Divide" version="opset1">
			<data auto_broadcast="numpy" m_pythondiv="true" />
			<input>
				<port id="0" precision="FP32">
					<dim>1</dim>
					<dim>1</dim>
				</port>
				<port id="1" precision="FP32">
					<dim>-1</dim>
					<dim>1</dim>
				</port>
			</input>
			<output>
				<port id="2" precision="FP32" names="441">
					<dim>-1</dim>
					<dim>1</dim>
				</port>
			</output>
		</layer>
		<layer id="196" name="__module.model.model.language_model.layers.0.linear_attn.norm/aten::mul/Multiply" type="Multiply" version="opset1">
			<data auto_broadcast="numpy" />
			<input>
				<port id="0" precision="FP32">
					<dim>-1</dim>
					<dim>128</dim>
				</port>
				<port id="1" precision="FP32">
					<dim>-1</dim>
					<dim>1</dim>
				</port>
			</input>
			<output>
				<port id="2" precision="FP32" names="442,443,hidden_states.7,hidden_states.9">
					<dim>-1</dim>
					<dim>128</dim>
				</port>
			</output>
		</layer>
		<layer id="197" name="__module.model.model.language_model.layers.0.linear_attn.norm/aten::mul/Multiply_1" type="Multiply" version="opset1">
			<data auto_broadcast="numpy" />
			<input>
				<port id="0" precision="FP32">
					<dim>1</dim>
					<dim>128</dim>
				</port>
				<port id="1" precision="FP32">
					<dim>-1</dim>
					<dim>128</dim>
				</port>
			</input>
			<output>
				<port id="2" precision="FP32" names="444,hidden_states.11">
					<dim>-1</dim>
					<dim>128</dim>
				</port>
			</output>
		</layer>
		<layer id="198" name="self.model.model.language_model.layers.0.linear_attn.in_proj_z.weight" type="Const" version="opset1">
			<data element_type="u4" shape="2048, 8, 128" offset="3333629" size="1048576" />
			<output>
				<port id="0" precision="U4">
					<dim>2048</dim>
					<dim>8</dim>
					<dim>128</dim>
				</port>
			</output>
		</layer>
		<layer id="199" name="Convert_722321" type="Convert" version="opset1">
			<data destination_type="f16" />
			<input>
				<port id="0" precision="U4">
					<dim>2048</dim>
					<dim>8</dim>
					<dim>128</dim>
				</port>
			</input>
			<output>
				<port id="1" precision="FP16">
					<dim>2048</dim>
					<dim>8</dim>
					<dim>128</dim>
				</port>
			</output>
		</layer>
		<layer id="200" name="self.model.model.language_model.layers.0.linear_attn.in_proj_z.weight/zero_point" type="Const" version="opset1">
			<data element_type="u4" shape="2048, 8, 1" offset="4382205" size="8192" />
			<output>
				<port id="0" precision="U4">
					<dim>2048</dim>
					<dim>8</dim>
					<dim>1</dim>
				</port>
			</output>
		</layer>
		<layer id="201" name="Convert_722324" type="Convert" version="opset1">
			<data destination_type="f16" />
			<input>
				<port id="0" precision="U4">
					<dim>2048</dim>
					<dim>8</dim>
					<dim>1</dim>
				</port>
			</input>
			<output>
				<port id="1" precision="FP16">
					<dim>2048</dim>
					<dim>8</dim>
					<dim>1</dim>
				</port>
			</output>
		</layer>
		<layer id="202" name="self.model.model.language_model.layers.0.linear_attn.in_proj_z.weight/zero_point/subtract" type="Subtract" version="opset1">
			<data auto_broadcast="numpy" />
			<input>
				<port id="0" precision="FP16">
					<dim>2048</dim>
					<dim>8</dim>
					<dim>128</dim>
				</port>
				<port id="1" precision="FP16">
					<dim>2048</dim>
					<dim>8</dim>
					<dim>1</dim>
				</port>
			</input>
			<output>
				<port id="2" precision="FP16">
					<dim>2048</dim>
					<dim>8</dim>
					<dim>128</dim>
				</port>
			</output>
		</layer>
		<layer id="203" name="self.model.model.language_model.layers.0.linear_attn.in_proj_z.weight/scale" type="Const" version="opset1">
			<data element_type="f16" shape="2048, 8, 1" offset="4390397" size="32768" />
			<output>
				<port id="0" precision="FP16">
					<dim>2048</dim>
					<dim>8</dim>
					<dim>1</dim>
				</port>
			</output>
		</layer>
		<layer id="204" name="self.model.model.language_model.layers.0.linear_attn.in_proj_z.weight/fq_weights_1" type="Multiply" version="opset1">
			<data auto_broadcast="numpy" />
			<input>
				<port id="0" precision="FP16">
					<dim>2048</dim>
					<dim>8</dim>
					<dim>128</dim>
				</port>
				<port id="1" precision="FP16">
					<dim>2048</dim>
					<dim>8</dim>
					<dim>1</dim>
				</port>
			</input>
			<output>
				<port id="2" precision="FP16">
					<dim>2048</dim>
					<dim>8</dim>
					<dim>128</dim>
				</port>
			</output>
		</layer>
		<layer id="205" name="Constant_722329" type="Const" version="opset1">
			<data element_type="i64" shape="2" offset="4423165" size="16" />
			<output>
				<port id="0" precision="I64">
					<dim>2</dim>
				</port>
			</output>
		</layer>
		<layer id="206" name="Reshape_722330" type="Reshape" version="opset1">
			<data special_zero="false" />
			<input>
				<port id="0" precision="FP16">
					<dim>2048</dim>
					<dim>8</dim>
					<dim>128</dim>
				</port>
				<port id="1" precision="I64">
					<dim>2</dim>
				</port>
			</input>
			<output>
				<port id="2" precision="FP16">
					<dim>2048</dim>
					<dim>1024</dim>
				</port>
			</output>
		</layer>
		<layer id="207" name="self.model.model.language_model.layers.0.linear_attn.in_proj_z.weight/fq_weights_1/convert" type="Convert" version="opset1">
			<data destination_type="f32" />
			<input>
				<port id="0" precision="FP16">
					<dim>2048</dim>
					<dim>1024</dim>
				</port>
			</input>
			<output>
				<port id="1" precision="FP32">
					<dim>2048</dim>
					<dim>1024</dim>
				</port>
			</output>
		</layer>
		<layer id="208" name="__module.model.model.language_model.layers.0.linear_attn.in_proj_z/ov_ext::linear/MatMul" type="MatMul" version="opset1">
			<data transpose_a="false" transpose_b="true" />
			<input>
				<port id="0" precision="FP32">
					<dim>-1</dim>
					<dim>-1</dim>
					<dim>1024</dim>
				</port>
				<port id="1" precision="FP32">
					<dim>2048</dim>
					<dim>1024</dim>
				</port>
			</input>
			<output>
				<port id="2" precision="FP32" names="322,z.1">
					<dim>-1</dim>
					<dim>-1</dim>
					<dim>2048</dim>
				</port>
			</output>
		</layer>
		<layer id="209" name="Constant_110456" type="Const" version="opset1">
			<data element_type="i64" shape="4" offset="4423181" size="32" />
			<output>
				<port id="0" precision="I64">
					<dim>4</dim>
				</port>
			</output>
		</layer>
		<layer id="210" name="__module.model.model.language_model.layers.0.linear_attn/aten::reshape/Reshape_5" type="Reshape" version="opset1">
			<data special_zero="true" />
			<input>
				<port id="0" precision="FP32">
					<dim>-1</dim>
					<dim>-1</dim>
					<dim>2048</dim>
				</port>
				<port id="1" precision="I64">
					<dim>4</dim>
				</port>
			</input>
			<output>
				<port id="2" precision="FP32" names="324,z.3">
					<dim>-1</dim>
					<dim>-1</dim>
					<dim>16</dim>
					<dim>128</dim>
				</port>
			</output>
		</layer>
		<layer id="211" name="Constant_1340" type="Const" version="opset1">
			<data element_type="i64" shape="2" offset="3333613" size="16" />
			<output>
				<port id="0" precision="I64">
					<dim>2</dim>
				</port>
			</output>
		</layer>
		<layer id="212" name="__module.model.model.language_model.layers.0.linear_attn/aten::reshape/Reshape_6" type="Reshape" version="opset1">
			<data special_zero="false" />
			<input>
				<port id="0" precision="FP32">
					<dim>-1</dim>
					<dim>-1</dim>
					<dim>16</dim>
					<dim>128</dim>
				</port>
				<port id="1" precision="I64">
					<dim>2</dim>
				</port>
			</input>
			<output>
				<port id="2" precision="FP32" names="434,445,gate.1,input.3">
					<dim>-1</dim>
					<dim>128</dim>
				</port>
			</output>
		</layer>
		<layer id="213" name="__module.model.model.language_model.layers.0.linear_attn.norm/aten::silu/Swish" type="Swish" version="opset4">
			<input>
				<port id="0" precision="FP32">
					<dim>-1</dim>
					<dim>128</dim>
				</port>
			</input>
			<output>
				<port id="1" precision="FP32" names="446">
					<dim>-1</dim>
					<dim>128</dim>
				</port>
			</output>
		</layer>
		<layer id="214" name="__module.model.model.language_model.layers.0.linear_attn.norm/aten::mul/Multiply_2" type="Multiply" version="opset1">
			<data auto_broadcast="numpy" />
			<input>
				<port id="0" precision="FP32">
					<dim>-1</dim>
					<dim>128</dim>
				</port>
				<port id="1" precision="FP32">
					<dim>-1</dim>
					<dim>128</dim>
				</port>
			</input>
			<output>
				<port id="2" precision="FP32" names="447,448,core_attn_out.7,hidden_states.13">
					<dim>-1</dim>
					<dim>128</dim>
				</port>
			</output>
		</layer>
		<layer id="215" name="__module.model.model.language_model.layers.0.linear_attn/aten::size/ShapeOf_11" type="ShapeOf" version="opset3">
			<data output_type="i64" />
			<input>
				<port id="0" precision="FP32">
					<dim>-1</dim>
					<dim>-1</dim>
					<dim>1024</dim>
				</port>
			</input>
			<output>
				<port id="1" precision="I64">
					<dim>3</dim>
				</port>
			</output>
		</layer>
		<layer id="216" name="Constant_81870" type="Const" version="opset1">
			<data element_type="i64" shape="2" offset="4423213" size="16" />
			<output>
				<port id="0" precision="I64">
					<dim>2</dim>
				</port>
			</output>
		</layer>
		<layer id="217" name="Constant_81871" type="Const" version="opset1">
			<data element_type="i64" shape="" offset="4" size="8" />
			<output>
				<port id="0" precision="I64" />
			</output>
		</layer>
		<layer id="218" name="Gather_81872" type="Gather" version="opset8">
			<data batch_dims="0" />
			<input>
				<port id="0" precision="I64">
					<dim>3</dim>
				</port>
				<port id="1" precision="I64">
					<dim>2</dim>
				</port>
				<port id="2" precision="I64" />
			</input>
			<output>
				<port id="3" precision="I64">
					<dim>2</dim>
				</port>
			</output>
		</layer>
		<layer id="219" name="Constant_1406" type="Const" version="opset1">
			<data element_type="i64" shape="1" offset="564" size="8" />
			<output>
				<port id="0" precision="I64">
					<dim>1</dim>
				</port>
			</output>
		</layer>
		<layer id="220" name="__module.model.model.language_model.layers.0.linear_attn/prim::ListConstruct/SequenceMark_5" type="Concat" version="opset1">
			<data axis="0" />
			<input>
				<port id="0" precision="I64">
					<dim>2</dim>
				</port>
				<port id="1" precision="I64">
					<dim>1</dim>
				</port>
			</input>
			<output>
				<port id="2" precision="I64">
					<dim>3</dim>
				</port>
			</output>
		</layer>
		<layer id="221" name="__module.model.model.language_model.layers.0.linear_attn/aten::reshape/Reshape_7" type="Reshape" version="opset1">
			<data special_zero="false" />
			<input>
				<port id="0" precision="FP32">
					<dim>-1</dim>
					<dim>128</dim>
				</port>
				<port id="1" precision="I64">
					<dim>3</dim>
				</port>
			</input>
			<output>
				<port id="2" precision="FP32" names="450">
					<dim>-1</dim>
					<dim>-1</dim>
					<dim>-1</dim>
				</port>
			</output>
		</layer>
		<layer id="222" name="self.model.model.language_model.layers.0.linear_attn.out_proj.weight" type="Const" version="opset1">
			<data element_type="u4" shape="1024, 16, 128" offset="4423229" size="1048576" />
			<output>
				<port id="0" precision="U4">
					<dim>1024</dim>
					<dim>16</dim>
					<dim>128</dim>
				</port>
			</output>
		</layer>
		<layer id="223" name="Convert_727525" type="Convert" version="opset1">
			<data destination_type="f16" />
			<input>
				<port id="0" precision="U4">
					<dim>1024</dim>
					<dim>16</dim>
					<dim>128</dim>
				</port>
			</input>
			<output>
				<port id="1" precision="FP16">
					<dim>1024</dim>
					<dim>16</dim>
					<dim>128</dim>
				</port>
			</output>
		</layer>
		<layer id="224" name="self.model.model.language_model.layers.0.linear_attn.out_proj.weight/zero_point" type="Const" version="opset1">
			<data element_type="u4" shape="1024, 16, 1" offset="5471805" size="8192" />
			<output>
				<port id="0" precision="U4">
					<dim>1024</dim>
					<dim>16</dim>
					<dim>1</dim>
				</port>
			</output>
		</layer>
		<layer id="225" name="Convert_727528" type="Convert" version="opset1">
			<data destination_type="f16" />
			<input>
				<port id="0" precision="U4">
					<dim>1024</dim>
					<dim>16</dim>
					<dim>1</dim>
				</port>
			</input>
			<output>
				<port id="1" precision="FP16">
					<dim>1024</dim>
					<dim>16</dim>
					<dim>1</dim>
				</port>
			</output>
		</layer>
		<layer id="226" name="self.model.model.language_model.layers.0.linear_attn.out_proj.weight/zero_point/subtract" type="Subtract" version="opset1">
			<data auto_broadcast="numpy" />
			<input>
				<port id="0" precision="FP16">
					<dim>1024</dim>
					<dim>16</dim>
					<dim>128</dim>
				</port>
				<port id="1" precision="FP16">
					<dim>1024</dim>
					<dim>16</dim>
					<dim>1</dim>
				</port>
			</input>
			<output>
				<port id="2" precision="FP16">
					<dim>1024</dim>
					<dim>16</dim>
					<dim>128</dim>
				</port>
			</output>
		</layer>
		<layer id="227" name="self.model.model.language_model.layers.0.linear_attn.out_proj.weight/scale" type="Const" version="opset1">
			<data element_type="f16" shape="1024, 16, 1" offset="5479997" size="32768" />
			<output>
				<port id="0" precision="FP16">
					<dim>1024</dim>
					<dim>16</dim>
					<dim>1</dim>
				</port>
			</output>
		</layer>
		<layer id="228" name="self.model.model.language_model.layers.0.linear_attn.out_proj.weight/fq_weights_1" type="Multiply" version="opset1">
			<data auto_broadcast="numpy" />
			<input>
				<port id="0" precision="FP16">
					<dim>1024</dim>
					<dim>16</dim>
					<dim>128</dim>
				</port>
				<port id="1" precision="FP16">
					<dim>1024</dim>
					<dim>16</dim>
					<dim>1</dim>
				</port>
			</input>
			<output>
				<port id="2" precision="FP16">
					<dim>1024</dim>
					<dim>16</dim>
					<dim>128</dim>
				</port>
			</output>
		</layer>
		<layer id="229" name="Constant_727533" type="Const" version="opset1">
			<data element_type="i64" shape="2" offset="5512765" size="16" />
			<output>
				<port id="0" precision="I64">
					<dim>2</dim>
				</port>
			</output>
		</layer>
		<layer id="230" name="Reshape_727534" type="Reshape" version="opset1">
			<data special_zero="false" />
			<input>
				<port id="0" precision="FP16">
					<dim>1024</dim>
					<dim>16</dim>
					<dim>128</dim>
				</port>
				<port id="1" precision="I64">
					<dim>2</dim>
				</port>
			</input>
			<output>
				<port id="2" precision="FP16">
					<dim>1024</dim>
					<dim>2048</dim>
				</port>
			</output>
		</layer>
		<layer id="231" name="self.model.model.language_model.layers.0.linear_attn.out_proj.weight/fq_weights_1/convert" type="Convert" version="opset1">
			<data destination_type="f32" />
			<input>
				<port id="0" precision="FP16">
					<dim>1024</dim>
					<dim>2048</dim>
				</port>
			</input>
			<output>
				<port id="1" precision="FP32">
					<dim>1024</dim>
					<dim>2048</dim>
				</port>
			</output>
		</layer>
		<layer id="232" name="__module.model.model.language_model.layers.0.linear_attn.out_proj/ov_ext::linear/MatMul" type="MatMul" version="opset1">
			<data transpose_a="false" transpose_b="true" />
			<input>
				<port id="0" precision="FP32">
					<dim>-1</dim>
					<dim>-1</dim>
					<dim>-1</dim>
				</port>
				<port id="1" precision="FP32">
					<dim>1024</dim>
					<dim>2048</dim>
				</port>
			</input>
			<output>
				<port id="2" precision="FP32" names="452,hidden_states.15">
					<dim>-1</dim>
					<dim>-1</dim>
					<dim>1024</dim>
				</port>
			</output>
		</layer>
		<layer id="233" name="__module.model.model.language_model.layers.0/aten::add/Add" type="Add" version="opset1">
			<data auto_broadcast="numpy" />
			<input>
				<port id="0" precision="FP32">
					<dim>-1</dim>
					<dim>-1</dim>
					<dim>1024</dim>
				</port>
				<port id="1" precision="FP32">
					<dim>-1</dim>
					<dim>-1</dim>
					<dim>1024</dim>
				</port>
			</input>
			<output>
				<port id="2" precision="FP32" names="457,459,x.17,x.19">
					<dim>-1</dim>
					<dim>-1</dim>
					<dim>1024</dim>
				</port>
			</output>
		</layer>
		<layer id="234" name="Constant_103907" type="Const" version="opset1">
			<data element_type="f32" shape="1, 1, 1" offset="556" size="4" />
			<output>
				<port id="0" precision="FP32">
					<dim>1</dim>
					<dim>1</dim>
					<dim>1</dim>
				</port>
			</output>
		</layer>
		<layer id="235" name="Constant_103905" type="Const" version="opset1">
			<data element_type="f32" shape="1, 1, 1" offset="560" size="4" />
			<output>
				<port id="0" precision="FP32">
					<dim>1</dim>
					<dim>1</dim>
					<dim>1</dim>
				</port>
			</output>
		</layer>
		<layer id="236" name="__module.model.model.language_model.layers.0.post_attention_layernorm/aten::pow/Power" type="Power" version="opset1">
			<data auto_broadcast="numpy" />
			<input>
				<port id="0" precision="FP32">
					<dim>-1</dim>
					<dim>-1</dim>
					<dim>1024</dim>
				</port>
				<port id="1" precision="FP32">
					<dim>1</dim>
					<dim>1</dim>
					<dim>1</dim>
				</port>
			</input>
			<output>
				<port id="2" precision="FP32" names="460">
					<dim>-1</dim>
					<dim>-1</dim>
					<dim>1024</dim>
				</port>
			</output>
		</layer>
		<layer id="237" name="Constant_1444" type="Const" version="opset1">
			<data element_type="i64" shape="1" offset="564" size="8" />
			<output>
				<port id="0" precision="I64">
					<dim>1</dim>
				</port>
			</output>
		</layer>
		<layer id="238" name="__module.model.model.language_model.layers.0.post_attention_layernorm/aten::mean/ReduceMean" type="ReduceMean" version="opset1">
			<data keep_dims="true" />
			<input>
				<port id="0" precision="FP32">
					<dim>-1</dim>
					<dim>-1</dim>
					<dim>1024</dim>
				</port>
				<port id="1" precision="I64">
					<dim>1</dim>
				</port>
			</input>
			<output>
				<port id="2" precision="FP32" names="462">
					<dim>-1</dim>
					<dim>-1</dim>
					<dim>1</dim>
				</port>
			</output>
		</layer>
		<layer id="239" name="Constant_103906" type="Const" version="opset1">
			<data element_type="f32" shape="1, 1, 1" offset="572" size="4" />
			<output>
				<port id="0" precision="FP32">
					<dim>1</dim>
					<dim>1</dim>
					<dim>1</dim>
				</port>
			</output>
		</layer>
		<layer id="240" name="__module.model.model.language_model.layers.0.post_attention_layernorm/aten::add/Add" type="Add" version="opset1">
			<data auto_broadcast="numpy" />
			<input>
				<port id="0" precision="FP32">
					<dim>-1</dim>
					<dim>-1</dim>
					<dim>1</dim>
				</port>
				<port id="1" precision="FP32">
					<dim>1</dim>
					<dim>1</dim>
					<dim>1</dim>
				</port>
			</input>
			<output>
				<port id="2" precision="FP32" names="463">
					<dim>-1</dim>
					<dim>-1</dim>
					<dim>1</dim>
				</port>
			</output>
		</layer>
		<layer id="241" name="__module.model.model.language_model.layers.0.post_attention_layernorm/aten::rsqrt/Sqrt" type="Sqrt" version="opset1">
			<input>
				<port id="0" precision="FP32">
					<dim>-1</dim>
					<dim>-1</dim>
					<dim>1</dim>
				</port>
			</input>
			<output>
				<port id="1" precision="FP32">
					<dim>-1</dim>
					<dim>-1</dim>
					<dim>1</dim>
				</port>
			</output>
		</layer>
		<layer id="242" name="__module.model.model.language_model.layers.0.post_attention_layernorm/aten::rsqrt/Divide" type="Divide" version="opset1">
			<data auto_broadcast="numpy" m_pythondiv="true" />
			<input>
				<port id="0" precision="FP32">
					<dim>1</dim>
					<dim>1</dim>
					<dim>1</dim>
				</port>
				<port id="1" precision="FP32">
					<dim>-1</dim>
					<dim>-1</dim>
					<dim>1</dim>
				</port>
			</input>
			<output>
				<port id="2" precision="FP32" names="464">
					<dim>-1</dim>
					<dim>-1</dim>
					<dim>1</dim>
				</port>
			</output>
		</layer>
		<layer id="243" name="__module.model.model.language_model.layers.0.post_attention_layernorm/aten::mul/Multiply" type="Multiply" version="opset1">
			<data auto_broadcast="numpy" />
			<input>
				<port id="0" precision="FP32">
					<dim>-1</dim>
					<dim>-1</dim>
					<dim>1024</dim>
				</port>
				<port id="1" precision="FP32">
					<dim>-1</dim>
					<dim>-1</dim>
					<dim>1</dim>
				</port>
			</input>
			<output>
				<port id="2" precision="FP32" names="465,output.5">
					<dim>-1</dim>
					<dim>-1</dim>
					<dim>1024</dim>
				</port>
			</output>
		</layer>
		<layer id="244" name="Constant_103908" type="Const" version="opset1">
			<data element_type="f32" shape="1, 1, 1024" offset="5512781" size="4096" />
			<output>
				<port id="0" precision="FP32">
					<dim>1</dim>
					<dim>1</dim>
					<dim>1024</dim>
				</port>
			</output>
		</layer>
		<layer id="245" name="__module.model.model.language_model.layers.0.post_attention_layernorm/aten::mul/Multiply_1" type="Multiply" version="opset1">
			<data auto_broadcast="numpy" />
			<input>
				<port id="0" precision="FP32">
					<dim>-1</dim>
					<dim>-1</dim>
					<dim>1024</dim>
				</port>
				<port id="1" precision="FP32">
					<dim>1</dim>
					<dim>1</dim>
					<dim>1024</dim>
				</port>
			</input>
			<output>
				<port id="2" precision="FP32" names="468,469,output.7">
					<dim>-1</dim>
					<dim>-1</dim>
					<dim>1024</dim>
				</port>
			</output>
		</layer>
		<layer id="246" name="self.model.model.language_model.layers.0.mlp.gate_proj.weight" type="Const" version="opset1">
			<data element_type="u4" shape="3584, 8, 128" offset="5516877" size="1835008" />
			<output>
				<port id="0" precision="U4">
					<dim>3584</dim>
					<dim>8</dim>
					<dim>128</dim>
				</port>
			</output>
		</layer>
		<layer id="247" name="Convert_352698" type="Convert" version="opset1">
			<data destination_type="f16" />
			<input>
				<port id="0" precision="U4">
					<dim>3584</dim>
					<dim>8</dim>
					<dim>128</dim>
				</port>
			</input>
			<output>
				<port id="1" precision="FP16">
					<dim>3584</dim>
					<dim>8</dim>
					<dim>128</dim>
				</port>
			</output>
		</layer>
		<layer id="248" name="self.model.model.language_model.layers.0.mlp.gate_proj.weight/zero_point" type="Const" version="opset1">
			<data element_type="u4" shape="3584, 8, 1" offset="7351885" size="14336" />
			<output>
				<port id="0" precision="U4">
					<dim>3584</dim>
					<dim>8</dim>
					<dim>1</dim>
				</port>
			</output>
		</layer>
		<layer id="249" name="Convert_352701" type="Convert" version="opset1">
			<data destination_type="f16" />
			<input>
				<port id="0" precision="U4">
					<dim>3584</dim>
					<dim>8</dim>
					<dim>1</dim>
				</port>
			</input>
			<output>
				<port id="1" precision="FP16">
					<dim>3584</dim>
					<dim>8</dim>
					<dim>1</dim>
				</port>
			</output>
		</layer>
		<layer id="250" name="self.model.model.language_model.layers.0.mlp.gate_proj.weight/zero_point/subtract" type="Subtract" version="opset1">
			<data auto_broadcast="numpy" />
			<input>
				<port id="0" precision="FP16">
					<dim>3584</dim>
					<dim>8</dim>
					<dim>128</dim>
				</port>
				<port id="1" precision="FP16">
					<dim>3584</dim>
					<dim>8</dim>
					<dim>1</dim>
				</port>
			</input>
			<output>
				<port id="2" precision="FP16">
					<dim>3584</dim>
					<dim>8</dim>
					<dim>128</dim>
				</port>
			</output>
		</layer>
		<layer id="251" name="self.model.model.language_model.layers.0.mlp.gate_proj.weight/scale" type="Const" version="opset1">
			<data element_type="f16" shape="3584, 8, 1" offset="7366221" size="57344" />
			<output>
				<port id="0" precision="FP16">
					<dim>3584</dim>
					<dim>8</dim>
					<dim>1</dim>
				</port>
			</output>
		</layer>
		<layer id="252" name="self.model.model.language_model.layers.0.mlp.gate_proj.weight/fq_weights_1" type="Multiply" version="opset1">
			<data auto_broadcast="numpy" />
			<input>
				<port id="0" precision="FP16">
					<dim>3584</dim>
					<dim>8</dim>
					<dim>128</dim>
				</port>
				<port id="1" precision="FP16">
					<dim>3584</dim>
					<dim>8</dim>
					<dim>1</dim>
				</port>
			</input>
			<output>
				<port id="2" precision="FP16">
					<dim>3584</dim>
					<dim>8</dim>
					<dim>128</dim>
				</port>
			</output>
		</layer>
		<layer id="253" name="Constant_352706" type="Const" version="opset1">
			<data element_type="i64" shape="2" offset="7423565" size="16" />
			<output>
				<port id="0" precision="I64">
					<dim>2</dim>
				</port>
			</output>
		</layer>
		<layer id="254" name="Reshape_352707" type="Reshape" version="opset1">
			<data special_zero="false" />
			<input>
				<port id="0" precision="FP16">
					<dim>3584</dim>
					<dim>8</dim>
					<dim>128</dim>
				</port>
				<port id="1" precision="I64">
					<dim>2</dim>
				</port>
			</input>
			<output>
				<port id="2" precision="FP16">
					<dim>3584</dim>
					<dim>1024</dim>
				</port>
			</output>
		</layer>
		<layer id="255" name="__module.model.model.language_model.layers.0.mlp.gate_proj/ov_ext::linear/Convert" type="Convert" version="opset1">
			<data destination_type="f32" />
			<rt_info>
				<attribute name="decompression" version="0" />
			</rt_info>
			<input>
				<port id="0" precision="FP16">
					<dim>3584</dim>
					<dim>1024</dim>
				</port>
			</input>
			<output>
				<port id="1" precision="FP32">
					<dim>3584</dim>
					<dim>1024</dim>
				</port>
			</output>
		</layer>
		<layer id="256" name="__module.model.model.language_model.layers.0.mlp.gate_proj/ov_ext::linear/MatMul" type="MatMul" version="opset1">
			<data transpose_a="false" transpose_b="true" />
			<input>
				<port id="0" precision="FP32">
					<dim>-1</dim>
					<dim>-1</dim>
					<dim>1024</dim>
				</port>
				<port id="1" precision="FP32">
					<dim>3584</dim>
					<dim>1024</dim>
				</port>
			</input>
			<output>
				<port id="2" precision="FP32" names="477,input.5">
					<dim>-1</dim>
					<dim>-1</dim>
					<dim>3584</dim>
				</port>
			</output>
		</layer>
		<layer id="257" name="__module.model.model.language_model.layers.0.mlp.act_fn/aten::silu/Swish" type="Swish" version="opset4">
			<input>
				<port id="0" precision="FP32">
					<dim>-1</dim>
					<dim>-1</dim>
					<dim>3584</dim>
				</port>
			</input>
			<output>
				<port id="1" precision="FP32" names="478">
					<dim>-1</dim>
					<dim>-1</dim>
					<dim>3584</dim>
				</port>
			</output>
		</layer>
		<layer id="258" name="self.model.model.language_model.layers.0.mlp.up_proj.weight" type="Const" version="opset1">
			<data element_type="u4" shape="3584, 8, 128" offset="7423581" size="1835008" />
			<output>
				<port id="0" precision="U4">
					<dim>3584</dim>
					<dim>8</dim>
					<dim>128</dim>
				</port>
			</output>
		</layer>
		<layer id="259" name="Convert_347492" type="Convert" version="opset1">
			<data destination_type="f16" />
			<input>
				<port id="0" precision="U4">
					<dim>3584</dim>
					<dim>8</dim>
					<dim>128</dim>
				</port>
			</input>
			<output>
				<port id="1" precision="FP16">
					<dim>3584</dim>
					<dim>8</dim>
					<dim>128</dim>
				</port>
			</output>
		</layer>
		<layer id="260" name="self.model.model.language_model.layers.0.mlp.up_proj.weight/zero_point" type="Const" version="opset1">
			<data element_type="u4" shape="3584, 8, 1" offset="9258589" size="14336" />
			<output>
				<port id="0" precision="U4">
					<dim>3584</dim>
					<dim>8</dim>
					<dim>1</dim>
				</port>
			</output>
		</layer>
		<layer id="261" name="Convert_347495" type="Convert" version="opset1">
			<data destination_type="f16" />
			<input>
				<port id="0" precision="U4">
					<dim>3584</dim>
					<dim>8</dim>
					<dim>1</dim>
				</port>
			</input>
			<output>
				<port id="1" precision="FP16">
					<dim>3584</dim>
					<dim>8</dim>
					<dim>1</dim>
				</port>
			</output>
		</layer>
		<layer id="262" name="self.model.model.language_model.layers.0.mlp.up_proj.weight/zero_point/subtract" type="Subtract" version="opset1">
			<data auto_broadcast="numpy" />
			<input>
				<port id="0" precision="FP16">
					<dim>3584</dim>
					<dim>8</dim>
					<dim>128</dim>
				</port>
				<port id="1" precision="FP16">
					<dim>3584</dim>
					<dim>8</dim>
					<dim>1</dim>
				</port>
			</input>
			<output>
				<port id="2" precision="FP16">
					<dim>3584</dim>
					<dim>8</dim>
					<dim>128</dim>
				</port>
			</output>
		</layer>
		<layer id="263" name="self.model.model.language_model.layers.0.mlp.up_proj.weight/scale" type="Const" version="opset1">
			<data element_type="f16" shape="3584, 8, 1" offset="9272925" size="57344" />
			<output>
				<port id="0" precision="FP16">
					<dim>3584</dim>
					<dim>8</dim>
					<dim>1</dim>
				</port>
			</output>
		</layer>
		<layer id="264" name="self.model.model.language_model.layers.0.mlp.up_proj.weight/fq_weights_1" type="Multiply" version="opset1">
			<data auto_broadcast="numpy" />
			<input>
				<port id="0" precision="FP16">
					<dim>3584</dim>
					<dim>8</dim>
					<dim>128</dim>
				</port>
				<port id="1" precision="FP16">
					<dim>3584</dim>
					<dim>8</dim>
					<dim>1</dim>
				</port>
			</input>
			<output>
				<port id="2" precision="FP16">
					<dim>3584</dim>
					<dim>8</dim>
					<dim>128</dim>
				</port>
			</output>
		</layer>
		<layer id="265" name="Constant_347500" type="Const" version="opset1">
			<data element_type="i64" shape="2" offset="7423565" size="16" />
			<output>
				<port id="0" precision="I64">
					<dim>2</dim>
				</port>
			</output>
		</layer>
		<layer id="266" name="Reshape_347501" type="Reshape" version="opset1">
			<data special_zero="false" />
			<input>
				<port id="0" precision="FP16">
					<dim>3584</dim>
					<dim>8</dim>
					<dim>128</dim>
				</port>
				<port id="1" precision="I64">
					<dim>2</dim>
				</port>
			</input>
			<output>
				<port id="2" precision="FP16">
					<dim>3584</dim>
					<dim>1024</dim>
				</port>
			</output>
		</layer>
		<layer id="267" name="__module.model.model.language_model.layers.0.mlp.up_proj/ov_ext::linear/Convert" type="Convert" version="opset1">
			<data destination_type="f32" />
			<rt_info>
				<attribute name="decompression" version="0" />
			</rt_info>
			<input>
				<port id="0" precision="FP16">
					<dim>3584</dim>
					<dim>1024</dim>
				</port>
			</input>
			<output>
				<port id="1" precision="FP32">
					<dim>3584</dim>
					<dim>1024</dim>
				</port>
			</output>
		</layer>
		<layer id="268" name="__module.model.model.language_model.layers.0.mlp.up_proj/ov_ext::linear/MatMul" type="MatMul" version="opset1">
			<data transpose_a="false" transpose_b="true" />
			<input>
				<port id="0" precision="FP32">
					<dim>-1</dim>
					<dim>-1</dim>
					<dim>1024</dim>
				</port>
				<port id="1" precision="FP32">
					<dim>3584</dim>
					<dim>1024</dim>
				</port>
			</input>
			<output>
				<port id="2" precision="FP32" names="480">
					<dim>-1</dim>
					<dim>-1</dim>
					<dim>3584</dim>
				</port>
			</output>
		</layer>
		<layer id="269" name="__module.model.model.language_model.layers.0.mlp/aten::mul/Multiply" type="Multiply" version="opset1">
			<data auto_broadcast="numpy" />
			<input>
				<port id="0" precision="FP32">
					<dim>-1</dim>
					<dim>-1</dim>
					<dim>3584</dim>
				</port>
				<port id="1" precision="FP32">
					<dim>-1</dim>
					<dim>-1</dim>
					<dim>3584</dim>
				</port>
			</input>
			<output>
				<port id="2" precision="FP32" names="481">
					<dim>-1</dim>
					<dim>-1</dim>
					<dim>3584</dim>
				</port>
			</output>
		</layer>
		<layer id="270" name="self.model.model.language_model.layers.0.mlp.down_proj.weight" type="Const" version="opset1">
			<data element_type="u4" shape="1024, 28, 128" offset="9330269" size="1835008" />
			<output>
				<port id="0" precision="U4">
					<dim>1024</dim>
					<dim>28</dim>
					<dim>128</dim>
				</port>
			</output>
		</layer>
		<layer id="271" name="Convert_357904" type="Convert" version="opset1">
			<data destination_type="f16" />
			<input>
				<port id="0" precision="U4">
					<dim>1024</dim>
					<dim>28</dim>
					<dim>128</dim>
				</port>
			</input>
			<output>
				<port id="1" precision="FP16">
					<dim>1024</dim>
					<dim>28</dim>
					<dim>128</dim>
				</port>
			</output>
		</layer>
		<layer id="272" name="self.model.model.language_model.layers.0.mlp.down_proj.weight/zero_point" type="Const" version="opset1">
			<data element_type="u4" shape="1024, 28, 1" offset="11165277" size="14336" />
			<output>
				<port id="0" precision="U4">
					<dim>1024</dim>
					<dim>28</dim>
					<dim>1</dim>
				</port>
			</output>
		</layer>
		<layer id="273" name="Convert_357907" type="Convert" version="opset1">
			<data destination_type="f16" />
			<input>
				<port id="0" precision="U4">
					<dim>1024</dim>
					<dim>28</dim>
					<dim>1</dim>
				</port>
			</input>
			<output>
				<port id="1" precision="FP16">
					<dim>1024</dim>
					<dim>28</dim>
					<dim>1</dim>
				</port>
			</output>
		</layer>
		<layer id="274" name="self.model.model.language_model.layers.0.mlp.down_proj.weight/zero_point/subtract" type="Subtract" version="opset1">
			<data auto_broadcast="numpy" />
			<input>
				<port id="0" precision="FP16">
					<dim>1024</dim>
					<dim>28</dim>
					<dim>128</dim>
				</port>
				<port id="1" precision="FP16">
					<dim>1024</dim>
					<dim>28</dim>
					<dim>1</dim>
				</port>
			</input>
			<output>
				<port id="2" precision="FP16">
					<dim>1024</dim>
					<dim>28</dim>
					<dim>128</dim>
				</port>
			</output>
		</layer>
		<layer id="275" name="self.model.model.language_model.layers.0.mlp.down_proj.weight/scale" type="Const" version="opset1">
			<data element_type="f16" shape="1024, 28, 1" offset="11179613" size="57344" />
			<output>
				<port id="0" precision="FP16">
					<dim>1024</dim>
					<dim>28</dim>
					<dim>1</dim>
				</port>
			</output>
		</layer>
		<layer id="276" name="self.model.model.language_model.layers.0.mlp.down_proj.weight/fq_weights_1" type="Multiply" version="opset1">
			<data auto_broadcast="numpy" />
			<input>
				<port id="0" precision="FP16">
					<dim>1024</dim>
					<dim>28</dim>
					<dim>128</dim>
				</port>
				<port id="1" precision="FP16">
					<dim>1024</dim>
					<dim>28</dim>
					<dim>1</dim>
				</port>
			</input>
			<output>
				<port id="2" precision="FP16">
					<dim>1024</dim>
					<dim>28</dim>
					<dim>128</dim>
				</port>
			</output>
		</layer>
		<layer id="277" name="Constant_357912" type="Const" version="opset1">
			<data element_type="i64" shape="2" offset="11236957" size="16" />
			<output>
				<port id="0" precision="I64">
					<dim>2</dim>
				</port>
			</output>
		</layer>
		<layer id="278" name="Reshape_357913" type="Reshape" version="opset1">
			<data special_zero="false" />
			<input>
				<port id="0" precision="FP16">
					<dim>1024</dim>
					<dim>28</dim>
					<dim>128</dim>
				</port>
				<port id="1" precision="I64">
					<dim>2</dim>
				</port>
			</input>
			<output>
				<port id="2" precision="FP16">
					<dim>1024</dim>
					<dim>3584</dim>
				</port>
			</output>
		</layer>
		<layer id="279" name="__module.model.model.language_model.layers.0.mlp.down_proj/ov_ext::linear/Convert" type="Convert" version="opset1">
			<data destination_type="f32" />
			<rt_info>
				<attribute name="decompression" version="0" />
			</rt_info>
			<input>
				<port id="0" precision="FP16">
					<dim>1024</dim>
					<dim>3584</dim>
				</port>
			</input>
			<output>
				<port id="1" precision="FP32">
					<dim>1024</dim>
					<dim>3584</dim>
				</port>
			</output>
		</layer>
		<layer id="280" name="__module.model.model.language_model.layers.0.mlp.down_proj/ov_ext::linear/MatMul" type="MatMul" version="opset1">
			<data transpose_a="false" transpose_b="true" />
			<input>
				<port id="0" precision="FP32">
					<dim>-1</dim>
					<dim>-1</dim>
					<dim>3584</dim>
				</port>
				<port id="1" precision="FP32">
					<dim>1024</dim>
					<dim>3584</dim>
				</port>
			</input>
			<output>
				<port id="2" precision="FP32" names="483,hidden_states.17">
					<dim>-1</dim>
					<dim>-1</dim>
					<dim>1024</dim>
				</port>
			</output>
		</layer>
		<layer id="281" name="__module.model.model.language_model.layers.0/aten::add/Add_1" type="Add" version="opset1">
			<data auto_broadcast="numpy" />
			<input>
				<port id="0" precision="FP32">
					<dim>-1</dim>
					<dim>-1</dim>
					<dim>1024</dim>
				</port>
				<port id="1" precision="FP32">
					<dim>-1</dim>
					<dim>-1</dim>
					<dim>1024</dim>
				</port>
			</input>
			<output>
				<port id="2" precision="FP32" names="484,494,x.21,x.23">
					<dim>-1</dim>
					<dim>-1</dim>
					<dim>1024</dim>
				</port>
			</output>
		</layer>
		<layer id="282" name="Constant_103921" type="Const" version="opset1">
			<data element_type="f32" shape="1, 128" offset="11236973" size="512" />
			<output>
				<port id="0" precision="FP32">
					<dim>1</dim>
					<dim>128</dim>
				</port>
			</output>
		</layer>
		<layer id="283" name="Constant_129321" type="Const" version="opset1">
			<data element_type="f32" shape="" offset="0" size="4" />
			<output>
				<port id="0" precision="FP32" />
			</output>
		</layer>
		<layer id="284" name="Constant_129316" type="Const" version="opset1">
			<data element_type="i64" shape="1" offset="540" size="8" />
			<output>
				<port id="0" precision="I64">
					<dim>1</dim>
				</port>
			</output>
		</layer>
		<layer id="285" name="Constant_129318" type="Const" version="opset1">
			<data element_type="i64" shape="1" offset="548" size="8" />
			<output>
				<port id="0" precision="I64">
					<dim>1</dim>
				</port>
			</output>
		</layer>
		<layer id="286" name="Concat_129319" type="Concat" version="opset1">
			<data axis="0" />
			<input>
				<port id="0" precision="I64">
					<dim>1</dim>
				</port>
				<port id="1" precision="I64">
					<dim>1</dim>
				</port>
				<port id="2" precision="I64">
					<dim>1</dim>
				</port>
			</input>
			<output>
				<port id="3" precision="I64">
					<dim>3</dim>
				</port>
			</output>
		</layer>
		<layer id="287" name="Broadcast_129322" type="Broadcast" version="opset3">
			<data mode="numpy" />
			<input>
				<port id="0" precision="FP32" />
				<port id="1" precision="I64">
					<dim>3</dim>
				</port>
			</input>
			<output>
				<port id="2" precision="FP32">
					<dim>-1</dim>
					<dim>6144</dim>
					<dim>4</dim>
				</port>
			</output>
		</layer>
		<layer id="288" name="ReadValue_126972" type="ReadValue" version="opset6">
			<data variable_id="cache_params.past.conv.1cache_params.present.conv.1" variable_type="f32" variable_shape="?,6144,4" />
			<input>
				<port id="0" precision="FP32">
					<dim>-1</dim>
					<dim>6144</dim>
					<dim>4</dim>
				</port>
			</input>
			<output>
				<port id="1" precision="FP32" names="cache_params.past.conv.1">
					<dim>-1</dim>
					<dim>6144</dim>
					<dim>4</dim>
				</port>
			</output>
		</layer>
		<layer id="289" name="Constant_124660" type="Const" version="opset1">
			<data element_type="i64" shape="" offset="4" size="8" />
			<output>
				<port id="0" precision="I64" />
			</output>
		</layer>
		<layer id="290" name="Gather_124661" type="Gather" version="opset8">
			<data batch_dims="0" />
			<input>
				<port id="0" precision="FP32">
					<dim>-1</dim>
					<dim>6144</dim>
					<dim>4</dim>
				</port>
				<port id="1" precision="I32">
					<dim>-1</dim>
				</port>
				<port id="2" precision="I64" />
			</input>
			<output>
				<port id="3" precision="FP32">
					<dim>-1</dim>
					<dim>6144</dim>
					<dim>4</dim>
				</port>
			</output>
		</layer>
		<layer id="291" name="Constant_103911" type="Const" version="opset1">
			<data element_type="f32" shape="1, 1, 1" offset="556" size="4" />
			<output>
				<port id="0" precision="FP32">
					<dim>1</dim>
					<dim>1</dim>
					<dim>1</dim>
				</port>
			</output>
		</layer>
		<layer id="292" name="Constant_103909" type="Const" version="opset1">
			<data element_type="f32" shape="1, 1, 1" offset="560" size="4" />
			<output>
				<port id="0" precision="FP32">
					<dim>1</dim>
					<dim>1</dim>
					<dim>1</dim>
				</port>
			</output>
		</layer>
		<layer id="293" name="__module.model.model.language_model.layers.1.input_layernorm/aten::pow/Power" type="Power" version="opset1">
			<data auto_broadcast="numpy" />
			<input>
				<port id="0" precision="FP32">
					<dim>-1</dim>
					<dim>-1</dim>
					<dim>1024</dim>
				</port>
				<port id="1" precision="FP32">
					<dim>1</dim>
					<dim>1</dim>
					<dim>1</dim>
				</port>
			</input>
			<output>
				<port id="2" precision="FP32" names="495">
					<dim>-1</dim>
					<dim>-1</dim>
					<dim>1024</dim>
				</port>
			</output>
		</layer>
		<layer id="294" name="Constant_1535" type="Const" version="opset1">
			<data element_type="i64" shape="1" offset="564" size="8" />
			<output>
				<port id="0" precision="I64">
					<dim>1</dim>
				</port>
			</output>
		</layer>
		<layer id="295" name="__module.model.model.language_model.layers.1.input_layernorm/aten::mean/ReduceMean" type="ReduceMean" version="opset1">
			<data keep_dims="true" />
			<input>
				<port id="0" precision="FP32">
					<dim>-1</dim>
					<dim>-1</dim>
					<dim>1024</dim>
				</port>
				<port id="1" precision="I64">
					<dim>1</dim>
				</port>
			</input>
			<output>
				<port id="2" precision="FP32" names="497">
					<dim>-1</dim>
					<dim>-1</dim>
					<dim>1</dim>
				</port>
			</output>
		</layer>
		<layer id="296" name="Constant_103910" type="Const" version="opset1">
			<data element_type="f32" shape="1, 1, 1" offset="572" size="4" />
			<output>
				<port id="0" precision="FP32">
					<dim>1</dim>
					<dim>1</dim>
					<dim>1</dim>
				</port>
			</output>
		</layer>
		<layer id="297" name="__module.model.model.language_model.layers.1.input_layernorm/aten::add/Add" type="Add" version="opset1">
			<data auto_broadcast="numpy" />
			<input>
				<port id="0" precision="FP32">
					<dim>-1</dim>
					<dim>-1</dim>
					<dim>1</dim>
				</port>
				<port id="1" precision="FP32">
					<dim>1</dim>
					<dim>1</dim>
					<dim>1</dim>
				</port>
			</input>
			<output>
				<port id="2" precision="FP32" names="498">
					<dim>-1</dim>
					<dim>-1</dim>
					<dim>1</dim>
				</port>
			</output>
		</layer>
		<layer id="298" name="__module.model.model.language_model.layers.1.input_layernorm/aten::rsqrt/Sqrt" type="Sqrt" version="opset1">
			<input>
				<port id="0" precision="FP32">
					<dim>-1</dim>
					<dim>-1</dim>
					<dim>1</dim>
				</port>
			</input>
			<output>
				<port id="1" precision="FP32">
					<dim>-1</dim>
					<dim>-1</dim>
					<dim>1</dim>
				</port>
			</output>
		</layer>
		<layer id="299" name="__module.model.model.language_model.layers.1.input_layernorm/aten::rsqrt/Divide" type="Divide" version="opset1">
			<data auto_broadcast="numpy" m_pythondiv="true" />
			<input>
				<port id="0" precision="FP32">
					<dim>1</dim>
					<dim>1</dim>
					<dim>1</dim>
				</port>
				<port id="1" precision="FP32">
					<dim>-1</dim>
					<dim>-1</dim>
					<dim>1</dim>
				</port>
			</input>
			<output>
				<port id="2" precision="FP32" names="499">
					<dim>-1</dim>
					<dim>-1</dim>
					<dim>1</dim>
				</port>
			</output>
		</layer>
		<layer id="300" name="__module.model.model.language_model.layers.1.input_layernorm/aten::mul/Multiply" type="Multiply" version="opset1">
			<data auto_broadcast="numpy" />
			<input>
				<port id="0" precision="FP32">
					<dim>-1</dim>
					<dim>-1</dim>
					<dim>1024</dim>
				</port>
				<port id="1" precision="FP32">
					<dim>-1</dim>
					<dim>-1</dim>
					<dim>1</dim>
				</port>
			</input>
			<output>
				<port id="2" precision="FP32" names="500,output.9">
					<dim>-1</dim>
					<dim>-1</dim>
					<dim>1024</dim>
				</port>
			</output>
		</layer>
		<layer id="301" name="Constant_103912" type="Const" version="opset1">
			<data element_type="f32" shape="1, 1, 1024" offset="11237485" size="4096" />
			<output>
				<port id="0" precision="FP32">
					<dim>1</dim>
					<dim>1</dim>
					<dim>1024</dim>
				</port>
			</output>
		</layer>
		<layer id="302" name="__module.model.model.language_model.layers.1.input_layernorm/aten::mul/Multiply_1" type="Multiply" version="opset1">
			<data auto_broadcast="numpy" />
			<input>
				<port id="0" precision="FP32">
					<dim>-1</dim>
					<dim>-1</dim>
					<dim>1024</dim>
				</port>
				<port id="1" precision="FP32">
					<dim>1</dim>
					<dim>1</dim>
					<dim>1024</dim>
				</port>
			</input>
			<output>
				<port id="2" precision="FP32" names="503,504,hidden_states.19,output.11">
					<dim>-1</dim>
					<dim>-1</dim>
					<dim>1024</dim>
				</port>
			</output>
		</layer>
		<layer id="303" name="self.model.model.language_model.layers.1.linear_attn.in_proj_qkv.weight" type="Const" version="opset1">
			<data element_type="u4" shape="6144, 8, 128" offset="11241581" size="3145728" />
			<output>
				<port id="0" precision="U4">
					<dim>6144</dim>
					<dim>8</dim>
					<dim>128</dim>
				</port>
			</output>
		</layer>
		<layer id="304" name="Convert_227785" type="Convert" version="opset1">
			<data destination_type="f16" />
			<input>
				<port id="0" precision="U4">
					<dim>6144</dim>
					<dim>8</dim>
					<dim>128</dim>
				</port>
			</input>
			<output>
				<port id="1" precision="FP16">
					<dim>6144</dim>
					<dim>8</dim>
					<dim>128</dim>
				</port>
			</output>
		</layer>
		<layer id="305" name="self.model.model.language_model.layers.1.linear_attn.in_proj_qkv.weight/zero_point" type="Const" version="opset1">
			<data element_type="u4" shape="6144, 8, 1" offset="14387309" size="24576" />
			<output>
				<port id="0" precision="U4">
					<dim>6144</dim>
					<dim>8</dim>
					<dim>1</dim>
				</port>
			</output>
		</layer>
		<layer id="306" name="Convert_227788" type="Convert" version="opset1">
			<data destination_type="f16" />
			<input>
				<port id="0" precision="U4">
					<dim>6144</dim>
					<dim>8</dim>
					<dim>1</dim>
				</port>
			</input>
			<output>
				<port id="1" precision="FP16">
					<dim>6144</dim>
					<dim>8</dim>
					<dim>1</dim>
				</port>
			</output>
		</layer>
		<layer id="307" name="self.model.model.language_model.layers.1.linear_attn.in_proj_qkv.weight/zero_point/subtract" type="Subtract" version="opset1">
			<data auto_broadcast="numpy" />
			<input>
				<port id="0" precision="FP16">
					<dim>6144</dim>
					<dim>8</dim>
					<dim>128</dim>
				</port>
				<port id="1" precision="FP16">
					<dim>6144</dim>
					<dim>8</dim>
					<dim>1</dim>
				</port>
			</input>
			<output>
				<port id="2" precision="FP16">
					<dim>6144</dim>
					<dim>8</dim>
					<dim>128</dim>
				</port>
			</output>
		</layer>
		<layer id="308" name="self.model.model.language_model.layers.1.linear_attn.in_proj_qkv.weight/scale" type="Const" version="opset1">
			<data element_type="f16" shape="6144, 8, 1" offset="14411885" size="98304" />
			<output>
				<port id="0" precision="FP16">
					<dim>6144</dim>
					<dim>8</dim>
					<dim>1</dim>
				</port>
			</output>
		</layer>
		<layer id="309" name="self.model.model.language_model.layers.1.linear_attn.in_proj_qkv.weight/fq_weights_1" type="Multiply" version="opset1">
			<data auto_broadcast="numpy" />
			<input>
				<port id="0" precision="FP16">
					<dim>6144</dim>
					<dim>8</dim>
					<dim>128</dim>
				</port>
				<port id="1" precision="FP16">
					<dim>6144</dim>
					<dim>8</dim>
					<dim>1</dim>
				</port>
			</input>
			<output>
				<port id="2" precision="FP16">
					<dim>6144</dim>
					<dim>8</dim>
					<dim>128</dim>
				</port>
			</output>
		</layer>
		<layer id="310" name="Constant_227793" type="Const" version="opset1">
			<data element_type="i64" shape="2" offset="3273280" size="16" />
			<output>
				<port id="0" precision="I64">
					<dim>2</dim>
				</port>
			</output>
		</layer>
		<layer id="311" name="Reshape_227794" type="Reshape" version="opset1">
			<data special_zero="false" />
			<input>
				<port id="0" precision="FP16">
					<dim>6144</dim>
					<dim>8</dim>
					<dim>128</dim>
				</port>
				<port id="1" precision="I64">
					<dim>2</dim>
				</port>
			</input>
			<output>
				<port id="2" precision="FP16">
					<dim>6144</dim>
					<dim>1024</dim>
				</port>
			</output>
		</layer>
		<layer id="312" name="self.model.model.language_model.layers.1.linear_attn.in_proj_qkv.weight/fq_weights_1/convert" type="Convert" version="opset1">
			<data destination_type="f32" />
			<input>
				<port id="0" precision="FP16">
					<dim>6144</dim>
					<dim>1024</dim>
				</port>
			</input>
			<output>
				<port id="1" precision="FP32">
					<dim>6144</dim>
					<dim>1024</dim>
				</port>
			</output>
		</layer>
		<layer id="313" name="__module.model.model.language_model.layers.1.linear_attn.in_proj_qkv/ov_ext::linear/MatMul" type="MatMul" version="opset1">
			<data transpose_a="false" transpose_b="true" />
			<input>
				<port id="0" precision="FP32">
					<dim>-1</dim>
					<dim>-1</dim>
					<dim>1024</dim>
				</port>
				<port id="1" precision="FP32">
					<dim>6144</dim>
					<dim>1024</dim>
				</port>
			</input>
			<output>
				<port id="2" precision="FP32" names="521,mixed_qkv.5">
					<dim>-1</dim>
					<dim>-1</dim>
					<dim>6144</dim>
				</port>
			</output>
		</layer>
		<layer id="314" name="__module.model.model.language_model.layers.1.linear_attn/aten::transpose/Constant" type="Const" version="opset1">
			<data element_type="i32" shape="3" offset="3273296" size="12" />
			<output>
				<port id="0" precision="I32">
					<dim>3</dim>
				</port>
			</output>
		</layer>
		<layer id="315" name="__module.model.model.language_model.layers.1.linear_attn/aten::transpose/Transpose" type="Transpose" version="opset1">
			<input>
				<port id="0" precision="FP32">
					<dim>-1</dim>
					<dim>-1</dim>
					<dim>6144</dim>
				</port>
				<port id="1" precision="I32">
					<dim>3</dim>
				</port>
			</input>
			<output>
				<port id="2" precision="FP32" names="522,input_embeds.3">
					<dim>-1</dim>
					<dim>6144</dim>
					<dim>-1</dim>
				</port>
			</output>
		</layer>
		<layer id="316" name="__module.model.model.language_model.layers.1.linear_attn/aten::cat/Concat" type="Concat" version="opset1">
			<data axis="-1" />
			<input>
				<port id="0" precision="FP32">
					<dim>-1</dim>
					<dim>6144</dim>
					<dim>4</dim>
				</port>
				<port id="1" precision="FP32">
					<dim>-1</dim>
					<dim>6144</dim>
					<dim>-1</dim>
				</port>
			</input>
			<output>
				<port id="2" precision="FP32" names="536,537,550,551,input_embeds_new.3">
					<dim>-1</dim>
					<dim>6144</dim>
					<dim>-1</dim>
				</port>
			</output>
		</layer>
		<layer id="317" name="__module.model.model.language_model.layers.1.linear_attn/aten::_convolution/Reshape" type="Const" version="opset1">
			<data element_type="u8" shape="6144, 1, 1, 4" offset="14510189" size="24576" />
			<output>
				<port id="0" precision="U8">
					<dim>6144</dim>
					<dim>1</dim>
					<dim>1</dim>
					<dim>4</dim>
				</port>
			</output>
		</layer>
		<layer id="318" name="Convert_1008571" type="Convert" version="opset1">
			<data destination_type="f16" />
			<input>
				<port id="0" precision="U8">
					<dim>6144</dim>
					<dim>1</dim>
					<dim>1</dim>
					<dim>4</dim>
				</port>
			</input>
			<output>
				<port id="1" precision="FP16">
					<dim>6144</dim>
					<dim>1</dim>
					<dim>1</dim>
					<dim>4</dim>
				</port>
			</output>
		</layer>
		<layer id="319" name="__module.model.model.language_model.layers.1.linear_attn/aten::_convolution/Reshape/zero_point" type="Const" version="opset1">
			<data element_type="u8" shape="6144, 1, 1, 1" offset="14534765" size="6144" />
			<output>
				<port id="0" precision="U8">
					<dim>6144</dim>
					<dim>1</dim>
					<dim>1</dim>
					<dim>1</dim>
				</port>
			</output>
		</layer>
		<layer id="320" name="Convert_1008574" type="Convert" version="opset1">
			<data destination_type="f16" />
			<input>
				<port id="0" precision="U8">
					<dim>6144</dim>
					<dim>1</dim>
					<dim>1</dim>
					<dim>1</dim>
				</port>
			</input>
			<output>
				<port id="1" precision="FP16">
					<dim>6144</dim>
					<dim>1</dim>
					<dim>1</dim>
					<dim>1</dim>
				</port>
			</output>
		</layer>
		<layer id="321" name="__module.model.model.language_model.layers.1.linear_attn/aten::_convolution/Reshape/zero_point/subtract" type="Subtract" version="opset1">
			<data auto_broadcast="numpy" />
			<input>
				<port id="0" precision="FP16">
					<dim>6144</dim>
					<dim>1</dim>
					<dim>1</dim>
					<dim>4</dim>
				</port>
				<port id="1" precision="FP16">
					<dim>6144</dim>
					<dim>1</dim>
					<dim>1</dim>
					<dim>1</dim>
				</port>
			</input>
			<output>
				<port id="2" precision="FP16">
					<dim>6144</dim>
					<dim>1</dim>
					<dim>1</dim>
					<dim>4</dim>
				</port>
			</output>
		</layer>
		<layer id="322" name="__module.model.model.language_model.layers.1.linear_attn/aten::_convolution/Reshape/scale" type="Const" version="opset1">
			<data element_type="f16" shape="6144, 1, 1, 1" offset="14540909" size="12288" />
			<output>
				<port id="0" precision="FP16">
					<dim>6144</dim>
					<dim>1</dim>
					<dim>1</dim>
					<dim>1</dim>
				</port>
			</output>
		</layer>
		<layer id="323" name="__module.model.model.language_model.layers.1.linear_attn/aten::_convolution/Reshape/fq_weights_1" type="Multiply" version="opset1">
			<data auto_broadcast="numpy" />
			<input>
				<port id="0" precision="FP16">
					<dim>6144</dim>
					<dim>1</dim>
					<dim>1</dim>
					<dim>4</dim>
				</port>
				<port id="1" precision="FP16">
					<dim>6144</dim>
					<dim>1</dim>
					<dim>1</dim>
					<dim>1</dim>
				</port>
			</input>
			<output>
				<port id="2" precision="FP16">
					<dim>6144</dim>
					<dim>1</dim>
					<dim>1</dim>
					<dim>4</dim>
				</port>
			</output>
		</layer>
		<layer id="324" name="__module.model.model.language_model.layers.1.linear_attn/aten::_convolution/Reshape/fq_weights_1/convert" type="Convert" version="opset1">
			<data destination_type="f32" />
			<input>
				<port id="0" precision="FP16">
					<dim>6144</dim>
					<dim>1</dim>
					<dim>1</dim>
					<dim>4</dim>
				</port>
			</input>
			<output>
				<port id="1" precision="FP32">
					<dim>6144</dim>
					<dim>1</dim>
					<dim>1</dim>
					<dim>4</dim>
				</port>
			</output>
		</layer>
		<layer id="325" name="__module.model.model.language_model.layers.1.linear_attn/aten::_convolution/GroupConvolution" type="GroupConvolution" version="opset1">
			<data strides="1" pads_begin="0" pads_end="0" dilations="1" auto_pad="explicit" />
			<input>
				<port id="0" precision="FP32">
					<dim>-1</dim>
					<dim>6144</dim>
					<dim>-1</dim>
				</port>
				<port id="1" precision="FP32">
					<dim>6144</dim>
					<dim>1</dim>
					<dim>1</dim>
					<dim>4</dim>
				</port>
			</input>
			<output>
				<port id="2" precision="FP32" names="542,545,546,conv_out.3">
					<dim>-1</dim>
					<dim>6144</dim>
					<dim>-1</dim>
				</port>
			</output>
		</layer>
		<layer id="326" name="__module.model.model.language_model.layers.1.linear_attn/aten::neg/Constant" type="Const" version="opset1">
			<data element_type="i32" shape="" offset="3316316" size="4" />
			<output>
				<port id="0" precision="I32" />
			</output>
		</layer>
		<layer id="327" name="__module.model.model.language_model.layers.1.linear_attn/aten::neg/ConvertLike" type="Convert" version="opset1">
			<data destination_type="i64" />
			<input>
				<port id="0" precision="I32" />
			</input>
			<output>
				<port id="1" precision="I64" />
			</output>
		</layer>
		<layer id="328" name="Constant_59219" type="Const" version="opset1">
			<data element_type="i64" shape="1" offset="564" size="8" />
			<output>
				<port id="0" precision="I64">
					<dim>1</dim>
				</port>
			</output>
		</layer>
		<layer id="329" name="Reshape_80453" type="Reshape" version="opset1">
			<data special_zero="false" />
			<input>
				<port id="0" precision="I64" />
				<port id="1" precision="I64">
					<dim>1</dim>
				</port>
…
		<edge from-layer="5862" from-port="2" to-layer="5863" to-port="0" />
		<edge from-layer="5863" from-port="1" to-layer="5864" to-port="1" />
		<edge from-layer="5864" from-port="2" to-layer="5865" to-port="0" />
		<edge from-layer="5865" from-port="2" to-layer="5876" to-port="0" />
		<edge from-layer="5866" from-port="0" to-layer="5867" to-port="0" />
		<edge from-layer="5867" from-port="1" to-layer="5870" to-port="0" />
		<edge from-layer="5868" from-port="0" to-layer="5869" to-port="0" />
		<edge from-layer="5869" from-port="1" to-layer="5870" to-port="1" />
		<edge from-layer="5870" from-port="2" to-layer="5872" to-port="0" />
		<edge from-layer="5871" from-port="0" to-layer="5872" to-port="1" />
		<edge from-layer="5872" from-port="2" to-layer="5874" to-port="0" />
		<edge from-layer="5873" from-port="0" to-layer="5874" to-port="1" />
		<edge from-layer="5874" from-port="2" to-layer="5875" to-port="0" />
		<edge from-layer="5875" from-port="1" to-layer="5876" to-port="1" />
		<edge from-layer="5876" from-port="2" to-layer="5877" to-port="1" />
		<edge from-layer="5877" from-port="2" to-layer="5880" to-port="0" />
		<edge from-layer="5877" from-port="2" to-layer="5925" to-port="0" />
		<edge from-layer="5877" from-port="2" to-layer="5887" to-port="0" />
		<edge from-layer="5878" from-port="0" to-layer="5886" to-port="0" />
		<edge from-layer="5879" from-port="0" to-layer="5880" to-port="1" />
		<edge from-layer="5880" from-port="2" to-layer="5882" to-port="0" />
		<edge from-layer="5881" from-port="0" to-layer="5882" to-port="1" />
		<edge from-layer="5882" from-port="2" to-layer="5884" to-port="0" />
		<edge from-layer="5883" from-port="0" to-layer="5884" to-port="1" />
		<edge from-layer="5884" from-port="2" to-layer="5885" to-port="0" />
		<edge from-layer="5885" from-port="1" to-layer="5886" to-port="1" />
		<edge from-layer="5886" from-port="2" to-layer="5887" to-port="1" />
		<edge from-layer="5887" from-port="2" to-layer="5889" to-port="0" />
		<edge from-layer="5888" from-port="0" to-layer="5889" to-port="1" />
		<edge from-layer="5889" from-port="2" to-layer="5900" to-port="0" />
		<edge from-layer="5889" from-port="2" to-layer="5912" to-port="0" />
		<edge from-layer="5890" from-port="0" to-layer="5891" to-port="0" />
		<edge from-layer="5891" from-port="1" to-layer="5894" to-port="0" />
		<edge from-layer="5892" from-port="0" to-layer="5893" to-port="0" />
		<edge from-layer="5893" from-port="1" to-layer="5894" to-port="1" />
		<edge from-layer="5894" from-port="2" to-layer="5896" to-port="0" />
		<edge from-layer="5895" from-port="0" to-layer="5896" to-port="1" />
		<edge from-layer="5896" from-port="2" to-layer="5898" to-port="0" />
		<edge from-layer="5897" from-port="0" to-layer="5898" to-port="1" />
		<edge from-layer="5898" from-port="2" to-layer="5899" to-port="0" />
		<edge from-layer="5899" from-port="1" to-layer="5900" to-port="1" />
		<edge from-layer="5900" from-port="2" to-layer="5901" to-port="0" />
		<edge from-layer="5901" from-port="1" to-layer="5913" to-port="0" />
		<edge from-layer="5902" from-port="0" to-layer="5903" to-port="0" />
		<edge from-layer="5903" from-port="1" to-layer="5906" to-port="0" />
		<edge from-layer="5904" from-port="0" to-layer="5905" to-port="0" />
		<edge from-layer="5905" from-port="1" to-layer="5906" to-port="1" />
		<edge from-layer="5906" from-port="2" to-layer="5908" to-port="0" />
		<edge from-layer="5907" from-port="0" to-layer="5908" to-port="1" />
		<edge from-layer="5908" from-port="2" to-layer="5910" to-port="0" />
		<edge from-layer="5909" from-port="0" to-layer="5910" to-port="1" />
		<edge from-layer="5910" from-port="2" to-layer="5911" to-port="0" />
		<edge from-layer="5911" from-port="1" to-layer="5912" to-port="1" />
		<edge from-layer="5912" from-port="2" to-layer="5913" to-port="1" />
		<edge from-layer="5913" from-port="2" to-layer="5924" to-port="0" />
		<edge from-layer="5914" from-port="0" to-layer="5915" to-port="0" />
		<edge from-layer="5915" from-port="1" to-layer="5918" to-port="0" />
		<edge from-layer="5916" from-port="0" to-layer="5917" to-port="0" />
		<edge from-layer="5917" from-port="1" to-layer="5918" to-port="1" />
		<edge from-layer="5918" from-port="2" to-layer="5920" to-port="0" />
		<edge from-layer="5919" from-port="0" to-layer="5920" to-port="1" />
		<edge from-layer="5920" from-port="2" to-layer="5922" to-port="0" />
		<edge from-layer="5921" from-port="0" to-layer="5922" to-port="1" />
		<edge from-layer="5922" from-port="2" to-layer="5923" to-port="0" />
		<edge from-layer="5923" from-port="1" to-layer="5924" to-port="1" />
		<edge from-layer="5924" from-port="2" to-layer="5925" to-port="1" />
		<edge from-layer="5925" from-port="2" to-layer="5928" to-port="0" />
		<edge from-layer="5925" from-port="2" to-layer="6447" to-port="0" />
		<edge from-layer="5925" from-port="2" to-layer="5935" to-port="0" />
		<edge from-layer="5926" from-port="0" to-layer="5934" to-port="0" />
		<edge from-layer="5927" from-port="0" to-layer="5928" to-port="1" />
		<edge from-layer="5928" from-port="2" to-layer="5930" to-port="0" />
		<edge from-layer="5929" from-port="0" to-layer="5930" to-port="1" />
		<edge from-layer="5930" from-port="2" to-layer="5932" to-port="0" />
		<edge from-layer="5931" from-port="0" to-layer="5932" to-port="1" />
		<edge from-layer="5932" from-port="2" to-layer="5933" to-port="0" />
		<edge from-layer="5933" from-port="1" to-layer="5934" to-port="1" />
		<edge from-layer="5934" from-port="2" to-layer="5935" to-port="1" />
		<edge from-layer="5935" from-port="2" to-layer="5937" to-port="0" />
		<edge from-layer="5936" from-port="0" to-layer="5937" to-port="1" />
		<edge from-layer="5937" from-port="2" to-layer="6371" to-port="0" />
		<edge from-layer="5937" from-port="2" to-layer="5948" to-port="0" />
		<edge from-layer="5937" from-port="2" to-layer="6081" to-port="0" />
		<edge from-layer="5938" from-port="0" to-layer="5939" to-port="0" />
		<edge from-layer="5939" from-port="1" to-layer="5942" to-port="0" />
		<edge from-layer="5940" from-port="0" to-layer="5941" to-port="0" />
		<edge from-layer="5941" from-port="1" to-layer="5942" to-port="1" />
		<edge from-layer="5942" from-port="2" to-layer="5944" to-port="0" />
		<edge from-layer="5943" from-port="0" to-layer="5944" to-port="1" />
		<edge from-layer="5944" from-port="2" to-layer="5946" to-port="0" />
		<edge from-layer="5945" from-port="0" to-layer="5946" to-port="1" />
		<edge from-layer="5946" from-port="2" to-layer="5947" to-port="0" />
		<edge from-layer="5947" from-port="1" to-layer="5948" to-port="1" />
		<edge from-layer="5948" from-port="2" to-layer="5950" to-port="0" />
		<edge from-layer="5949" from-port="0" to-layer="5950" to-port="1" />
		<edge from-layer="5950" from-port="2" to-layer="5952" to-port="0" />
		<edge from-layer="5951" from-port="0" to-layer="5952" to-port="1" />
		<edge from-layer="5952" from-port="2" to-layer="5953" to-port="1" />
		<edge from-layer="5953" from-port="2" to-layer="6423" to-port="0" />
		<edge from-layer="5953" from-port="2" to-layer="6564" to-port="0" />
		<edge from-layer="5954" from-port="0" to-layer="5957" to-port="2" />
		<edge from-layer="5955" from-port="0" to-layer="5957" to-port="3" />
		<edge from-layer="5956" from-port="0" to-layer="5957" to-port="4" />
		<edge from-layer="5957" from-port="5" to-layer="5959" to-port="0" />
		<edge from-layer="5958" from-port="1" to-layer="5959" to-port="1" />
		<edge from-layer="5959" from-port="2" to-layer="6558" to-port="0" />
		<edge from-layer="5960" from-port="0" to-layer="5963" to-port="2" />
		<edge from-layer="5961" from-port="0" to-layer="5963" to-port="3" />
		<edge from-layer="5962" from-port="0" to-layer="5963" to-port="4" />
		<edge from-layer="5963" from-port="5" to-layer="5965" to-port="0" />
		<edge from-layer="5964" from-port="1" to-layer="5965" to-port="1" />
		<edge from-layer="5965" from-port="2" to-layer="6557" to-port="0" />
		<edge from-layer="5966" from-port="0" to-layer="5969" to-port="2" />
		<edge from-layer="5967" from-port="0" to-layer="5969" to-port="3" />
		<edge from-layer="5968" from-port="0" to-layer="5969" to-port="4" />
		<edge from-layer="5969" from-port="5" to-layer="5971" to-port="0" />
		<edge from-layer="5970" from-port="1" to-layer="5971" to-port="1" />
		<edge from-layer="5971" from-port="2" to-layer="6556" to-port="0" />
		<edge from-layer="5972" from-port="0" to-layer="5975" to-port="2" />
		<edge from-layer="5973" from-port="0" to-layer="5975" to-port="3" />
		<edge from-layer="5974" from-port="0" to-layer="5975" to-port="4" />
		<edge from-layer="5975" from-port="5" to-layer="5977" to-port="0" />
		<edge from-layer="5976" from-port="1" to-layer="5977" to-port="1" />
		<edge from-layer="5977" from-port="2" to-layer="6555" to-port="0" />
		<edge from-layer="5978" from-port="0" to-layer="5981" to-port="2" />
		<edge from-layer="5979" from-port="0" to-layer="5981" to-port="3" />
		<edge from-layer="5980" from-port="0" to-layer="5981" to-port="4" />
		<edge from-layer="5981" from-port="5" to-layer="5983" to-port="0" />
		<edge from-layer="5982" from-port="1" to-layer="5983" to-port="1" />
		<edge from-layer="5983" from-port="2" to-layer="6554" to-port="0" />
		<edge from-layer="5984" from-port="0" to-layer="5987" to-port="2" />
		<edge from-layer="5985" from-port="0" to-layer="5987" to-port="3" />
		<edge from-layer="5986" from-port="0" to-layer="5987" to-port="4" />
		<edge from-layer="5987" from-port="5" to-layer="5989" to-port="0" />
		<edge from-layer="5988" from-port="1" to-layer="5989" to-port="1" />
		<edge from-layer="5989" from-port="2" to-layer="6553" to-port="0" />
		<edge from-layer="5990" from-port="0" to-layer="5993" to-port="2" />
		<edge from-layer="5991" from-port="0" to-layer="5993" to-port="3" />
		<edge from-layer="5992" from-port="0" to-layer="5993" to-port="4" />
		<edge from-layer="5993" from-port="5" to-layer="5995" to-port="0" />
		<edge from-layer="5994" from-port="1" to-layer="5995" to-port="1" />
		<edge from-layer="5995" from-port="2" to-layer="6552" to-port="0" />
		<edge from-layer="5996" from-port="0" to-layer="5999" to-port="2" />
		<edge from-layer="5997" from-port="0" to-layer="5999" to-port="3" />
		<edge from-layer="5998" from-port="0" to-layer="5999" to-port="4" />
		<edge from-layer="5999" from-port="5" to-layer="6001" to-port="0" />
		<edge from-layer="6000" from-port="1" to-layer="6001" to-port="1" />
		<edge from-layer="6001" from-port="2" to-layer="6551" to-port="0" />
		<edge from-layer="6002" from-port="0" to-layer="6005" to-port="2" />
		<edge from-layer="6003" from-port="0" to-layer="6005" to-port="3" />
		<edge from-layer="6004" from-port="0" to-layer="6005" to-port="4" />
		<edge from-layer="6005" from-port="5" to-layer="6007" to-port="0" />
		<edge from-layer="6006" from-port="1" to-layer="6007" to-port="1" />
		<edge from-layer="6007" from-port="2" to-layer="6550" to-port="0" />
		<edge from-layer="6008" from-port="0" to-layer="6011" to-port="2" />
		<edge from-layer="6009" from-port="0" to-layer="6011" to-port="3" />
		<edge from-layer="6010" from-port="0" to-layer="6011" to-port="4" />
		<edge from-layer="6011" from-port="5" to-layer="6013" to-port="0" />
		<edge from-layer="6012" from-port="1" to-layer="6013" to-port="1" />
		<edge from-layer="6013" from-port="2" to-layer="6549" to-port="0" />
		<edge from-layer="6014" from-port="0" to-layer="6017" to-port="2" />
		<edge from-layer="6015" from-port="0" to-layer="6017" to-port="3" />
		<edge from-layer="6016" from-port="0" to-layer="6017" to-port="4" />
		<edge from-layer="6017" from-port="5" to-layer="6019" to-port="0" />
		<edge from-layer="6018" from-port="1" to-layer="6019" to-port="1" />
		<edge from-layer="6019" from-port="2" to-layer="6548" to-port="0" />
		<edge from-layer="6020" from-port="0" to-layer="6023" to-port="2" />
		<edge from-layer="6021" from-port="0" to-layer="6023" to-port="3" />
		<edge from-layer="6022" from-port="0" to-layer="6023" to-port="4" />
		<edge from-layer="6023" from-port="5" to-layer="6025" to-port="0" />
		<edge from-layer="6024" from-port="1" to-layer="6025" to-port="1" />
		<edge from-layer="6025" from-port="2" to-layer="6547" to-port="0" />
		<edge from-layer="6026" from-port="0" to-layer="6029" to-port="2" />
		<edge from-layer="6027" from-port="0" to-layer="6029" to-port="3" />
		<edge from-layer="6028" from-port="0" to-layer="6029" to-port="4" />
		<edge from-layer="6029" from-port="5" to-layer="6031" to-port="0" />
		<edge from-layer="6030" from-port="1" to-layer="6031" to-port="1" />
		<edge from-layer="6031" from-port="2" to-layer="6546" to-port="0" />
		<edge from-layer="6032" from-port="0" to-layer="6035" to-port="2" />
		<edge from-layer="6033" from-port="0" to-layer="6035" to-port="3" />
		<edge from-layer="6034" from-port="0" to-layer="6035" to-port="4" />
		<edge from-layer="6035" from-port="5" to-layer="6037" to-port="0" />
		<edge from-layer="6036" from-port="1" to-layer="6037" to-port="1" />
		<edge from-layer="6037" from-port="2" to-layer="6545" to-port="0" />
		<edge from-layer="6038" from-port="0" to-layer="6041" to-port="2" />
		<edge from-layer="6039" from-port="0" to-layer="6041" to-port="3" />
		<edge from-layer="6040" from-port="0" to-layer="6041" to-port="4" />
		<edge from-layer="6041" from-port="5" to-layer="6043" to-port="0" />
		<edge from-layer="6042" from-port="1" to-layer="6043" to-port="1" />
		<edge from-layer="6043" from-port="2" to-layer="6544" to-port="0" />
		<edge from-layer="6044" from-port="0" to-layer="6047" to-port="2" />
		<edge from-layer="6045" from-port="0" to-layer="6047" to-port="3" />
		<edge from-layer="6046" from-port="0" to-layer="6047" to-port="4" />
		<edge from-layer="6047" from-port="5" to-layer="6049" to-port="0" />
		<edge from-layer="6048" from-port="1" to-layer="6049" to-port="1" />
		<edge from-layer="6049" from-port="2" to-layer="6543" to-port="0" />
		<edge from-layer="6050" from-port="0" to-layer="6053" to-port="2" />
		<edge from-layer="6051" from-port="0" to-layer="6053" to-port="3" />
		<edge from-layer="6052" from-port="0" to-layer="6053" to-port="4" />
		<edge from-layer="6053" from-port="5" to-layer="6055" to-port="0" />
		<edge from-layer="6054" from-port="1" to-layer="6055" to-port="1" />
		<edge from-layer="6055" from-port="2" to-layer="6542" to-port="0" />
		<edge from-layer="6056" from-port="0" to-layer="6059" to-port="2" />
		<edge from-layer="6057" from-port="0" to-layer="6059" to-port="3" />
		<edge from-layer="6058" from-port="0" to-layer="6059" to-port="4" />
		<edge from-layer="6059" from-port="5" to-layer="6061" to-port="0" />
		<edge from-layer="6060" from-port="1" to-layer="6061" to-port="1" />
		<edge from-layer="6061" from-port="2" to-layer="6541" to-port="0" />
		<edge from-layer="6062" from-port="0" to-layer="6067" to-port="0" />
		<edge from-layer="6063" from-port="0" to-layer="6066" to-port="1" />
		<edge from-layer="6064" from-port="0" to-layer="6066" to-port="2" />
		<edge from-layer="6065" from-port="0" to-layer="6066" to-port="3" />
		<edge from-layer="6066" from-port="4" to-layer="6067" to-port="1" />
		<edge from-layer="6067" from-port="2" to-layer="6068" to-port="0" />
		<edge from-layer="6068" from-port="1" to-layer="6070" to-port="0" />
		<edge from-layer="6069" from-port="0" to-layer="6070" to-port="2" />
		<edge from-layer="6070" from-port="3" to-layer="6126" to-port="0" />
		<edge from-layer="6071" from-port="0" to-layer="6072" to-port="0" />
		<edge from-layer="6072" from-port="1" to-layer="6075" to-port="0" />
		<edge from-layer="6073" from-port="0" to-layer="6074" to-port="0" />
		<edge from-layer="6074" from-port="1" to-layer="6075" to-port="1" />
		<edge from-layer="6075" from-port="2" to-layer="6077" to-port="0" />
		<edge from-layer="6076" from-port="0" to-layer="6077" to-port="1" />
		<edge from-layer="6077" from-port="2" to-layer="6079" to-port="0" />
		<edge from-layer="6078" from-port="0" to-layer="6079" to-port="1" />
		<edge from-layer="6079" from-port="2" to-layer="6080" to-port="0" />
		<edge from-layer="6080" from-port="1" to-layer="6081" to-port="1" />
		<edge from-layer="6081" from-port="2" to-layer="6083" to-port="0" />
		<edge from-layer="6082" from-port="0" to-layer="6083" to-port="1" />
		<edge from-layer="6083" from-port="2" to-layer="6086" to-port="0" />
		<edge from-layer="6083" from-port="2" to-layer="6093" to-port="0" />
		<edge from-layer="6084" from-port="0" to-layer="6092" to-port="0" />
		<edge from-layer="6085" from-port="0" to-layer="6086" to-port="1" />
		<edge from-layer="6086" from-port="2" to-layer="6088" to-port="0" />
		<edge from-layer="6087" from-port="0" to-layer="6088" to-port="1" />
		<edge from-layer="6088" from-port="2" to-layer="6090" to-port="0" />
		<edge from-layer="6089" from-port="0" to-layer="6090" to-port="1" />
		<edge from-layer="6090" from-port="2" to-layer="6091" to-port="0" />
		<edge from-layer="6091" from-port="1" to-layer="6092" to-port="1" />
		<edge from-layer="6092" from-port="2" to-layer="6093" to-port="1" />
		<edge from-layer="6093" from-port="2" to-layer="6095" to-port="0" />
		<edge from-layer="6094" from-port="0" to-layer="6095" to-port="1" />
		<edge from-layer="6095" from-port="2" to-layer="6097" to-port="0" />
		<edge from-layer="6096" from-port="0" to-layer="6097" to-port="1" />
		<edge from-layer="6097" from-port="2" to-layer="6102" to-port="0" />
		<edge from-layer="6097" from-port="2" to-layer="6124" to-port="0" />
		<edge from-layer="6098" from-port="0" to-layer="6102" to-port="1" />
		<edge from-layer="6099" from-port="0" to-layer="6102" to-port="2" />
		<edge from-layer="6100" from-port="0" to-layer="6102" to-port="3" />
		<edge from-layer="6101" from-port="0" to-layer="6102" to-port="4" />
		<edge from-layer="6102" from-port="5" to-layer="6116" to-port="0" />
		<edge from-layer="6102" from-port="5" to-layer="6103" to-port="0" />
		<edge from-layer="6102" from-port="5" to-layer="6108" to-port="0" />
		<edge from-layer="6103" from-port="2" to-layer="6119" to-port="0" />
		<edge from-layer="6104" from-port="0" to-layer="6108" to-port="1" />
		<edge from-layer="6105" from-port="0" to-layer="6108" to-port="2" />
		<edge from-layer="6106" from-port="0" to-layer="6108" to-port="3" />
		<edge from-layer="6107" from-port="0" to-layer="6108" to-port="4" />
		<edge from-layer="6108" from-port="5" to-layer="6111" to-port="0" />
		<edge from-layer="6109" from-port="0" to-layer="6110" to-port="0" />
		<edge from-layer="6110" from-port="1" to-layer="6111" to-port="1" />
		<edge from-layer="6111" from-port="2" to-layer="6117" to-port="0" />
		<edge from-layer="6112" from-port="0" to-layer="6116" to-port="1" />
		<edge from-layer="6113" from-port="0" to-layer="6116" to-port="2" />
		<edge from-layer="6114" from-port="0" to-layer="6116" to-port="3" />
		<edge from-layer="6115" from-port="0" to-layer="6116" to-port="4" />
		<edge from-layer="6116" from-port="5" to-layer="6117" to-port="1" />
		<edge from-layer="6117" from-port="2" to-layer="6118" to-port="0" />
		<edge from-layer="6118" from-port="2" to-layer="6119" to-port="1" />
		<edge from-layer="6119" from-port="2" to-layer="6125" to-port="0" />
		<edge from-layer="6120" from-port="0" to-layer="6124" to-port="1" />
		<edge from-layer="6121" from-port="0" to-layer="6124" to-port="2" />
		<edge from-layer="6122" from-port="0" to-layer="6124" to-port="3" />
		<edge from-layer="6123" from-port="0" to-layer="6124" to-port="4" />
		<edge from-layer="6124" from-port="5" to-layer="6125" to-port="1" />
		<edge from-layer="6125" from-port="2" to-layer="6126" to-port="1" />
		<edge from-layer="6126" from-port="2" to-layer="6419" to-port="0" />
		<edge from-layer="6126" from-port="2" to-layer="6540" to-port="0" />
		<edge from-layer="6127" from-port="1" to-layer="6130" to-port="0" />
		<edge from-layer="6128" from-port="0" to-layer="6130" to-port="1" />
		<edge from-layer="6129" from-port="0" to-layer="6130" to-port="2" />
		<edge from-layer="6130" from-port="3" to-layer="6135" to-port="0" />
		<edge from-layer="6131" from-port="0" to-layer="6132" to-port="0" />
		<edge from-layer="6132" from-port="1" to-layer="6134" to-port="0" />
		<edge from-layer="6133" from-port="0" to-layer="6134" to-port="1" />
		<edge from-layer="6134" from-port="2" to-layer="6135" to-port="1" />
		<edge from-layer="6135" from-port="2" to-layer="6139" to-port="1" />
		<edge from-layer="6136" from-port="0" to-layer="6139" to-port="2" />
		<edge from-layer="6137" from-port="0" to-layer="6139" to-port="3" />
		<edge from-layer="6138" from-port="0" to-layer="6139" to-port="4" />
		<edge from-layer="6139" from-port="5" to-layer="6534" to-port="0" />
		<edge from-layer="6140" from-port="1" to-layer="6143" to-port="0" />
		<edge from-layer="6141" from-port="0" to-layer="6143" to-port="1" />
		<edge from-layer="6142" from-port="0" to-layer="6143" to-port="2" />
		<edge from-layer="6143" from-port="3" to-layer="6148" to-port="0" />
		<edge from-layer="6144" from-port="0" to-layer="6145" to-port="0" />
		<edge from-layer="6145" from-port="1" to-layer="6147" to-port="0" />
		<edge from-layer="6146" from-port="0" to-layer="6147" to-port="1" />
		<edge from-layer="6147" from-port="2" to-layer="6148" to-port="1" />
		<edge from-layer="6148" from-port="2" to-layer="6152" to-port="1" />
		<edge from-layer="6149" from-port="0" to-layer="6152" to-port="2" />
		<edge from-layer="6150" from-port="0" to-layer="6152" to-port="3" />
		<edge from-layer="6151" from-port="0" to-layer="6152" to-port="4" />
		<edge from-layer="6152" from-port="5" to-layer="6533" to-port="0" />
		<edge from-layer="6153" from-port="1" to-layer="6156" to-port="0" />
		<edge from-layer="6154" from-port="0" to-layer="6156" to-port="1" />
		<edge from-layer="6155" from-port="0" to-layer="6156" to-port="2" />
		<edge from-layer="6156" from-port="3" to-layer="6161" to-port="0" />
		<edge from-layer="6157" from-port="0" to-layer="6158" to-port="0" />
		<edge from-layer="6158" from-port="1" to-layer="6160" to-port="0" />
		<edge from-layer="6159" from-port="0" to-layer="6160" to-port="1" />
		<edge from-layer="6160" from-port="2" to-layer="6161" to-port="1" />
		<edge from-layer="6161" from-port="2" to-layer="6165" to-port="1" />
		<edge from-layer="6162" from-port="0" to-layer="6165" to-port="2" />
		<edge from-layer="6163" from-port="0" to-layer="6165" to-port="3" />
		<edge from-layer="6164" from-port="0" to-layer="6165" to-port="4" />
		<edge from-layer="6165" from-port="5" to-layer="6532" to-port="0" />
		<edge from-layer="6166" from-port="1" to-layer="6169" to-port="0" />
		<edge from-layer="6167" from-port="0" to-layer="6169" to-port="1" />
		<edge from-layer="6168" from-port="0" to-layer="6169" to-port="2" />
		<edge from-layer="6169" from-port="3" to-layer="6174" to-port="0" />
		<edge from-layer="6170" from-port="0" to-layer="6171" to-port="0" />
		<edge from-layer="6171" from-port="1" to-layer="6173" to-port="0" />
		<edge from-layer="6172" from-port="0" to-layer="6173" to-port="1" />
		<edge from-layer="6173" from-port="2" to-layer="6174" to-port="1" />
		<edge from-layer="6174" from-port="2" to-layer="6178" to-port="1" />
		<edge from-layer="6175" from-port="0" to-layer="6178" to-port="2" />
		<edge from-layer="6176" from-port="0" to-layer="6178" to-port="3" />
		<edge from-layer="6177" from-port="0" to-layer="6178" to-port="4" />
		<edge from-layer="6178" from-port="5" to-layer="6531" to-port="0" />
		<edge from-layer="6179" from-port="1" to-layer="6182" to-port="0" />
		<edge from-layer="6180" from-port="0" to-layer="6182" to-port="1" />
		<edge from-layer="6181" from-port="0" to-layer="6182" to-port="2" />
		<edge from-layer="6182" from-port="3" to-layer="6187" to-port="0" />
		<edge from-layer="6183" from-port="0" to-layer="6184" to-port="0" />
		<edge from-layer="6184" from-port="1" to-layer="6186" to-port="0" />
		<edge from-layer="6185" from-port="0" to-layer="6186" to-port="1" />
		<edge from-layer="6186" from-port="2" to-layer="6187" to-port="1" />
		<edge from-layer="6187" from-port="2" to-layer="6191" to-port="1" />
		<edge from-layer="6188" from-port="0" to-layer="6191" to-port="2" />
		<edge from-layer="6189" from-port="0" to-layer="6191" to-port="3" />
		<edge from-layer="6190" from-port="0" to-layer="6191" to-port="4" />
		<edge from-layer="6191" from-port="5" to-layer="6530" to-port="0" />
		<edge from-layer="6192" from-port="1" to-layer="6195" to-port="0" />
		<edge from-layer="6193" from-port="0" to-layer="6195" to-port="1" />
		<edge from-layer="6194" from-port="0" to-layer="6195" to-port="2" />
		<edge from-layer="6195" from-port="3" to-layer="6200" to-port="0" />
		<edge from-layer="6196" from-port="0" to-layer="6197" to-port="0" />
		<edge from-layer="6197" from-port="1" to-layer="6199" to-port="0" />
		<edge from-layer="6198" from-port="0" to-layer="6199" to-port="1" />
		<edge from-layer="6199" from-port="2" to-layer="6200" to-port="1" />
		<edge from-layer="6200" from-port="2" to-layer="6204" to-port="1" />
		<edge from-layer="6201" from-port="0" to-layer="6204" to-port="2" />
		<edge from-layer="6202" from-port="0" to-layer="6204" to-port="3" />
		<edge from-layer="6203" from-port="0" to-layer="6204" to-port="4" />
		<edge from-layer="6204" from-port="5" to-layer="6529" to-port="0" />
		<edge from-layer="6205" from-port="1" to-layer="6208" to-port="0" />
		<edge from-layer="6206" from-port="0" to-layer="6208" to-port="1" />
		<edge from-layer="6207" from-port="0" to-layer="6208" to-port="2" />
		<edge from-layer="6208" from-port="3" to-layer="6213" to-port="0" />
		<edge from-layer="6209" from-port="0" to-layer="6210" to-port="0" />
		<edge from-layer="6210" from-port="1" to-layer="6212" to-port="0" />
		<edge from-layer="6211" from-port="0" to-layer="6212" to-port="1" />
		<edge from-layer="6212" from-port="2" to-layer="6213" to-port="1" />
		<edge from-layer="6213" from-port="2" to-layer="6217" to-port="1" />
		<edge from-layer="6214" from-port="0" to-layer="6217" to-port="2" />
		<edge from-layer="6215" from-port="0" to-layer="6217" to-port="3" />
		<edge from-layer="6216" from-port="0" to-layer="6217" to-port="4" />
		<edge from-layer="6217" from-port="5" to-layer="6528" to-port="0" />
		<edge from-layer="6218" from-port="1" to-layer="6221" to-port="0" />
		<edge from-layer="6219" from-port="0" to-layer="6221" to-port="1" />
		<edge from-layer="6220" from-port="0" to-layer="6221" to-port="2" />
		<edge from-layer="6221" from-port="3" to-layer="6226" to-port="0" />
		<edge from-layer="6222" from-port="0" to-layer="6223" to-port="0" />
		<edge from-layer="6223" from-port="1" to-layer="6225" to-port="0" />
		<edge from-layer="6224" from-port="0" to-layer="6225" to-port="1" />
		<edge from-layer="6225" from-port="2" to-layer="6226" to-port="1" />
		<edge from-layer="6226" from-port="2" to-layer="6230" to-port="1" />
		<edge from-layer="6227" from-port="0" to-layer="6230" to-port="2" />
		<edge from-layer="6228" from-port="0" to-layer="6230" to-port="3" />
		<edge from-layer="6229" from-port="0" to-layer="6230" to-port="4" />
		<edge from-layer="6230" from-port="5" to-layer="6527" to-port="0" />
		<edge from-layer="6231" from-port="1" to-layer="6234" to-port="0" />
		<edge from-layer="6232" from-port="0" to-layer="6234" to-port="1" />
		<edge from-layer="6233" from-port="0" to-layer="6234" to-port="2" />
		<edge from-layer="6234" from-port="3" to-layer="6239" to-port="0" />
		<edge from-layer="6235" from-port="0" to-layer="6236" to-port="0" />
		<edge from-layer="6236" from-port="1" to-layer="6238" to-port="0" />
		<edge from-layer="6237" from-port="0" to-layer="6238" to-port="1" />
		<edge from-layer="6238" from-port="2" to-layer="6239" to-port="1" />
		<edge from-layer="6239" from-port="2" to-layer="6243" to-port="1" />
		<edge from-layer="6240" from-port="0" to-layer="6243" to-port="2" />
		<edge from-layer="6241" from-port="0" to-layer="6243" to-port="3" />
		<edge from-layer="6242" from-port="0" to-layer="6243" to-port="4" />
		<edge from-layer="6243" from-port="5" to-layer="6526" to-port="0" />
		<edge from-layer="6244" from-port="1" to-layer="6247" to-port="0" />
		<edge from-layer="6245" from-port="0" to-layer="6247" to-port="1" />
		<edge from-layer="6246" from-port="0" to-layer="6247" to-port="2" />
		<edge from-layer="6247" from-port="3" to-layer="6252" to-port="0" />
		<edge from-layer="6248" from-port="0" to-layer="6249" to-port="0" />
		<edge from-layer="6249" from-port="1" to-layer="6251" to-port="0" />
		<edge from-layer="6250" from-port="0" to-layer="6251" to-port="1" />
		<edge from-layer="6251" from-port="2" to-layer="6252" to-port="1" />
		<edge from-layer="6252" from-port="2" to-layer="6256" to-port="1" />
		<edge from-layer="6253" from-port="0" to-layer="6256" to-port="2" />
		<edge from-layer="6254" from-port="0" to-layer="6256" to-port="3" />
		<edge from-layer="6255" from-port="0" to-layer="6256" to-port="4" />
		<edge from-layer="6256" from-port="5" to-layer="6525" to-port="0" />
		<edge from-layer="6257" from-port="1" to-layer="6260" to-port="0" />
		<edge from-layer="6258" from-port="0" to-layer="6260" to-port="1" />
		<edge from-layer="6259" from-port="0" to-layer="6260" to-port="2" />
		<edge from-layer="6260" from-port="3" to-layer="6265" to-port="0" />
		<edge from-layer="6261" from-port="0" to-layer="6262" to-port="0" />
		<edge from-layer="6262" from-port="1" to-layer="6264" to-port="0" />
		<edge from-layer="6263" from-port="0" to-layer="6264" to-port="1" />
		<edge from-layer="6264" from-port="2" to-layer="6265" to-port="1" />
		<edge from-layer="6265" from-port="2" to-layer="6269" to-port="1" />
		<edge from-layer="6266" from-port="0" to-layer="6269" to-port="2" />
		<edge from-layer="6267" from-port="0" to-layer="6269" to-port="3" />
		<edge from-layer="6268" from-port="0" to-layer="6269" to-port="4" />
		<edge from-layer="6269" from-port="5" to-layer="6524" to-port="0" />
		<edge from-layer="6270" from-port="1" to-layer="6273" to-port="0" />
		<edge from-layer="6271" from-port="0" to-layer="6273" to-port="1" />
		<edge from-layer="6272" from-port="0" to-layer="6273" to-port="2" />
		<edge from-layer="6273" from-port="3" to-layer="6278" to-port="0" />
		<edge from-layer="6274" from-port="0" to-layer="6275" to-port="0" />
		<edge from-layer="6275" from-port="1" to-layer="6277" to-port="0" />
		<edge from-layer="6276" from-port="0" to-layer="6277" to-port="1" />
		<edge from-layer="6277" from-port="2" to-layer="6278" to-port="1" />
		<edge from-layer="6278" from-port="2" to-layer="6282" to-port="1" />
		<edge from-layer="6279" from-port="0" to-layer="6282" to-port="2" />
		<edge from-layer="6280" from-port="0" to-layer="6282" to-port="3" />
		<edge from-layer="6281" from-port="0" to-layer="6282" to-port="4" />
		<edge from-layer="6282" from-port="5" to-layer="6523" to-port="0" />
		<edge from-layer="6283" from-port="1" to-layer="6286" to-port="0" />
		<edge from-layer="6284" from-port="0" to-layer="6286" to-port="1" />
		<edge from-layer="6285" from-port="0" to-layer="6286" to-port="2" />
		<edge from-layer="6286" from-port="3" to-layer="6291" to-port="0" />
		<edge from-layer="6287" from-port="0" to-layer="6288" to-port="0" />
		<edge from-layer="6288" from-port="1" to-layer="6290" to-port="0" />
		<edge from-layer="6289" from-port="0" to-layer="6290" to-port="1" />
		<edge from-layer="6290" from-port="2" to-layer="6291" to-port="1" />
		<edge from-layer="6291" from-port="2" to-layer="6295" to-port="1" />
		<edge from-layer="6292" from-port="0" to-layer="6295" to-port="2" />
		<edge from-layer="6293" from-port="0" to-layer="6295" to-port="3" />
		<edge from-layer="6294" from-port="0" to-layer="6295" to-port="4" />
		<edge from-layer="6295" from-port="5" to-layer="6522" to-port="0" />
		<edge from-layer="6296" from-port="1" to-layer="6299" to-port="0" />
		<edge from-layer="6297" from-port="0" to-layer="6299" to-port="1" />
		<edge from-layer="6298" from-port="0" to-layer="6299" to-port="2" />
		<edge from-layer="6299" from-port="3" to-layer="6304" to-port="0" />
		<edge from-layer="6300" from-port="0" to-layer="6301" to-port="0" />
		<edge from-layer="6301" from-port="1" to-layer="6303" to-port="0" />
		<edge from-layer="6302" from-port="0" to-layer="6303" to-port="1" />
		<edge from-layer="6303" from-port="2" to-layer="6304" to-port="1" />
		<edge from-layer="6304" from-port="2" to-layer="6308" to-port="1" />
		<edge from-layer="6305" from-port="0" to-layer="6308" to-port="2" />
		<edge from-layer="6306" from-port="0" to-layer="6308" to-port="3" />
		<edge from-layer="6307" from-port="0" to-layer="6308" to-port="4" />
		<edge from-layer="6308" from-port="5" to-layer="6521" to-port="0" />
		<edge from-layer="6309" from-port="1" to-layer="6312" to-port="0" />
		<edge from-layer="6310" from-port="0" to-layer="6312" to-port="1" />
		<edge from-layer="6311" from-port="0" to-layer="6312" to-port="2" />
		<edge from-layer="6312" from-port="3" to-layer="6317" to-port="0" />
		<edge from-layer="6313" from-port="0" to-layer="6314" to-port="0" />
		<edge from-layer="6314" from-port="1" to-layer="6316" to-port="0" />
		<edge from-layer="6315" from-port="0" to-layer="6316" to-port="1" />
		<edge from-layer="6316" from-port="2" to-layer="6317" to-port="1" />
		<edge from-layer="6317" from-port="2" to-layer="6321" to-port="1" />
		<edge from-layer="6318" from-port="0" to-layer="6321" to-port="2" />
		<edge from-layer="6319" from-port="0" to-layer="6321" to-port="3" />
		<edge from-layer="6320" from-port="0" to-layer="6321" to-port="4" />
		<edge from-layer="6321" from-port="5" to-layer="6520" to-port="0" />
		<edge from-layer="6322" from-port="1" to-layer="6325" to-port="0" />
		<edge from-layer="6323" from-port="0" to-layer="6325" to-port="1" />
		<edge from-layer="6324" from-port="0" to-layer="6325" to-port="2" />
		<edge from-layer="6325" from-port="3" to-layer="6330" to-port="0" />
		<edge from-layer="6326" from-port="0" to-layer="6327" to-port="0" />
		<edge from-layer="6327" from-port="1" to-layer="6329" to-port="0" />
		<edge from-layer="6328" from-port="0" to-layer="6329" to-port="1" />
		<edge from-layer="6329" from-port="2" to-layer="6330" to-port="1" />
		<edge from-layer="6330" from-port="2" to-layer="6334" to-port="1" />
		<edge from-layer="6331" from-port="0" to-layer="6334" to-port="2" />
		<edge from-layer="6332" from-port="0" to-layer="6334" to-port="3" />
		<edge from-layer="6333" from-port="0" to-layer="6334" to-port="4" />
		<edge from-layer="6334" from-port="5" to-layer="6519" to-port="0" />
		<edge from-layer="6335" from-port="1" to-layer="6338" to-port="0" />
		<edge from-layer="6336" from-port="0" to-layer="6338" to-port="1" />
		<edge from-layer="6337" from-port="0" to-layer="6338" to-port="2" />
		<edge from-layer="6338" from-port="3" to-layer="6343" to-port="0" />
		<edge from-layer="6339" from-port="0" to-layer="6340" to-port="0" />
		<edge from-layer="6340" from-port="1" to-layer="6342" to-port="0" />
		<edge from-layer="6341" from-port="0" to-layer="6342" to-port="1" />
		<edge from-layer="6342" from-port="2" to-layer="6343" to-port="1" />
		<edge from-layer="6343" from-port="2" to-layer="6347" to-port="1" />
		<edge from-layer="6344" from-port="0" to-layer="6347" to-port="2" />
		<edge from-layer="6345" from-port="0" to-layer="6347" to-port="3" />
		<edge from-layer="6346" from-port="0" to-layer="6347" to-port="4" />
		<edge from-layer="6347" from-port="5" to-layer="6518" to-port="0" />
		<edge from-layer="6348" from-port="1" to-layer="6351" to-port="0" />
		<edge from-layer="6349" from-port="0" to-layer="6351" to-port="1" />
		<edge from-layer="6350" from-port="0" to-layer="6351" to-port="2" />
		<edge from-layer="6351" from-port="3" to-layer="6356" to-port="0" />
		<edge from-layer="6352" from-port="0" to-layer="6353" to-port="0" />
		<edge from-layer="6353" from-port="1" to-layer="6355" to-port="0" />
		<edge from-layer="6354" from-port="0" to-layer="6355" to-port="1" />
		<edge from-layer="6355" from-port="2" to-layer="6356" to-port="1" />
		<edge from-layer="6356" from-port="2" to-layer="6360" to-port="1" />
		<edge from-layer="6357" from-port="0" to-layer="6360" to-port="2" />
		<edge from-layer="6358" from-port="0" to-layer="6360" to-port="3" />
		<edge from-layer="6359" from-port="0" to-layer="6360" to-port="4" />
		<edge from-layer="6360" from-port="5" to-layer="6517" to-port="0" />
		<edge from-layer="6361" from-port="0" to-layer="6362" to-port="0" />
		<edge from-layer="6362" from-port="1" to-layer="6365" to-port="0" />
		<edge from-layer="6363" from-port="0" to-layer="6364" to-port="0" />
		<edge from-layer="6364" from-port="1" to-layer="6365" to-port="1" />
		<edge from-layer="6365" from-port="2" to-layer="6367" to-port="0" />
		<edge from-layer="6366" from-port="0" to-layer="6367" to-port="1" />
		<edge from-layer="6367" from-port="2" to-layer="6369" to-port="0" />
		<edge from-layer="6368" from-port="0" to-layer="6369" to-port="1" />
		<edge from-layer="6369" from-port="2" to-layer="6370" to-port="0" />
		<edge from-layer="6370" from-port="1" to-layer="6371" to-port="1" />
		<edge from-layer="6371" from-port="2" to-layer="6373" to-port="0" />
		<edge from-layer="6372" from-port="0" to-layer="6373" to-port="1" />
		<edge from-layer="6373" from-port="2" to-layer="6374" to-port="0" />
		<edge from-layer="6374" from-port="3" to-layer="6376" to-port="0" />
		<edge from-layer="6374" from-port="4" to-layer="6433" to-port="0" />
		<edge from-layer="6375" from-port="0" to-layer="6376" to-port="1" />
		<edge from-layer="6376" from-port="2" to-layer="6386" to-port="0" />
		<edge from-layer="6376" from-port="2" to-layer="6379" to-port="0" />
		<edge from-layer="6377" from-port="0" to-layer="6385" to-port="0" />
		<edge from-layer="6378" from-port="0" to-layer="6379" to-port="1" />
		<edge from-layer="6379" from-port="2" to-layer="6381" to-port="0" />
		<edge from-layer="6380" from-port="0" to-layer="6381" to-port="1" />
		<edge from-layer="6381" from-port="2" to-layer="6383" to-port="0" />
		<edge from-layer="6382" from-port="0" to-layer="6383" to-port="1" />
		<edge from-layer="6383" from-port="2" to-layer="6384" to-port="0" />
		<edge from-layer="6384" from-port="1" to-layer="6385" to-port="1" />
		<edge from-layer="6385" from-port="2" to-layer="6386" to-port="1" />
		<edge from-layer="6386" from-port="2" to-layer="6388" to-port="0" />
		<edge from-layer="6387" from-port="0" to-layer="6388" to-port="1" />
		<edge from-layer="6388" from-port="2" to-layer="6390" to-port="0" />
		<edge from-layer="6389" from-port="0" to-layer="6390" to-port="1" />
		<edge from-layer="6390" from-port="2" to-layer="6417" to-port="0" />
		<edge from-layer="6390" from-port="2" to-layer="6395" to-port="0" />
		<edge from-layer="6391" from-port="0" to-layer="6395" to-port="1" />
		<edge from-layer="6392" from-port="0" to-layer="6395" to-port="2" />
		<edge from-layer="6393" from-port="0" to-layer="6395" to-port="3" />
		<edge from-layer="6394" from-port="0" to-layer="6395" to-port="4" />
		<edge from-layer="6395" from-port="5" to-layer="6409" to-port="0" />
		<edge from-layer="6395" from-port="5" to-layer="6396" to-port="0" />
		<edge from-layer="6395" from-port="5" to-layer="6401" to-port="0" />
		<edge from-layer="6396" from-port="2" to-layer="6412" to-port="0" />
		<edge from-layer="6397" from-port="0" to-layer="6401" to-port="1" />
		<edge from-layer="6398" from-port="0" to-layer="6401" to-port="2" />
		<edge from-layer="6399" from-port="0" to-layer="6401" to-port="3" />
		<edge from-layer="6400" from-port="0" to-layer="6401" to-port="4" />
		<edge from-layer="6401" from-port="5" to-layer="6404" to-port="0" />
		<edge from-layer="6402" from-port="0" to-layer="6403" to-port="0" />
		<edge from-layer="6403" from-port="1" to-layer="6404" to-port="1" />
		<edge from-layer="6404" from-port="2" to-layer="6410" to-port="0" />
		<edge from-layer="6405" from-port="0" to-layer="6409" to-port="1" />
		<edge from-layer="6406" from-port="0" to-layer="6409" to-port="2" />
		<edge from-layer="6407" from-port="0" to-layer="6409" to-port="3" />
		<edge from-layer="6408" from-port="0" to-layer="6409" to-port="4" />
		<edge from-layer="6409" from-port="5" to-layer="6410" to-port="1" />
		<edge from-layer="6410" from-port="2" to-layer="6411" to-port="0" />
		<edge from-layer="6411" from-port="2" to-layer="6412" to-port="1" />
		<edge from-layer="6412" from-port="2" to-layer="6418" to-port="0" />
		<edge from-layer="6413" from-port="0" to-layer="6417" to-port="1" />
		<edge from-layer="6414" from-port="0" to-layer="6417" to-port="2" />
		<edge from-layer="6415" from-port="0" to-layer="6417" to-port="3" />
		<edge from-layer="6416" from-port="0" to-layer="6417" to-port="4" />
		<edge from-layer="6417" from-port="5" to-layer="6418" to-port="1" />
		<edge from-layer="6418" from-port="2" to-layer="6427" to-port="0" />
		<edge from-layer="6419" from-port="2" to-layer="6420" to-port="0" />
		<edge from-layer="6420" from-port="2" to-layer="6422" to-port="0" />
		<edge from-layer="6421" from-port="0" to-layer="6422" to-port="1" />
		<edge from-layer="6422" from-port="2" to-layer="6427" to-port="1" />
		<edge from-layer="6423" from-port="2" to-layer="6424" to-port="0" />
		<edge from-layer="6424" from-port="2" to-layer="6426" to-port="0" />
		<edge from-layer="6425" from-port="0" to-layer="6426" to-port="1" />
		<edge from-layer="6426" from-port="2" to-layer="6427" to-port="2" />
		<edge from-layer="6427" from-port="5" to-layer="6429" to-port="0" />
		<edge from-layer="6428" from-port="0" to-layer="6429" to-port="1" />
		<edge from-layer="6429" from-port="2" to-layer="6431" to-port="0" />
		<edge from-layer="6430" from-port="0" to-layer="6431" to-port="1" />
		<edge from-layer="6431" from-port="2" to-layer="6435" to-port="0" />
		<edge from-layer="6432" from-port="0" to-layer="6433" to-port="1" />
		<edge from-layer="6433" from-port="2" to-layer="6434" to-port="0" />
		<edge from-layer="6434" from-port="1" to-layer="6435" to-port="1" />
		<edge from-layer="6435" from-port="2" to-layer="6446" to-port="0" />
		<edge from-layer="6436" from-port="0" to-layer="6437" to-port="0" />
		<edge from-layer="6437" from-port="1" to-layer="6440" to-port="0" />
		<edge from-layer="6438" from-port="0" to-layer="6439" to-port="0" />
		<edge from-layer="6439" from-port="1" to-layer="6440" to-port="1" />
		<edge from-layer="6440" from-port="2" to-layer="6442" to-port="0" />
		<edge from-layer="6441" from-port="0" to-layer="6442" to-port="1" />
		<edge from-layer="6442" from-port="2" to-layer="6444" to-port="0" />
		<edge from-layer="6443" from-port="0" to-layer="6444" to-port="1" />
		<edge from-layer="6444" from-port="2" to-layer="6445" to-port="0" />
		<edge from-layer="6445" from-port="1" to-layer="6446" to-port="1" />
		<edge from-layer="6446" from-port="2" to-layer="6447" to-port="1" />
		<edge from-layer="6447" from-port="2" to-layer="6457" to-port="0" />
		<edge from-layer="6447" from-port="2" to-layer="6495" to-port="0" />
		<edge from-layer="6447" from-port="2" to-layer="6450" to-port="0" />
		<edge from-layer="6448" from-port="0" to-layer="6456" to-port="0" />
		<edge from-layer="6449" from-port="0" to-layer="6450" to-port="1" />
		<edge from-layer="6450" from-port="2" to-layer="6452" to-port="0" />
		<edge from-layer="6451" from-port="0" to-layer="6452" to-port="1" />
		<edge from-layer="6452" from-port="2" to-layer="6454" to-port="0" />
		<edge from-layer="6453" from-port="0" to-layer="6454" to-port="1" />
		<edge from-layer="6454" from-port="2" to-layer="6455" to-port="0" />
		<edge from-layer="6455" from-port="1" to-layer="6456" to-port="1" />
		<edge from-layer="6456" from-port="2" to-layer="6457" to-port="1" />
		<edge from-layer="6457" from-port="2" to-layer="6459" to-port="0" />
		<edge from-layer="6458" from-port="0" to-layer="6459" to-port="1" />
		<edge from-layer="6459" from-port="2" to-layer="6470" to-port="0" />
		<edge from-layer="6459" from-port="2" to-layer="6482" to-port="0" />
		<edge from-layer="6460" from-port="0" to-layer="6461" to-port="0" />
		<edge from-layer="6461" from-port="1" to-layer="6464" to-port="0" />
		<edge from-layer="6462" from-port="0" to-layer="6463" to-port="0" />
		<edge from-layer="6463" from-port="1" to-layer="6464" to-port="1" />
		<edge from-layer="6464" from-port="2" to-layer="6466" to-port="0" />
		<edge from-layer="6465" from-port="0" to-layer="6466" to-port="1" />
		<edge from-layer="6466" from-port="2" to-layer="6468" to-port="0" />
		<edge from-layer="6467" from-port="0" to-layer="6468" to-port="1" />
		<edge from-layer="6468" from-port="2" to-layer="6469" to-port="0" />
		<edge from-layer="6469" from-port="1" to-layer="6470" to-port="1" />
		<edge from-layer="6470" from-port="2" to-layer="6471" to-port="0" />
		<edge from-layer="6471" from-port="1" to-layer="6483" to-port="0" />
		<edge from-layer="6472" from-port="0" to-layer="6473" to-port="0" />
		<edge from-layer="6473" from-port="1" to-layer="6476" to-port="0" />
		<edge from-layer="6474" from-port="0" to-layer="6475" to-port="0" />
		<edge from-layer="6475" from-port="1" to-layer="6476" to-port="1" />
		<edge from-layer="6476" from-port="2" to-layer="6478" to-port="0" />
		<edge from-layer="6477" from-port="0" to-layer="6478" to-port="1" />
		<edge from-layer="6478" from-port="2" to-layer="6480" to-port="0" />
		<edge from-layer="6479" from-port="0" to-layer="6480" to-port="1" />
		<edge from-layer="6480" from-port="2" to-layer="6481" to-port="0" />
		<edge from-layer="6481" from-port="1" to-layer="6482" to-port="1" />
		<edge from-layer="6482" from-port="2" to-layer="6483" to-port="1" />
		<edge from-layer="6483" from-port="2" to-layer="6494" to-port="0" />
		<edge from-layer="6484" from-port="0" to-layer="6485" to-port="0" />
		<edge from-layer="6485" from-port="1" to-layer="6488" to-port="0" />
		<edge from-layer="6486" from-port="0" to-layer="6487" to-port="0" />
		<edge from-layer="6487" from-port="1" to-layer="6488" to-port="1" />
		<edge from-layer="6488" from-port="2" to-layer="6490" to-port="0" />
		<edge from-layer="6489" from-port="0" to-layer="6490" to-port="1" />
		<edge from-layer="6490" from-port="2" to-layer="6492" to-port="0" />
		<edge from-layer="6491" from-port="0" to-layer="6492" to-port="1" />
		<edge from-layer="6492" from-port="2" to-layer="6493" to-port="0" />
		<edge from-layer="6493" from-port="1" to-layer="6494" to-port="1" />
		<edge from-layer="6494" from-port="2" to-layer="6495" to-port="1" />
		<edge from-layer="6495" from-port="2" to-layer="6505" to-port="0" />
		<edge from-layer="6495" from-port="2" to-layer="6498" to-port="0" />
		<edge from-layer="6496" from-port="0" to-layer="6504" to-port="0" />
		<edge from-layer="6497" from-port="0" to-layer="6498" to-port="1" />
		<edge from-layer="6498" from-port="2" to-layer="6500" to-port="0" />
		<edge from-layer="6499" from-port="0" to-layer="6500" to-port="1" />
		<edge from-layer="6500" from-port="2" to-layer="6502" to-port="0" />
		<edge from-layer="6501" from-port="0" to-layer="6502" to-port="1" />
		<edge from-layer="6502" from-port="2" to-layer="6503" to-port="0" />
		<edge from-layer="6503" from-port="1" to-layer="6504" to-port="1" />
		<edge from-layer="6504" from-port="2" to-layer="6505" to-port="1" />
		<edge from-layer="6505" from-port="2" to-layer="6507" to-port="0" />
		<edge from-layer="6506" from-port="0" to-layer="6507" to-port="1" />
		<edge from-layer="6507" from-port="2" to-layer="6516" to-port="0" />
		<edge from-layer="6508" from-port="0" to-layer="6509" to-port="0" />
		<edge from-layer="6509" from-port="1" to-layer="6512" to-port="0" />
		<edge from-layer="6510" from-port="0" to-layer="6511" to-port="0" />
		<edge from-layer="6511" from-port="1" to-layer="6512" to-port="1" />
		<edge from-layer="6512" from-port="2" to-layer="6514" to-port="0" />
		<edge from-layer="6513" from-port="0" to-layer="6514" to-port="1" />
		<edge from-layer="6514" from-port="2" to-layer="6515" to-port="0" />
		<edge from-layer="6515" from-port="1" to-layer="6516" to-port="1" />
		<edge from-layer="6516" from-port="2" to-layer="6565" to-port="0" />
	</edges>
	<rt_info>
		<info name="OpenVINO Runtime" value="2026.2.0-21903-52ddc073857-releases/2026/2" />
		<Runtime_version value="2026.2.0-21903-52ddc073857-releases/2026/2" />
		<conversion_parameters>
			<framework value="pytorch" />
			<is_python_object value="True" />
		</conversion_parameters>
		<nncf>
			<friendly_names_were_updated value="True" />
			<version value="3.2.0" />
			<weight_compression>
				<advanced_parameters value="{'statistics_path': None, 'lora_adapter_rank': 256, 'group_size_fallback_mode': 'error', 'min_adjusted_group_size': 32, 'awq_params': {'subset_size': 32, 'percent_to_apply': 0.002, 'alpha_min': 0.0, 'alpha_max': 1.0, 'steps': 100, 'prefer_data_aware_scaling': True}, 'scale_estimation_params': {'subset_size': 64, 'initial_steps': 5, 'scale_steps': 5, 'weight_penalty': -1.0}, 'gptq_params': {'damp_percent': 0.1, 'block_size': 128, 'subset_size': 128}, 'lora_correction_params': {'adapter_rank': 8, 'num_iterations': 3, 'apply_regularization': True, 'subset_size': 128, 'use_int8_adapters': True}, 'backend_params': {}, 'codebook': None, 'adaptive_codebook_params': {'value_type': 'f8e4m3', 'across_blocks': False, 'num_elements': 16}}" />
				<all_layers value="False" />
				<awq value="False" />
				<backup_mode value="int8_asym" />
				<compression_format value="dequantize" />
				<gptq value="False" />
				<group_size value="128" />
				<ignored_scope value="[]" />
				<lora_correction value="False" />
				<mode value="int4_asym" />
				<ratio value="1.0" />
				<scale_estimation value="False" />
				<sensitivity_metric value="weight_quantization_error" />
			</weight_compression>
		</nncf>
		<optimum>
			<nncf_version value="3.2.0" />
			<optimum_intel_version value="2.0.0" />
			<optimum_version value="2.2.0" />
			<pytorch_version value="2.12.0+cpu" />
			<transformers_version value="5.11.0" />
		</optimum>
		<runtime_options>
			<ACTIVATIONS_SCALE_FACTOR value="8.0" />
		</runtime_options>
	</rt_info>
</net>
